callbacks/05-23-2022_09-20-08/models/epoch_9.pt (torch, 205087 bytes, 4 tensors)

fc1.0.weight f4 [64, 784]
000000 78 3b ac bb 04 2d 07 bd dc 21 5f bc e1 37 04 3d
       -0.0052561127 -0.033001915 -0.013618913 0.032279853
000010 3b 9c 0f bd a0 98 c9 3a 98 d5 d1 bc 00 c3 10 bc
       -0.035061102 0.0015380569 -0.025614545 -0.008835554
000020 44 4c 0b bd 8e 06 37 bc 26 ee ad 3c 72 0c df 3c
       -0.03400828 -0.011170996 0.021231722 0.027227614
000030 91 fe 83 bb dd 2f 3c bc 16 49 6b 3d 70 b2 99 3c
       -0.0040281494 -0.011486021 0.057442747 0.018761843
000040 25 60 8b bc 00 01 99 3b 7c 78 34 3c e3 a4 c3 bc
       -0.017013619 0.0046693087 0.011015054 -0.023882335
000050 c4 d9 13 3c 80 09 94 3c 70 d7 e3 bb 4a 35 0d bc
       0.009024087 0.018070936 -0.0069531724 -0.008618662
000060 c5 d5 ea bc 1e 01 f4 3c de 54 aa bc c8 88 bb bc
       -0.028666386 0.029785689 -0.020792421 -0.02289237
000070 be d3 e3 3c 9f 34 01 3d c0 66 f1 3a f6 57 b5 3c
       0.027810927 0.031544324 0.0018417463 0.02213667
000080 b0 ad 95 3c 30 84 67 3b 2b 1f b4 bb 37 e3 f3 bc
       0.018271297 0.0035326593 -0.0054968796 -0.02977143
000090 13 08 30 3d 65 40 0f bc 2a 55 00 be cd 14 c3 bd
       0.04297645 -0.00874338 -0.12532488 -0.09525452
0000a0 4d bf c9 bd 44 57 ed bd 3c 90 52 be 5b 2d 7b be
       -0.09850941 -0.1158891 -0.20562834 -0.2452902
0000b0 a9 1a 4e bd 9b ff 8b 3d e2 9f a8 bd 50 14 d4 bd
       -0.050318394 0.06835862 -0.0823362 -0.10355437
0000c0 bc e1 1f be 89 7f c6 bd ce 4a 43 3c 72 4c 87 3c
       -0.15613455 -0.09692294 0.01191969 0.016515944
0000d0 e2 8b ef 3c 70 7e 03 bd 80 5d b2 b9 ea e9 38 bc
       0.029241506 -0.032103002 -0.0003402047 -0.011286238
0000e0 22 1e fe 3c 43 5c 0f bd 60 2a d3 ba f9 d3 3a 3d
       0.031020228 -0.035000097 -0.0016110651 0.04561231
0000f0 7b c3 13 3d cc f4 cd 3b a0 d3 85 bb 33 71 17 be
       0.036075097 0.0062852856 -0.0040840656 -0.14789276
000100 0c 92 b3 bc be 4b f0 bc 10 16 ff bd 07 2e 0c be
       -0.021920227 -0.029332992 -0.1245538 -0.13689433
000110 d9 a9 b1 bd cb 8d 06 be 67 08 a6 be a1 18 9b be
       -0.08674974 -0.13140027 -0.32428285 -0.30292228
000120 70 b1 e6 bd 5a 05 81 bd 2b d2 5e bd f0 48 17 be
       -0.11264312 -0.06299849 -0.05439965 -0.14773917
000130 d6 85 d5 bd 57 e3 24 be 36 a6 4b be 6b 19 a2 bd
       -0.10425918 -0.16102348 -0.19887623 -0.07915004
000140 17 48 93 3d d1 5d c1 3d 93 30 c1 bc 6c 9f 9f bc
       0.071914844 0.09441722 -0.023582732 -0.019485198
000150 9a ed 9d bc 1a 6f de bc 66 3c 02 bd 60 0a 07 3d
       -0.019278336 -0.027152587 -0.03179588 0.03296888
000160 c9 25 53 3a 15 63 0f 3c df 87 77 bc 51 14 b1 3c
       0.00080546417 0.00875165 -0.015108078 0.021616133
000170 d7 ae f5 3d 16 8a 2e 3e 5a e0 41 3e 9e 29 13 3e
       0.11996239 0.17044863 0.1893324 0.14371344
000180 c8 14 9e 3c 6a ff 31 bd b7 79 4b 3d d7 8e 9f bd
       0.019297019 -0.043456472 0.049676623 -0.077909164
000190 8c 2f 4c be 86 8a 21 be 2d 59 6a bd 9d 22 10 be
       -0.19940013 -0.15775499 -0.05721395 -0.14075704
0001a0 7f 12 e3 bd 35 44 73 bc 58 0a 7a bc 61 f4 10 be
       -0.11087512 -0.014847805 -0.015261255 -0.14155723
0001b0 41 fe 90 bd a0 c2 02 3d 2c 03 13 3d 3e 15 03 bd
       -0.07079745 0.03192389 0.035891697 -0.03200268
0001c0 e3 2d 0f bd 5d ce c5 3b a7 aa 1b 3c d4 ea 94 bd
       -0.03495587 0.0060365633 0.009501136 -0.072713524
0001d0 8b 1e 6b be 96 fd 8e be 67 4c 55 be a1 ad c1 bd
       -0.2296087 -0.27927846 -0.20829926 -0.09456945
0001e0 70 c0 a8 bd c4 de c1 3c 2c 58 6d 3d 51 ec 4e 3e
       -0.082398295 0.023665793 0.057945415 0.20207335
0001f0 3a d9 73 3d e1 71 8c 3d a4 a6 4c 3a cc 28 23 be
       0.059533335 0.06857658 0.0007806814 -0.15933532
000200 b1 5a 05 be 94 13 01 bd a5 5a ff 3c 85 40 20 bc
       -0.13022877 -0.03151281 0.031171152 -0.009781008
000210 71 e5 22 bd 42 72 e7 bd 0b d5 1d be d6 00 ef bd
       -0.039769594 -0.1130109 -0.154133 -0.11670081
000220 55 b2 25 3e bd aa fa 3d c8 81 89 be 8a 62 54 be
       0.1618131 0.12239597 -0.26856828 -0.20740715
000230 b3 70 f0 bc 06 53 f3 3c 62 7b 94 bd 33 92 d7 bd
       -0.029350614 0.029702675 -0.07250096 -0.10525932
000240 c9 f2 80 be 38 04 49 be 13 2c 68 bd 9f 66 42 be
       -0.2518523 -0.19630516 -0.056682657 -0.1898446
000250 ba 1a 38 bd 59 d0 bc 3c b7 4f 39 3e 9d 1a a9 3d
       -0.044947363 0.023048567 0.18096815 0.08257029
000260 31 d8 c7 bc d2 e6 53 3d 61 f7 21 3b de 9e 12 3d
       -0.02439508 0.0517338 0.00247141 0.03579604
000270 33 18 11 bd 2b 35 51 bd 72 65 9f 3d 90 5b 73 bd
       -0.03542347 -0.051076096 0.07783021 -0.059413493
000280 70 ec fa bd 83 8b 92 bc 8e fd 57 bd b7 5c 7d bc
       -0.12252128 -0.01788879 -0.052732043 -0.0154639995
000290 ca ff 0c 3e 2e 2c 2e 3e ff dc c1 3d 9e 63 e0 3d
       0.13769451 0.1700904 0.0946598 0.109565005
0002a0 f2 87 fc 3c 1c 73 94 3d 3d 4f d0 3c 4c a1 d9 bd
       0.030826543 0.07248518 0.025428409 -0.10626468
0002b0 a4 6b 43 bd d4 b2 a3 3c ab a6 a2 3d 96 8d 38 3d
       -0.047710076 0.019982733 0.07941946 0.045056902
0002c0 af e6 01 3e 02 c8 69 3e 57 d6 2f 3e 71 30 8e 3d
       0.12685655 0.22830203 0.17171608 0.06942833
0002d0 0d 57 44 3e 71 bb c9 3d 1e e4 c5 3b 20 45 aa bc
       0.19173832 0.09850205 0.0060391566 -0.020784914
0002e0 81 24 16 3b 77 a3 4a bd e8 82 4d bd f6 a0 b6 bd
       0.0022909942 -0.0494723 -0.05017367 -0.089174196
0002f0 58 22 4a bd 74 f9 91 3c 7b 65 a6 bc 1b 77 09 be
       -0.04934916 0.017819144 -0.020312062 -0.13424341
000300 37 a5 eb 3d f6 dd 8d 3c 25 49 5b bc 5c 41 0f 3e
       0.115061216 0.017317753 -0.013384138 0.13989776
000310 92 a4 e7 3c 44 5d 19 3e 48 45 09 3e b8 d9 7c bd
       0.028276715 0.14976984 0.13405335 -0.06173107
000320 2d ed 96 bb a0 7e 95 bd f8 53 13 3e 93 51 9d bc
       -0.0046059103 -0.072995424 0.143875 -0.019203937
000330 de 6f 9e 3d ea 74 e7 3d c0 de fc 3d 6a 4a 05 3e
       0.07736181 0.113015965 0.12347174 0.13016668
000340 e6 71 13 3e 06 5b 04 3e 6e 25 78 3d ed 33 43 bd
       0.14398918 0.12925348 0.06058257 -0.047656942
000350 4e 37 bc 3c 66 f6 90 bd 1a 51 b2 bc e3 bb b1 bd
       0.02297559 -0.07078247 -0.021767188 -0.08678415
000360 49 05 91 bd 95 ca a0 3d 21 92 27 3e 1e fc 2b 3d
       -0.07081086 0.078511395 0.16364338 0.041988485
000370 0a 54 db bc 31 4a 65 bd 97 31 9f bc 20 a3 05 3e
       -0.026773471 -0.055978958 -0.019432826 0.13050508
000380 de 92 03 bd 22 10 57 3e 36 64 40 3e ec cd 50 3d
       -0.032122485 0.21002248 0.18788227 0.050977632
000390 8b 2e e3 3c 7b 6a f3 bd e9 6e ce 3d 2e 07 85 3b
       0.027732154 -0.11885544 0.10079748 0.004059694
0003a0 9a 12 38 3e 20 8b e5 3c 5a f1 1c 3e 1b 1f 55 3e
       0.17975846 0.028020442 0.15326443 0.20812647
0003b0 d7 bc 26 3e e3 1c 25 3e 51 d5 4a 3e 15 63 1e 3d
       0.16282974 0.161243 0.19807936 0.03866871
0003c0 5b 3d 05 be a1 ff 7f bd 13 34 92 3d 94 1f cd 3d
       -0.13011687 -0.062499646 0.071388386 0.10015789
0003d0 ab d6 10 3e 28 1f 37 3e 60 14 9e 3e 87 4e 46 3e
       0.1414439 0.17882979 0.3087492 0.19365893
0003e0 5e 46 54 3c 3b 59 85 3d aa fb c3 3c fa e0 b5 3c
       0.01295623 0.0651116 0.023923714 0.022202004
0003f0 3d d2 55 3d 80 b5 32 3e e4 1f 3c 3e cf c5 4c 3e
       0.052202452 0.1745205 0.1837154 0.19997333

fc1.0.bias f4 [64]
000000 7e 04 10 3e fc f7 ca 3d 36 df 36 bd d0 23 cb bd
       0.14064214 0.099105805 -0.044646464 -0.0991894
000010 45 8f cb bd ca 89 47 3e b4 f8 b7 3e d6 6f 17 be
       -0.09939436 0.19486156 0.35931933 -0.14788756
000020 c8 75 3f 3e b2 d3 81 be d3 9d 72 ba ca ba 19 bd
       0.18697274 -0.25356823 -0.0009255085 -0.03753165
000030 ca 56 48 3e 3c b0 ee 3d 49 56 0f bd b3 a9 3a be
       0.19564357 0.11654708 -0.034994397 -0.18228798
000040 ea 02 86 bd c4 b8 32 be e2 0a 32 bd 25 de 66 3d
       -0.065435246 -0.17453295 -0.04346741 0.056364197
000050 a6 26 b9 3e d9 a5 e7 3d a6 85 4b 3e f7 8e fc bd
       0.361623 0.1131093 0.19875202 -0.12331956
000060 3d 1c ba be 9c 73 34 be d0 de b8 3e 93 65 a3 3d
       -0.3634967 -0.17622226 0.36107492 0.07978358
000070 69 d7 b6 3d cd dd 7f be fc 31 3e 3d 4a f6 05 be
       0.08927805 -0.24986954 0.046434388 -0.13082233
000080 74 67 11 bd 8a 05 c5 3e d6 d5 f9 bd bc 88 17 3d
       -0.03549905 0.38480788 -0.12198989 0.036995634
000090 dd b2 cb 3d 03 42 0f be dd 97 bc be 95 02 2d 3d
       0.09946225 -0.13990025 -0.36834612 0.04223879
0000a0 38 2d 3b bd 2d f3 2c 3b 3e 4b 50 3e fc c6 38 bd
       -0.04569742 0.0026390061 0.20341203 -0.04511164
0000b0 f3 47 98 3d db 5b b9 bd de dc 44 be 33 ca b2 3e
       0.07435598 -0.09050723 -0.19224879 0.3491989
0000c0 ed 8e 1a be b8 01 a3 3e fa cd 0c 3e 3f 63 60 3d
       -0.15093584 0.3183725 0.13750449 0.05478215
0000d0 22 74 17 be de 6e ce 3d 5b 55 71 be e2 b1 2e be
       -0.14790395 0.1007974 -0.23567717 -0.17060044
0000e0 0b 72 3e 3e 8d 79 17 be 95 23 e7 3e 03 a2 c8 3e
       0.18598191 -0.14792462 0.45144334 0.39186105
0000f0 67 af 11 bd db 1e b5 bc ba 49 6f bd 44 84 32 bc
       -0.035567667 -0.02210944 -0.05841992 -0.010895792

fc2.0.weight f4 [10, 64]
000000 7e a6 c8 be 28 a7 98 3d 39 ec df bd f8 a9 54 3e
       -0.39189523 0.074537575 -0.10933728 0.20767963
000010 ac a4 1b 3e 8e ee 4d 3e 01 52 27 bf 0d ad 1f bf
       0.15199536 0.20110533 -0.65359503 -0.6237343
000020 d9 e1 89 3e 9b 71 8a 3d e1 df 0b 3e 96 d3 1f bd
       0.2693012 0.0675995 0.13659622 -0.039020143
000030 5d 35 8c be fb f8 0b be 52 52 14 bd d4 d6 fe be
       -0.27384463 -0.13669197 -0.03621132 -0.49773276
000040 42 45 21 bf d4 1b ea 3d 4d bd 31 bf e0 85 0e bf
       -0.62996304 0.11431089 -0.69429475 -0.5567303
000050 75 60 2b be f5 1c 50 3e 60 2c 32 be 74 9a 37 3e
       -0.16736014 0.20323546 -0.1739974 0.17930013
000060 29 79 9d 3e fa 30 7f 3e 9c 45 d3 3d f5 69 27 3d
       0.307565 0.24921027 0.10316011 0.040872533
000070 e2 8a 71 3e 28 24 54 3e 03 0f cc be b1 2f 28 3e
       0.23588136 0.20716918 -0.39855203 0.16424443
000080 f5 96 c5 bc c2 01 32 bf a8 da 38 bf 6e a0 7d 3e
       -0.024119833 -0.6953393 -0.7220864 0.2476823
000090 59 04 25 bf 2d 9b 1f 3e f4 db 9a 3e 75 ac 06 3e
       -0.6445976 0.15586539 0.30245936 0.13151725
0000a0 27 aa 35 3e d5 09 bf 3d 46 19 cf 3e 06 aa c4 bd
       0.17740689 0.09328047 0.4044897 -0.09602742
0000b0 2a a9 82 bf 67 02 86 bf ce d2 03 3e 2e 6e 54 bf
       -1.0207875 -1.0469483 0.12873384 -0.8298062
0000c0 40 66 75 3e c5 50 81 bf 5e f3 30 3e 24 06 89 bf
       0.23964787 -1.0102774 0.17280337 -1.0704999
0000d0 54 fd f6 3c 61 fd 49 3c b5 74 ab bd ff 06 b2 3e
       0.030150093 0.012328477 -0.083718695 0.34770963
0000e0 d2 c9 2d bf a6 f9 f3 bd f8 95 8b 3d 2e f5 d2 3e
       -0.6788608 -0.11912851 0.06815714 0.41202682
0000f0 7f 65 19 bf 88 19 54 bd 6d 39 46 3e 80 03 1c 3d
       -0.59920496 -0.05178216 0.19357844 0.038089275
000100 7e 01 7c be 7a 1a 10 bf 3c 50 7f 3d fa f5 3b bf
       -0.24609944 -0.562904 0.062332377 -0.73422205
000110 6d 31 fe be fc cf 42 bf 82 13 83 be e6 18 36 3e
       -0.49647084 -0.7609861 -0.2560082 0.17782936
000120 81 42 f6 ba c4 78 e3 be 20 5e e5 3e 80 41 1b 3e
       -0.001878813 -0.44428074 0.44798374 0.15161705
000130 94 91 44 be 0b 45 94 3e f3 56 9c bc 68 94 11 bf
       -0.19196159 0.28958926 -0.01908443 -0.56867075
000140 1d 7b 4e 3e c7 02 8d 3d 89 ae 00 bf 9b 76 85 3e
       0.20164151 0.06885295 -0.5026632 0.2606705
000150 6c ed 08 3f 76 61 15 3e bb 99 4c bf a3 18 81 bf
       0.5348728 0.1458796 -0.79922074 -1.0085644
000160 4a 9b 70 3e 02 a8 e7 3c bb 50 3e 3e cc 6d 08 bf
       0.23496738 0.028278355 0.18585484 -0.53292537
000170 c0 7a 3a 3e e8 bc 3c be ba 21 96 3e 29 cb 9f be
       0.18210888 -0.18431437 0.29322606 -0.31209686
000180 d7 6a d0 3d 6c 45 d7 3e ae c2 ad 3e ec 80 0e 3e
       0.10176628 0.42045152 0.3393759 0.13916367
000190 36 6a 82 3e f7 5a bd be 77 54 84 3d 3b 18 2d bf
       0.25471658 -0.36983463 0.06461423 -0.676151
0001a0 47 ca b0 bf 34 c4 3e bf cd a1 2c bf 9f 9d f1 bc
       -1.381173 -0.7451813 -0.6743439 -0.029494105
0001b0 cb ea f7 3d c8 7c 70 3e b6 78 e8 3d 85 57 c7 3e
       0.1210533 0.234851 0.11351149 0.3893396
0001c0 85 52 86 3e 03 e4 86 3e d7 75 86 3f f3 2f 25 bf
       0.26234832 0.26345834 1.0504712 -0.6452629
0001d0 d9 b5 ed 3d f2 36 07 3e f3 83 aa 3e b4 5d fc be
       0.1160695 0.13204554 0.33303794 -0.4929024
0001e0 38 12 aa be fe b6 d5 be f5 5c cf 3d df ac 41 3e
       -0.33217025 -0.41741174 0.10125152 0.18913601
0001f0 ba 09 07 3e a0 6a f0 bc d8 65 5d 3d ea f5 80 bf
       0.13187304 -0.029347718 0.054052204 -1.0075047
000200 40 c5 48 3f bd 57 09 3d b4 78 af bd db c4 f1 be
       0.7842598 0.03353094 -0.08567944 -0.472205
000210 88 cd 7e be 17 15 aa be 86 e8 1b 3f f0 d0 e2 3d
       -0.24883091 -0.33219215 0.6090168 0.11075008
000220 b2 a3 a0 3d f0 aa 00 3e 47 09 1b bf af 13 40 bf
       0.078437224 0.12565207 -0.6056103 -0.75030035
000230 b3 de b5 bf 78 cc 95 bf 89 40 90 bd fe bd 23 3d
       -1.4208587 -1.1703024 -0.07043559 0.039976113
000240 19 a8 9c 3e 49 bd 27 3e 3b 71 53 be 33 f5 41 bd
       0.30596998 0.163808 -0.20648663 -0.04735298
000250 cf c1 ab 3e 4f fe bd 3e a4 38 9c 3d bd 38 80 3e
       0.33546302 0.37108085 0.07627991 0.25043288
000260 a9 68 23 3e d5 75 e8 be 2c 93 cf be 5f 03 4d 3e
       0.15957893 -0.454024 -0.4054197 0.20020817
000270 4a 21 7b 3e f4 3c 43 3e 85 79 02 3e 81 a6 29 3e
       0.24524418 0.1906622 0.12741669 0.16567422
000280 70 1b ad bd 2b 7a 21 be ac 04 02 3f 87 a0 8b 3e
       -0.08452499 -0.1576926 0.5078838 0.2727091
000290 9e 4e f6 bc 99 b9 8a 3a f9 87 b9 3e 4c 54 9d 3e
       -0.030066784 0.0010583877 0.3623655 0.30728376
0002a0 d7 c2 c4 3d b6 26 f9 3b 92 1c 0e bf fc fa 85 bc
       0.09607475 0.0076034917 -0.55512345 -0.01635503
0002b0 44 03 e6 bb 88 bb 86 be b1 36 9c 3e 8e 68 03 bf
       -0.0070194323 -0.2631495 0.30510476 -0.5133141
0002c0 c8 72 58 be c3 24 79 be 75 ce 81 be 56 86 ab 3d
       -0.21137536 -0.2433043 -0.25352827 0.08375232
0002d0 73 a5 e2 3e cf 4d 9e bf 81 2b 5b 3d 8a 2c 8b 3e
       0.44266853 -1.2367495 0.053508285 0.27182418
0002e0 c4 ed f7 3c 88 cb e6 3d e1 bb a8 bf 7a 53 12 be
       0.030264743 0.11269289 -1.3182336 -0.14289656
0002f0 37 4a 18 3e b0 56 de 3d 1b b0 78 bd 30 a3 da 3d
       0.1487206 0.10856378 -0.060714822 0.10675657
000300 52 30 59 bd 99 a2 c1 bd b0 06 fc 3d 1d 53 f2 bd
       -0.053024597 -0.09454841 0.12305963 -0.11832259
000310 c6 e1 e9 3b ce 9b 05 3d e0 57 48 3d af 2f 40 bd
       0.00713751 0.03261929 0.04891193 -0.046920475
000320 c5 db c9 bd 5c 7f 2b be bc f6 40 bd 67 38 71 3d
       -0.09856371 -0.16747802 -0.047110304 0.05889168
000330 df a7 58 bd 39 aa 34 3b dc 3b 2b 3d fe 37 9e bd
       -0.05289447 0.002756728 0.041805133 -0.077255234
000340 48 a4 aa 3d dd 27 3d 3c ca 41 97 bc f4 2f eb bd
       0.083321154 0.011545149 -0.018463988 -0.11483756
000350 2d 54 f8 bc e7 ed a1 3c 4a 88 cf bd 47 d7 84 3d
       -0.030313576 0.019766761 -0.10133417 0.064863734
000360 b8 27 af bc fb c4 05 be 55 83 4f bd db 1f 01 be
       -0.021381244 -0.13063423 -0.050662357 -0.12609808
000370 2f 93 0b be e3 0a a9 bd f1 8c 43 3d 95 65 99 3d
       -0.13630365 -0.082540296 0.047741834 0.07490078
000380 f8 5d 2c 3d 25 97 40 3c 4c 12 b7 bd 31 a1 a7 bd
       0.042081803 0.011754786 -0.08939037 -0.08185042
000390 78 88 00 be 35 8d 84 3d b6 58 03 be 6a 17 05 bd
       -0.12552059 0.064722456 -0.1282681 -0.032493033
0003a0 cd a4 0f 3d 57 0a 18 be a2 99 9c bd e0 0c b6 3b
       0.035069276 -0.14847694 -0.07646491 0.005555734
0003b0 b3 25 1a be c1 13 e6 3c 9a 67 70 3c aa d7 fb bd
       -0.15053444 0.028085591 0.014673138 -0.12296994
0003c0 ce 15 09 3c eb 1b ff bd e1 71 c4 bd f5 cd 93 bb
       0.008367015 -0.12456497 -0.09592033 -0.004510636
0003d0 56 4f 0e be 37 4c 5b bd 1f f6 ab bd a9 53 e2 bd
       -0.13897452 -0.05353948 -0.08396553 -0.11051113
0003e0 9a 52 16 bd 8a 96 cf bc e6 71 00 be b4 d4 e7 bd
       -0.03669987 -0.025340337 -0.12543449 -0.11319867
0003f0 3b 9a d7 bd e2 9a 99 bd 60 85 a9 bb 1e e8 b9 3c
       -0.10527464 -0.07500245 -0.0051733702 0.02269369

fc2.0.bias f4 [10]
000000 0b ce 8b be 37 f8 18 3e a1 83 30 bc 3a a1 d0 bd
       -0.27305636 0.14938436 -0.01077357 -0.101870015
000010 ff 93 92 3c 52 1b de 3e ea 4b 08 3e 57 c0 44 3e
       0.017892836 0.4338022 0.13310209 0.19213997
000020 01 83 79 bd 6d 4a 92 bc
       -0.06091595 -0.017857755
