callbacks/05-23-2022_09-20-08/models/epoch_3.pt (torch, 205087 bytes, 4 tensors)

fc1.0.weight f4 [64, 784]
000000 78 3b ac bb 04 2d 07 bd dc 21 5f bc e1 37 04 3d
       -0.0052561127 -0.033001915 -0.013618913 0.032279853
000010 3b 9c 0f bd a0 98 c9 3a 98 d5 d1 bc 00 c3 10 bc
       -0.035061102 0.0015380569 -0.025614545 -0.008835554
000020 44 4c 0b bd 8e 06 37 bc 26 ee ad 3c 72 0c df 3c
       -0.03400828 -0.011170996 0.021231722 0.027227614
000030 e4 18 88 bb ab 47 5d bc 28 03 63 3d bb c5 98 3c
       -0.004153358 -0.0135058565 0.055422932 0.018648973
000040 25 60 8b bc 00 01 99 3b 7c 78 34 3c e3 a4 c3 bc
       -0.017013619 0.0046693087 0.011015054 -0.023882335
000050 c4 d9 13 3c 80 09 94 3c 70 d7 e3 bb 4a 35 0d bc
       0.009024087 0.018070936 -0.0069531724 -0.008618662
000060 c5 d5 ea bc 1e 01 f4 3c de 54 aa bc c8 88 bb bc
       -0.028666386 0.029785689 -0.020792421 -0.02289237
000070 be d3 e3 3c 9f 34 01 3d c0 66 f1 3a f6 57 b5 3c
       0.027810927 0.031544324 0.0018417463 0.02213667
000080 b0 ad 95 3c 30 84 67 3b 2b 1f b4 bb bd ed 09 bd
       0.018271297 0.0035326593 -0.0054968796 -0.03367399
000090 67 cc 94 3c dd bb cf bc 20 ac 00 be 8d 17 c3 bd
       0.018163873 -0.025358135 -0.1256566 -0.09525976
0000a0 ab 4f 9b bd eb e8 e2 bd e5 2f b0 bd d9 62 06 be
       -0.07583555 -0.11079582 -0.08602885 -0.13123645
0000b0 c9 30 8b bc b1 fc 3e 3c 5d b5 e6 bd dc f8 10 bd
       -0.016991036 0.011656926 -0.11265061 -0.03539358
0000c0 90 70 b5 bd c8 0c bb bd 9a b2 fe 3c 72 4c 87 3c
       -0.0885936 -0.09133297 0.031091023 0.016515944
0000d0 e2 8b ef 3c 70 7e 03 bd 80 5d b2 b9 ea e9 38 bc
       0.029241506 -0.032103002 -0.0003402047 -0.011286238
0000e0 22 1e fe 3c 43 5c 0f bd 60 2a d3 ba 75 db 3a 3d
       0.031020228 -0.035000097 -0.0016110651 0.045619447
0000f0 7b c3 13 3d 52 f1 cd 3b 69 0f ad bc 48 3b 08 be
       0.036075097 0.006284871 -0.021125512 -0.13303864
000100 12 d1 ce bd ed 82 ae bd 9e e8 20 be ac 44 0f be
       -0.10098471 -0.08521066 -0.15713736 -0.1399104
000110 13 d7 44 bd ab 57 34 bd 75 a2 a0 bd fd 18 d9 bd
       -0.048056673 -0.04402892 -0.07843486 -0.10600469
000120 e3 55 11 bc 3c d5 83 3c 7d ca 7b bc f6 0d ad bd
       -0.008870575 0.016092889 -0.015368101 -0.084499285
000130 e7 85 bc bb a6 b6 8a bd 1b 81 0a be 34 a6 d1 bd
       -0.005753267 -0.06773119 -0.13525812 -0.10236779
000140 a0 0f 95 3d 02 4b ce 3d 93 30 c1 bc 6c 9f 9f bc
       0.07278371 0.100729 -0.023582732 -0.019485198
000150 9a ed 9d bc 1a 6f de bc ae 2d 8a bd 0a e6 69 3c
       -0.019278336 -0.027152587 -0.06746994 0.014276037
000160 17 22 07 bd 3e ee 6d bd f5 af 97 bd 78 3a 1f 3d
       -0.032991495 -0.058088534 -0.07406608 0.03887412
000170 72 ef a2 3d 8a 20 c0 3d 29 51 47 3d 5b 96 71 3d
       0.07955827 0.09381206 0.048661385 0.05898128
000180 fb 77 f7 3d 61 64 16 3e a2 43 56 3e 5f 5c c4 3d
       0.12083431 0.14686729 0.20924237 0.09587931
000190 2e 97 92 3d d0 d5 89 3d 9b 4c b5 3c 28 93 7f bd
       0.071577415 0.067302346 0.022131255 -0.0623962
0001a0 e9 34 94 bd 99 4d 4b bd 7a 34 fa bd 8a 3f 53 be
       -0.07236654 -0.04963455 -0.1221704 -0.20629707
0001b0 ec 78 99 bd 2a b3 51 bd c3 77 87 3b 3e 15 03 bd
       -0.07493767 -0.051196255 0.0041341498 -0.03200268
0001c0 e3 2d 0f bd 52 77 d0 3b 13 c8 d7 bc 4a 19 6a bd
       -0.03495587 0.0063618803 -0.02634052 -0.057153024
0001d0 93 d0 0c be 9a 0b 5d bd 05 3e 93 3d 40 f8 52 3d
       -0.1375144 -0.053966142 0.07189564 0.05150628
0001e0 d9 85 0f 3d 7d 2b 4c 3d 94 34 9e 3d d8 58 05 3e
       0.035039756 0.04984616 0.07724872 0.13022172
0001f0 a1 bf 05 3e ea 8a d5 3d 74 65 72 3d 3a dc 38 bd
       0.13061382 0.104268864 0.059178784 -0.0451319
000200 3d 04 94 3c be 57 b3 3d 5b a9 9b 3c 5a cf 2e bc
       0.018068427 0.0875697 0.019001653 -0.010669554
000210 21 6e 8e bd 18 02 03 be f6 8f 06 be 7f de 0e be
       -0.06954599 -0.12793767 -0.13140854 -0.13952063
000220 0d 07 f0 3c 49 68 b4 3d 08 47 f2 bd 81 34 50 bd
       0.029300237 0.08808953 -0.118299544 -0.05083132
000230 b3 70 f0 bc 06 53 f3 3c 98 f9 b8 bd ac f8 c8 bc
       -0.029350614 0.029702675 -0.09031981 -0.024532638
000240 ae 99 37 bd fa af 01 3d 3a 79 94 3d 1d e8 80 bc
       -0.044824295 0.031661965 0.07249685 -0.01573568
000250 5d d2 69 3c 69 39 f0 3c 82 64 e7 3d 64 c9 85 3d
       0.014271346 0.02932425 0.11298467 0.06532553
000260 92 43 8f 3c 74 07 59 bb c7 13 07 bd e7 fa a7 3c
       0.017488275 -0.0033116015 -0.032977846 0.020505382
000270 3a 01 97 bc 6d 62 3a bd 12 c3 0f bc 5b 55 09 be
       -0.018433202 -0.045504022 -0.008774536 -0.13411467
000280 7a f2 4f be 4a 1b 17 be 5b e1 18 be d1 8a f8 bd
       -0.20307341 -0.14756504 -0.14929716 -0.12135852
000290 73 9a 59 3c f5 fe 35 3d 38 d6 88 3d 4a f8 da 3d
       0.0132814525 0.0444326 0.06681484 0.10691889
0002a0 f2 87 fc 3c ca 11 d1 3d ad be 80 3d 9f 4a db 3d
       0.030826543 0.10208471 0.062863685 0.10707592
0002b0 4c a0 9d 3d 4c 4d 50 3d 40 24 99 3d f3 23 a4 3d
       0.0769659 0.050854966 0.07477617 0.08014669
0002c0 ff 46 9f 3d 01 3c 1c 3e 52 b6 20 3e 53 44 09 3d
       0.07777213 0.15257265 0.1569455 0.033512425
0002d0 ba 69 fb 3c 27 29 55 bd f5 2a 93 bd 46 2a 57 bd
       0.030690063 -0.0520412 -0.07185928 -0.05253055
0002e0 18 5d 77 bc 51 be 8a bd fb 70 aa bd 1b 93 24 be
       -0.015097879 -0.06774581 -0.083223306 -0.16071741
0002f0 f8 8f ec bd 6c 8f dc bd eb cd ec bd 0d 56 14 be
       -0.11550897 -0.10769543 -0.11562713 -0.14485951
000300 47 de 9f 3a 2c a7 8d bb 4f 6d f4 3c 1d f3 53 3d
       0.0012196981 -0.004322907 0.029837279 0.051745523
000310 92 a4 e7 3c e9 67 be 3d bc 71 dc 3d 7c f3 96 3d
       0.028276715 0.09297163 0.107638806 0.0737066
000320 0b 3e 6d 3d ba 10 32 3d 4d 97 18 3e 55 f0 84 3d
       0.057920497 0.043472983 0.14901467 0.06491152
000330 3f ce a9 3d dc e6 23 3e a2 3f 08 3e 33 0e c3 3d
       0.082912914 0.16006035 0.13305524 0.09524193
000340 0c 8f ba 3d c8 98 73 3b 36 73 13 bd 8a 66 67 bd
       0.09109315 0.0037169922 -0.035998546 -0.056494273
000350 b2 41 19 bc bc 7c 94 bd 97 c3 50 bc a3 3f 09 bd
       -0.009354042 -0.07250354 -0.012741945 -0.033507954
000360 0b 94 91 bd 6f bb d2 3c b4 e0 9a 3d d9 15 93 3c
       -0.07108315 0.02572414 0.0756239 0.017954754
000370 53 61 4e 3d 3f 5a aa 3d 4c a9 a7 3b e5 ce 10 3d
       0.050385784 0.08317994 0.0051166173 0.03535356
000380 0a 3b 50 bd 7f 5a cd 3d 4a fc e8 3d c8 fa bf 3d
       -0.050837554 0.100270264 0.11376245 0.093740046
000390 72 c5 86 3d 79 a8 2d 3b 50 e5 1f 3e 92 f4 00 3e
       0.065806285 0.0026498123 0.1561482 0.12593296
0003a0 d3 d1 4d 3e 08 40 d3 3d c5 55 0d 3e d9 41 3e 3e
       0.20099573 0.10314947 0.1380225 0.18579806
0003b0 5a 07 16 3e 17 10 c7 3d 98 39 c8 3d ea a9 18 3d
       0.14651242 0.09719866 0.0977661 0.037271418
0003c0 f7 fe 04 3c 25 ca 8f 3d 46 bb f4 3d 74 d2 ef 3d
       0.008117429 0.07020978 0.11949782 0.117100626
0003d0 34 15 19 3e ed 06 08 3e 3b a4 31 3e 48 a4 d4 3d
       0.14949495 0.13283892 0.17347805 0.10382897
0003e0 6a e1 9f 3d ab 46 df 3d 80 9c 0d 3d 68 4d 77 ba
       0.07806666 0.10902151 0.03457308 -0.00094338367
0003f0 72 da e3 3a f3 79 9e 3d 15 aa fb 3d eb 3f f1 3d
       0.0017383827 0.07738104 0.122883 0.117797695

fc1.0.bias f4 [64]
000000 15 88 20 3e c5 69 61 3d 36 df 36 bd d3 2f ba 3c
       0.15676911 0.05503251 -0.044646464 0.022727882
000010 61 b3 b3 bd cb fd 0e 3e 76 30 60 3e ba f7 37 be
       -0.08774448 0.13964002 0.21893486 -0.17965594
000020 24 b4 17 3e 95 08 30 be 0f dc 51 bc 3e ea d7 bc
       0.14814812 -0.17190774 -0.012808814 -0.026356813
000030 91 3b 3e 3e 15 8a c5 3d 49 56 0f bd b6 5c 18 be
       0.1857741 0.09645478 -0.034994397 -0.14879116
000040 bc 9d 08 3c b0 7b e6 bd 81 f2 07 be 93 7a 85 bc
       0.008338388 -0.1125406 -0.13276102 -0.0162938
000050 d7 ab 75 3e 64 54 0f 3e 60 78 66 3e f3 59 09 bd
       0.23991333 0.13997036 0.22506857 -0.033533048
000060 2c cf 32 be b8 4f 32 3d 26 50 52 3e fa a4 8b 3d
       -0.17461842 0.043533057 0.20538387 0.06818576
000070 fb 46 a6 3d 04 1a 32 be 9e 5a 0d 3e 24 50 ae bd
       0.08119007 -0.17392737 0.13804099 -0.08511379
000080 74 67 11 bd 09 ea ac 3e 7c 63 65 bd 8a cc 60 3d
       -0.03549905 0.33772305 -0.05600308 0.054882564
000090 30 25 90 bc 14 6a 9b bd 34 63 3a be 10 c0 d0 3c
       -0.017595857 -0.07588592 -0.18201905 0.025482208
0000a0 db 24 f2 3c 3b f6 9c bd 51 99 8a 3d fc c6 38 bd
       0.02955859 -0.07664152 0.06767524 -0.04511164
0000b0 4d cc 04 3e 64 5e 8d bd e7 0f cc bd 53 e8 a3 3e
       0.1296856 -0.06902769 -0.09963971 0.32013187
0000c0 d5 80 bb bd 58 de 80 3e e6 ac 42 3e a1 2b 72 3d
       -0.09155432 0.25169635 0.19011268 0.05912364
0000d0 c6 12 eb bd 76 7c c3 3d 05 ac 2b be 2e ae d3 bd
       -0.1147819 0.095452234 -0.16764839 -0.103359565
0000e0 64 4a 2f 3e 0c e4 c8 bd b9 9f aa 3e 0e c4 89 3e
       0.17118222 -0.098091215 0.33324984 0.2690739
0000f0 a5 d9 c0 3c db 1e b5 bc bc c5 a4 bc a4 04 8e 3b
       0.023541281 -0.02210944 -0.020113818 0.0043340493

fc2.0.weight f4 [10, 64]
000000 11 6b d0 bd 91 b4 15 3e 39 ec df bd e4 72 90 3e
       -0.10176671 0.14619662 -0.10933728 0.28212655
000010 4e a6 f2 3d 57 73 77 3e 9e 42 fc be eb 88 72 be
       0.11848126 0.24165092 -0.49269575 -0.23685043
000020 04 3b 77 3e 65 5c ed 3d 66 8c 21 3e 69 e2 a6 bc
       0.24143606 0.115898885 0.15776214 -0.020371633
000030 43 af 76 be 40 c7 1f be 52 52 14 bd 5a 4f 91 be
       -0.24090295 -0.15603352 -0.03621132 -0.28380853
000040 ef 1b c7 be 3f 1e 9e 3c f6 00 d2 be 57 4d de be
       -0.388885 0.019301532 -0.41016358 -0.4341838
000050 cd 2f af bd 35 98 54 3e c2 40 0a bd de bb 9a 3e
       -0.08554039 0.20761187 -0.033753164 0.30221456
000060 65 7a 06 3e a5 e4 81 3e 38 d1 bd 3d 3d 9a 97 3d
       0.13132627 0.25369754 0.09268421 0.074024655
000070 57 30 25 3e bc 28 47 3e b7 2b 56 be 47 a6 5d 3e
       0.16131721 0.19449133 -0.20915113 0.21645461
000080 f5 96 c5 bc 6f 2c ab be 84 8a ed be e1 62 9f 3e
       -0.024119833 -0.33432338 -0.46394742 0.31130126
000090 b0 ed e1 be 24 dc 85 3d e0 0f 3c 3e af d2 6f 3d
       -0.44126654 0.06536129 0.18365431 0.058550533
0000a0 03 40 7e 3e 2c e8 f5 3c a5 03 7e 3e 06 aa c4 bd
       0.24829106 0.030017935 0.24806078 -0.09602742
0000b0 7e 29 0c bf f0 5a 0c bf f8 0d 78 3d a1 ee 02 bf
       -0.5475081 -0.5482626 0.060560197 -0.5114537
0000c0 f5 97 0c 3e 09 3a 17 bf ba dd 39 3e 1e c1 1e bf
       0.13729842 -0.5907293 0.18150988 -0.62013423
0000d0 07 72 21 3e 79 e5 0d be 33 97 a8 bd a5 76 84 3e
       0.15766154 -0.13857068 -0.08231964 0.2587177
0000e0 54 b5 9f be 3b 52 09 bc 0e 6c ed bd 77 23 bd 3e
       -0.3119303 -0.008381422 -0.115928754 0.3694112
0000f0 43 0f e7 be 88 19 54 bd 05 48 50 3e 11 18 4b 3d
       -0.4512883 -0.05178216 0.20339973 0.0495835
000100 d9 67 98 be 3d ea f7 be 3c 50 7f 3d 42 f0 d7 be
       -0.2976673 -0.48420897 0.062332377 -0.4217549
000110 40 28 78 be bd 32 fd be b0 8e ad bd ad ac 1a 3e
       -0.24234104 -0.49452773 -0.08474481 0.15104933
000120 e9 10 9b bd 33 80 ae be 65 7c 34 3d 9f 97 6e 3d
       -0.07571585 -0.34082183 0.044063944 0.058250066
000130 52 91 03 be 94 f9 a9 3e f3 56 9c bc e8 e7 a0 be
       -0.12848404 0.33198225 -0.01908443 -0.3142693
000140 0b 6e 80 3e ee 6a e0 3d ce c2 96 be fb 6a 4a 3e
       0.25083956 0.10957895 -0.294455 0.19767372
000150 a9 14 9b 3e fc a1 7f 3e 32 3e 03 bf fb aa 05 bf
       0.302892 0.24964136 -0.5126678 -0.5221402
000160 57 f6 6e 3e b9 9e 5c bc 2a 9c 2e 3e aa 3f ea be
       0.23336159 -0.013465577 0.1705176 -0.45751697
000170 8b 3a 49 3e ac 4e 4e be 57 3e ac 3e ad 4c 87 be
       0.19651239 -0.20147198 0.33641312 -0.26425686
000180 d7 6a d0 3d e6 ee a3 3e 1e 2e 6b 3e 8f 7b b8 3d
       0.10176628 0.32018203 0.22966811 0.09007942
000190 37 9f 47 3e e3 76 cb be a7 aa 36 3d 18 f4 02 bf
       0.1949433 -0.3973914 0.04459634 -0.5115371
0001a0 f6 10 39 bf 16 84 b8 be 88 49 02 bf 9f 9d f1 bc
       -0.72291505 -0.36038274 -0.5089345 -0.029494105
0001b0 6c e2 69 3e bd 50 84 3e 3d 4e f8 3d 6e 3c aa 3e
       0.2284028 0.25842848 0.12124298 0.3324923
0001c0 1d 89 14 3e 3e 77 7b 3e b8 02 54 3f f8 56 2c be
       0.1450543 0.24557206 0.8281665 -0.16830051
0001d0 25 95 09 3e 24 5c 1d 3e 0c 69 54 3e c7 2c 40 be
       0.134358 0.1536718 0.20743197 -0.18767081
0001e0 ba c9 93 be 33 42 b0 be a4 a4 38 3e 4c 55 28 3e
       -0.28864843 -0.34425506 0.18031555 0.16438788
0001f0 cd f7 48 3e a0 6a f0 bc 66 f7 d7 3d 98 6e 01 bf
       0.19625778 -0.029347718 0.105452344 -0.5055938
000200 0d 0f b6 3e 0e 5b ff 3d b4 78 af bd ee af 53 be
       0.35558358 0.12468539 -0.08567944 -0.2067258
000210 c4 54 34 be 3a 0c 4b be f4 1b 04 3f 14 84 9d 3d
       -0.1761046 -0.19828883 0.51605153 0.076912075
000220 2a d4 fc 3d cb 6f 3a 3e 00 fa 85 be e1 21 f4 be
       0.123451546 0.18206708 -0.26167297 -0.47682098
000230 1b cb 4c bf fa 8e 2f bf 89 40 90 bd 89 92 d3 3d
       -0.79997414 -0.6857754 -0.07043559 0.10330684
000240 d6 b6 84 3e 79 17 d4 3d b2 a8 40 bd 47 18 36 be
       0.25920743 0.103560396 -0.04703588 -0.17782699
000250 d7 86 24 3e fb 53 9a 3e 1a b3 2f 3e 7a 85 79 3e
       0.16067062 0.30142197 0.17158166 0.24367324
000260 f5 90 c2 3d df 00 88 be 4c c8 b4 be 5a ea 6d 3e
       0.095003046 -0.26563165 -0.35309064 0.2323393
000270 1b 3b 3e 3e 96 e4 c8 3d a9 80 7d 3d bc 4d 47 3e
       0.18577234 0.09809224 0.061890278 0.19463247
000280 70 1b ad bd 1e 8b 84 3d d4 b4 92 3e 95 4e a7 3e
       -0.08452499 0.06471847 0.28653586 0.3267714
000290 f8 37 53 bd a9 b3 30 bd f4 7a ae 3e 14 6e 82 3e
       -0.051567048 -0.043140087 0.3407818 0.25474608
0002a0 a0 8d 59 3e 58 2f dc 3c ac 65 81 be fc fa 85 bc
       0.21245432 0.026878044 -0.25272882 -0.01635503
0002b0 2d 37 36 3e b6 21 50 bc 3f 5a 48 3e 1e 8d 49 be
       0.17794485 -0.01270335 0.19565676 -0.19682738
0002c0 b9 4e 5c be b0 7a fc bd 40 22 b0 be 13 a3 20 3e
       -0.21514405 -0.12328088 -0.3440113 0.15687208
0002d0 3e fb 83 3e 9a d0 1b bf 34 e4 45 bd 6e e4 1d 3e
       0.2577762 -0.60865176 -0.048313335 0.1541917
0002e0 5f 24 ac 3e 1c 26 8d 3d 19 fd 68 bf 58 fc 65 be
       0.336215 0.068920344 -0.91011196 -0.22459543
0002f0 7f 4e 83 3e b0 56 de 3d fa cd 86 3c ec fb 29 3e
       0.25645825 0.10856378 0.01645564 0.16600007
000300 52 30 59 bd 99 a2 c1 bd b0 06 fc 3d 1d 53 f2 bd
       -0.053024597 -0.09454841 0.12305963 -0.11832259
000310 c6 e1 e9 3b ce 9b 05 3d e0 57 48 3d af 2f 40 bd
       0.00713751 0.03261929 0.04891193 -0.046920475
000320 c5 db c9 bd 5c 7f 2b be bc f6 40 bd 67 38 71 3d
       -0.09856371 -0.16747802 -0.047110304 0.05889168
000330 df a7 58 bd 39 aa 34 3b dc 3b 2b 3d fe 37 9e bd
       -0.05289447 0.002756728 0.041805133 -0.077255234
000340 48 a4 aa 3d dd 27 3d 3c ca 41 97 bc f4 2f eb bd
       0.083321154 0.011545149 -0.018463988 -0.11483756
000350 2d 54 f8 bc e7 ed a1 3c 4a 88 cf bd 47 d7 84 3d
       -0.030313576 0.019766761 -0.10133417 0.064863734
000360 b8 27 af bc fb c4 05 be 55 83 4f bd db 1f 01 be
       -0.021381244 -0.13063423 -0.050662357 -0.12609808
000370 2f 93 0b be e3 0a a9 bd f1 8c 43 3d 95 65 99 3d
       -0.13630365 -0.082540296 0.047741834 0.07490078
000380 f8 5d 2c 3d 25 97 40 3c 4c 12 b7 bd 31 a1 a7 bd
       0.042081803 0.011754786 -0.08939037 -0.08185042
000390 78 88 00 be 35 8d 84 3d b6 58 03 be 6a 17 05 bd
       -0.12552059 0.064722456 -0.1282681 -0.032493033
0003a0 cd a4 0f 3d 57 0a 18 be a2 99 9c bd e0 0c b6 3b
       0.035069276 -0.14847694 -0.07646491 0.005555734
0003b0 b3 25 1a be c1 13 e6 3c 9a 67 70 3c aa d7 fb bd
       -0.15053444 0.028085591 0.014673138 -0.12296994
0003c0 ce 15 09 3c eb 1b ff bd e1 71 c4 bd f5 cd 93 bb
       0.008367015 -0.12456497 -0.09592033 -0.004510636
0003d0 56 4f 0e be 37 4c 5b bd 1f f6 ab bd a9 53 e2 bd
       -0.13897452 -0.05353948 -0.08396553 -0.11051113
0003e0 9a 52 16 bd 8a 96 cf bc e6 71 00 be b4 d4 e7 bd
       -0.03669987 -0.025340337 -0.12543449 -0.11319867
0003f0 3b 9a d7 bd e2 9a 99 bd 60 85 a9 bb 1e e8 b9 3c
       -0.10527464 -0.07500245 -0.0051733702 0.02269369

fc2.0.bias f4 [10]
000000 c0 62 04 be 94 d8 0e 3e a0 d9 49 3d 3a a1 d0 bd
       -0.12928295 0.13949805 0.04927981 -0.101870015
000010 9c 39 9f 3c 41 4f af 3e 7a 5d b1 3d a4 9e 37 3e
       0.01943665 0.34240153 0.08660407 0.1793161
000020 8b b8 26 be e4 f3 e4 bc
       -0.16281335 -0.027948327
