callbacks/05-22-2022_21-20-02/models/epoch_1.pt (torch, 205087 bytes, 4 tensors)

fc1.1.weight f4 [64, 784]
000000 ae 5b c0 3c 18 31 ce bc 80 8e 17 3b 9e c8 fa bc
       0.023481216 -0.025169894 0.0023125708 -0.03061324
000010 8e 60 e3 3c 92 50 9b 3c b2 16 46 bc 8b 4a 08 3d
       0.027756002 0.018959317 -0.012090372 0.033274215
000020 4c 88 da bc 00 91 cd ba a8 9b 53 3c dc 49 59 bc
       -0.02667632 -0.0015683472 0.012915529 -0.013262238
000030 12 70 de 3c 0a 66 7f bc e0 ae ca 3b 98 60 25 bc
       0.027153049 -0.015588293 0.0061853975 -0.0100938305
000040 5d 0d 08 3d 6a ea 89 3c 46 69 ee 3c 32 32 10 bc
       0.03321587 0.01683541 0.029102933 -0.00880103
000050 7e d1 a3 3c 5c b7 01 bc c0 54 43 3a 30 46 73 3c
       0.019997355 -0.007917251 0.00074512884 0.014848277
000060 11 9e 0d 3d d9 66 07 3d 7a f6 02 bd 60 df e8 ba
       0.034574572 0.033057068 -0.03197334 -0.0017766766
000070 70 59 1d bb 68 60 f3 bc 83 ed 9c bc 23 9d ce bc
       -0.0024009608 -0.029709056 -0.019156223 -0.025221413
000080 0c ed 2f 3d ff d1 9e 3d 93 1c f0 bb 21 fa 04 bc
       0.042950675 0.07754897 -0.007327625 -0.008116276
000090 72 82 32 bd 11 92 2c 3e bc 35 bc 3e f5 de 1d 3e
       -0.043581434 0.16852595 0.36759746 0.15417083
0000a0 c6 7f 10 3e 17 2b 6f 3d 43 27 6a 3e d3 a1 33 3e
       0.14111242 0.058390703 0.2286654 0.175422
0000b0 4e 34 6f bd ad 59 09 3e 16 62 8b 3e 5c fe b4 3e
       -0.05839949 0.13413115 0.2722327 0.3535031
0000c0 fb 74 a9 3e 8f f0 8f 3e 7f b5 00 3e da ba bf 3b
       0.33097062 0.2811322 0.12569235 0.005851132
0000d0 10 24 16 3b 7a e2 87 bc a4 c9 f5 bb 94 f6 d1 bb
       0.0022909679 -0.016587485 -0.007500844 -0.006407568
0000e0 55 83 d3 bc 0e 02 07 bd 29 31 e8 3c 64 4d 22 bd
       -0.02581946 -0.032960944 0.028343754 -0.039624587
0000f0 29 8b f3 3d ef 6e a3 3d 9e 11 05 3d 28 0c 16 3d
       0.11891777 0.07980143 0.032487504 0.036632687
000100 ff 3d cb bc d1 e4 1b 3d 66 20 a9 3e ac 43 8b 3e
       -0.024809835 0.038060013 0.3303253 0.27200067
000110 92 11 d4 3e 29 ff de 3e 45 22 14 3f b7 c1 02 3f
       0.41419655 0.43554047 0.5786479 0.51076835
000120 9f 5e f0 3e ac ac 11 3f cb 32 68 3f 5d 23 82 3f
       0.4694719 0.569041 0.90702504 1.0167042
000130 5b 22 5f 3f b2 58 2a 3f c5 3f ea 3e 39 40 58 3e
       0.871618 0.6654159 0.45751777 0.21118249
000140 0a c9 c4 bc 1c cc 81 3c a0 c7 12 bc 8f d3 09 3d
       -0.024021644 0.015844397 -0.008958727 0.033649024
000150 c0 b2 9c ba 70 83 d3 bc 45 5a f2 3c a9 cc a3 3d
       -0.0011955127 -0.02581951 0.02958406 0.0799802
000160 40 6d 21 3e d7 d8 0d 3e 29 72 a8 3d fe 59 e9 3d
       0.15764332 0.13852249 0.08224899 0.11394118
000170 8c 2d ea bd 96 a8 aa 3d 83 d5 62 3e 22 3e 9e 3d
       -0.114344686 0.083329365 0.22151761 0.07726695
000180 66 44 02 3e ad 39 f7 3d fb ce 0c 3e 2d ec 9e 3e
       0.12721404 0.12071548 0.13750832 0.31039563
000190 19 27 95 3e 86 51 bc 3e 47 64 e8 3e f7 9a e0 3e
       0.29131392 0.36780947 0.45389006 0.4386823
0001a0 67 0b e0 3e d9 d4 c9 3e 78 dd 9c 3e 96 40 85 3b
       0.437587 0.39420202 0.30637717 0.004066537
0001b0 d7 f4 60 bd 9d 51 b2 bb 5c a2 48 3d b0 d5 04 bd
       -0.054920997 -0.005441858 0.048982963 -0.03243035
0001c0 a5 df 0f bd 6d aa f2 3c df a4 7a 3d 5b 6d 16 3e
       -0.035125393 0.029622281 0.06119239 0.14690153
0001d0 bc 1c 94 3d 3e 13 78 bc 54 e5 88 bc 78 a0 c6 3d
       0.07232043 -0.015141306 -0.016710915 0.09698576
0001e0 96 bd 0e 3e d6 51 2a 3e f2 ad 1f 3e d0 56 bb 3d
       0.13939509 0.1663278 0.15593699 0.091474175
0001f0 d2 8b 64 3e c9 af 6e 3e 1e 46 8e 3e 2a 12 90 3e
       0.22318962 0.23309244 0.2778787 0.28138858
000200 0f 0a 6b 3e ca 2e 37 3e 3e 40 55 3e c0 0a 3a 3d
       0.22953056 0.17888942 0.20825288 0.04542041
000210 f7 e4 cb 3c e6 21 d0 3d 6c dc d8 38 ce ee fa 3d
       0.024889452 0.101627156 0.000103407394 0.1225258
000220 e1 60 78 3e 68 d4 5f 3e a0 c4 2e 3e bf 3e 2f 3d
       0.24255706 0.2185837 0.17067194 0.04278445
000230 88 ed c6 bb 70 48 57 bb 92 4a 1a 3e 64 df d9 3d
       -0.0060707964 -0.0032849573 0.15067509 0.106383115
000240 c3 73 a3 3d 85 91 d7 bc 2d 57 f9 3d dc 87 4e 3e
       0.07981064 -0.026314506 0.121748306 0.20169014
000250 13 6f ba 3c 5b 4d 60 3d 67 d8 83 bd ac 35 05 b9
       0.022758042 0.054761272 -0.0643776 -0.00012703863
000260 7e 27 61 3c dc 3c e1 bc 8d f1 17 3d c8 d8 8b 3d
       0.013742326 -0.02749484 0.037095595 0.06828457
000270 a7 11 88 bb 43 91 2f bd 09 30 3c bd 2c 90 ab bd
       -0.004152495 -0.04286314 -0.045944247 -0.08377108
000280 93 1d 98 bd 47 54 09 be ca 5c 67 bd 6c b5 07 3e
       -0.07427516 -0.13411056 -0.056484975 0.132528
000290 c1 d1 55 3e e5 12 06 3e 4a 7f 83 3e 62 cf 3e 3d
       0.20880796 0.13093145 0.2568305 0.046584494
0002a0 52 46 f6 3c e2 aa 58 3c d0 c4 b6 3d 52 d7 44 3e
       0.030062828 0.013224335 0.08924258 0.19222763
0002b0 09 3f 4d 3e b6 b9 33 3e 2e 7c fc 3d de 6a 87 3a
       0.20043577 0.17551312 0.12328373 0.0010331532
0002c0 57 e7 02 3d f5 bc a1 3b cf a1 91 bc ef b4 03 bd
       0.031958904 0.0049358555 -0.017777352 -0.032154974
0002d0 44 1c 68 bd 97 f1 0e be 29 e8 15 be 2d b5 11 be
       -0.05666758 -0.13959347 -0.14639343 -0.1422927
0002e0 25 e7 d8 bd 2a 05 15 bd 55 22 a0 bd 78 3d ce bd
       -0.10590962 -0.036381878 -0.07819048 -0.10070318
0002f0 58 27 a3 bd c3 da 08 be a9 0e 39 be 5d 44 24 3c
       -0.079664886 -0.13364701 -0.18071999 0.010026065
000300 93 ff 7c 3e b0 a8 bf 3e 94 88 5c 3e 99 8b 31 3e
       0.24706869 0.37433386 0.21536475 0.17338409
000310 75 98 30 3b f9 cd ad 3d a0 2e d8 3d f6 f0 61 3e
       0.002694634 0.08486552 0.10555768 0.22064576
000320 5d f6 60 3e d9 d9 1a 3e ac 13 33 3e 3b d0 36 3d
       0.2196898 0.15122165 0.17487973 0.044632178
000330 66 1d 87 3c 02 a0 b4 bc 86 33 f4 bd 60 10 18 be
       0.01649351 -0.022048954 -0.1192389 -0.14849997
000340 f0 ae 0a be 0c 37 34 be 4d 1d 45 be 8f 1f 74 be
       -0.13543296 -0.17599124 -0.19249459 -0.23840164
000350 11 1d 2b be 73 d2 07 be b2 c2 fe bd 18 e0 25 bd
       -0.16710307 -0.13263874 -0.12439479 -0.040496916
000360 cc 23 c8 bc 3e cb 9b bd 33 62 95 bd bf 54 df 3d
       -0.024431132 -0.07607125 -0.07294121 0.10904836
000370 d5 c0 52 3e 42 37 24 3e 89 52 8c 3e eb 59 1a 3e
       0.20581372 0.16036704 0.2740672 0.15073363
000380 fd 95 97 bd 8f 45 14 3e 7b 2a 01 bd 9a 4a 78 3e
       -0.07401655 0.1447966 -0.031534653 0.24247208
000390 7c a2 83 3e ec d7 48 3e 3c 91 32 3e f0 03 97 3d
       0.25709903 0.19613618 0.17438215 0.07373798
0003a0 23 9c ac 3c 51 c8 aa bd 77 d4 fe bd 6b e7 3c bd
       0.021070546 -0.083389886 -0.12442868 -0.046119135
0003b0 b8 2e 2a bd 72 05 b9 bd 4c 42 fa bd 77 57 57 be
       -0.04154846 -0.09034242 -0.122196764 -0.21029459
0003c0 b5 09 7c be 9b 96 1f be 22 aa 87 3c 6a 32 7e 3d
       -0.24613078 -0.15584795 0.016560618 0.062059797
0003d0 f6 87 b3 3c 26 41 a3 bc 27 04 5f 3d 6c 89 fe 3d
       0.021915417 -0.019928526 0.05444732 0.12428555
0003e0 b5 fe a1 3e 12 ed c9 3e cc 0d ba 3e 08 db fd 3d
       0.3163964 0.39438683 0.3633865 0.123952925
0003f0 64 e9 d8 3c 28 a3 63 3e e1 bb 85 bc 88 38 8b 3e
       0.026478477 0.22230208 -0.01632494 0.27191567

fc1.1.bias f4 [64]
000000 1b 6d c0 3d c8 00 50 bc ce 68 0c 3e ee a4 58 3e
       0.0939581 -0.012695499 0.13711855 0.21156666
000010 04 5e 1d 3e 42 d4 bd bd 9c 74 15 3e c0 62 3f 3e
       0.15367895 -0.092690006 0.14595264 0.18690014
000020 d7 a4 18 3e 6a 79 0c be f3 97 51 3d e3 2e a0 3e
       0.14906631 -0.13718191 0.0511703 0.31285772
000030 ac 1d 6f be a5 43 5c 3e 4a 9f cc bd 36 0d 80 3e
       -0.23351163 0.2151018 -0.099913195 0.2501008
000040 c4 f4 ee bd b8 fc 88 3e 99 ae 83 3d d5 d9 26 be
       -0.11667779 0.2675531 0.06429786 -0.16294034
000050 34 39 90 be 55 d5 9e 3e b1 df 0b 3e 5f 90 82 bd
       -0.28168643 0.31022134 0.1365955 -0.06375193
000060 d2 15 87 bd 1b a4 f3 3d 52 29 3f 3e 58 50 fc 3e
       -0.06595959 0.11896535 0.18668106 0.49280047
000070 f9 cc 91 be 4e a7 a9 bd 86 7a 4c 3d a0 e4 40 3e
       -0.28476694 -0.08283864 0.049921535 0.18837214
000080 54 09 39 3e 4c 72 54 3e cc f6 f3 3d 16 39 91 3d
       0.18069965 0.20746726 0.11912307 0.070909664
000090 14 79 0e 3e 1b 03 0f 3e ca e9 3a bd ac 2f 1a be
       0.13913375 0.13966028 -0.045633115 -0.15057248
0000a0 37 d5 74 3e 1c 67 f7 bd b1 c0 4b be e1 f8 7c 3c
       0.2390946 -0.120802134 -0.19897725 0.015440197
0000b0 dc 81 82 be 15 28 be 3e 78 12 09 be 97 4a 04 bd
       -0.254897 0.37139955 -0.13385952 -0.032297697
0000c0 67 f3 8f 3e 96 89 6b 3e 52 bc 8d be 14 41 f1 be
       0.2811539 0.23001704 -0.2768274 -0.47119963
0000d0 fc 88 78 3e e5 37 29 be 66 69 d4 be 78 46 21 be
       0.24271005 -0.16525228 -0.41486663 -0.15749538
0000e0 93 37 b2 3e ad d3 88 3a 41 96 ac bd fe e8 09 bd
       0.34808025 0.0010439061 -0.08427096 -0.033669464
0000f0 f4 c1 a9 3e d3 e9 a0 3e 88 ff 44 3e 06 ea 7b bc
       0.33155787 0.31428394 0.19238102 -0.01537562

fc2.0.weight f4 [10, 64]
000000 48 bd 69 bf 98 31 ec bc 29 3d a5 3e 63 8b 13 3e
       -0.91304445 -0.028832242 0.32273224 0.1440864
000010 d3 3d c9 be 71 83 29 3e 82 c9 8c 3d 52 e0 5e bf
       -0.3930498 0.16554047 0.06874372 -0.87061036
000020 78 8d fa 3c cf b9 61 3e 15 19 c4 be ef 3b 1c 3e
       0.030585036 0.22043537 -0.38300386 0.15257238
000030 ef a9 24 3b 0e 10 86 3e 90 bc c2 3d c6 b3 a5 3e
       0.0025125702 0.26184124 0.09508622 0.3236372
000040 0e 7e 09 bf 0a 41 02 bf 97 ae 9b bb 85 a8 14 3e
       -0.5370797 -0.5088049 -0.0047510373 0.1451741
000050 65 58 87 3d 88 21 cc 3e b5 9e 8e 3e fb db f4 bd
       0.06608657 0.39869332 0.2785546 -0.119560204
000060 8c 34 84 be 72 5e d8 3e 22 f2 72 bf a0 11 0c bf
       -0.2582134 0.42259556 -0.94900715 -0.54714394
000070 39 34 4f 3e 08 52 4b bf cd 8a 15 bc 00 ac 4e 3e
       0.20234765 -0.79422045 -0.009127331 0.201828
000080 5e 0a 33 3e 3e d4 84 be 23 99 95 bf ef fd b5 be
       0.17484424 -0.25943178 -1.1687359 -0.35545298
000090 34 a1 ec 3d 9b f2 48 be 01 6b 48 bc 34 ba 36 3e
       0.115541846 -0.19623797 -0.012232543 0.17844468
0000a0 75 31 27 bf 49 9c ac 3d 8e 63 9b be 92 47 b0 be
       -0.6530984 0.084282465 -0.30349392 -0.34429604
0000b0 f3 fc ca be 12 45 8f 3e 6e ad a0 3e 1c 1f 26 bf
       -0.3964611 0.27982384 0.31382316 -0.6489122
0000c0 4a de 1f 3e 66 a0 4d bf 06 86 df 3d 6f cf 05 3e
       0.1561214 -0.80322874 0.10914235 0.13067411
0000d0 9e 20 59 3e cf 78 8b 3e 22 b2 68 3e 58 33 20 3d
       0.21203849 0.27240607 0.22724202 0.039111465
0000e0 0b 47 20 3e 30 1a c2 3e fd 56 0a 3e 5b 39 76 be
       0.156521 0.37910604 0.13509746 -0.24045317
0000f0 b9 18 15 bd 07 0c fb 3d ae 54 76 bf 56 a1 6c 3e
       -0.03640053 0.122581534 -0.9622296 0.2310842
000100 2e 0c ae 3e 47 15 1e 3e 55 67 27 bf c8 9a 47 3d
       0.33993667 0.15437804 -0.6539205 0.048731595
000110 d7 a1 4f bf 5d bb 1f 3e 51 1d 38 bf df 89 b1 3b
       -0.81106323 0.15598817 -0.71919733 0.005418047
000120 9f e9 4e 3d e8 98 72 3e 75 f2 07 bf 36 e4 6d bf
       0.050515767 0.23691142 -0.53104335 -0.9292635
000130 9a d6 63 be c6 b2 09 bf 7c 4d 79 be 55 51 24 be
       -0.22249833 -0.5378841 -0.24345964 -0.1604665
000140 c7 1d 9f 3e 77 bd 15 3e 1f be 80 bf 4a 21 99 3e
       0.31077406 0.14623056 -1.005802 0.2990821
000150 7f 3f ad be 13 bf 15 3f 74 b1 7a 3e da 8e 2f be
       -0.33837506 0.5849468 0.24481755 -0.17144337
000160 05 be d6 bd c8 74 83 be 2a 27 ae 3d d5 e0 08 be
       -0.10485462 -0.25675035 0.08503564 -0.13367017
000170 a8 f5 13 be 54 f8 5e 3e bb 08 88 3e be f6 18 bf
       -0.14449179 0.21774417 0.2656916 -0.597515
000180 1e 87 5e 3e 43 8e 62 3e c3 74 fb 3e ca c4 1a be
       0.2173123 0.22124581 0.4911252 -0.15114132
000190 d2 30 de be 1c db 26 3e 1a 47 8a bb 17 c6 4a bf
       -0.43396622 0.16294521 -0.0042199017 -0.7920851
0001a0 dc ef 0b bf 71 12 ad bd 34 0e 70 3e f6 5d 1d 3e
       -0.5466287 -0.08450783 0.23442918 0.15367875
0001b0 1c 97 97 3e 5d 5a 1b bf 95 63 62 bf 3d e0 0c 3e
       0.29607475 -0.6068476 -0.884332 0.13757415
0001c0 ed 66 7c bf a0 97 c4 3e ec a8 b1 3d cf 90 39 be
       -0.9859455 0.3839693 0.086747974 -0.18121646
0001d0 15 22 f2 be 98 57 be 3e 2b c1 a9 be b6 77 10 3e
       -0.47291628 0.37176204 -0.33155188 0.14108166
0001e0 8f 9b 53 bf 34 34 06 bf 7a 7e e1 be 3a 82 51 3e
       -0.8265924 -0.52423406 -0.44041806 0.20459834
0001f0 79 2f 66 3e 34 63 64 3f 29 37 cb 3e 71 92 84 3e
       0.22479047 0.8921387 0.3969052 0.25892976
000200 25 4f 4d be 7b cb 85 3e 77 6f 6a be f6 61 1a bf
       -0.20049722 0.26131806 -0.22894083 -0.60305727
000210 1c bd 2b bf d1 e1 27 3d 68 67 04 bf a8 43 96 3e
       -0.67085433 0.04098684 -0.51720285 0.29348493
000220 6f aa 89 bf 52 76 c3 3d ce ff b9 bd f5 26 de 3e
       -1.0755137 0.09544052 -0.09081994 0.43389097
000230 4a 83 b5 be a7 82 95 3e 10 40 37 3e b7 3f 15 3f
       -0.35451728 0.29201242 0.17895532 0.58300346
000240 4d d8 ff 3e 2b 71 63 3e 6d 54 6c be d6 99 5c 3e
       0.49969712 0.22211139 -0.23079081 0.21543059
000250 55 b9 0c 3e 23 8b df 3e 6c f0 ab 3e 2b 8f d6 be
       0.13742574 0.4366084 0.33581865 -0.41906103
000260 18 41 95 3e ea 76 1c bf 93 8f 7d bf 90 ad e5 3e
       0.29151225 -0.6111895 -0.990472 0.4485898
000270 95 df f8 be 27 da ff bd 70 f7 b1 be a5 be 77 3e
       -0.4860808 -0.12492781 -0.34759092 0.24193819
000280 6e 10 e3 be ec 23 82 bf b3 4b e0 be a7 13 df be
       -0.44348472 -1.0167212 -0.43807754 -0.4356968
000290 f4 18 91 3e 75 0e 53 bf 22 b0 44 bc f8 09 2d 3e
       0.2833935 -0.82443935 -0.012004884 0.16898334
0002a0 cb 5c 03 3e c1 06 d1 3d 1f b9 7d 3e 2f ac 95 bb
       0.12828366 0.10206366 0.2477765 -0.004567645
0002b0 fa b6 a2 3e 1c 2c e4 3e 6c 08 b0 be cb 6b e4 3d
       0.31780225 0.44564903 -0.34381425 0.111533724
0002c0 e7 69 f0 3c d4 9b 19 3e 91 c8 dc 3d 4b 6e 5b 3e
       0.029347373 0.1500085 0.107804425 0.21428792
0002d0 68 89 1d be 2e 90 7a 3e ff df 83 3e ca 3a 94 be
       -0.15384448 0.24469063 0.25756833 -0.28951102
0002e0 57 92 2b 3d 5c 7c a8 3e c6 a9 4c 3d c7 74 86 3e
       0.041887607 0.3290738 0.049966596 0.2626097
0002f0 c3 43 73 bf 7f 84 05 be c1 6c a9 3e 0d fa 09 3e
       -0.9502527 -0.13038824 0.33090785 0.13474293
000300 0a a0 66 3e 22 73 6e 3e 0e f9 e4 bd 4b a3 c0 be
       0.22521988 0.23286107 -0.11180316 -0.37624583
000310 50 e4 4a be d5 2f db 3c 81 06 74 3e ff 80 40 3e
       -0.19813657 0.026756207 0.23830606 0.18799208
000320 34 3c 36 3b 30 ec ce 3d 78 6a 8e be b6 5a df be
       0.002780688 0.10103643 -0.27815604 -0.43623894
000330 2f aa f4 bd 16 9d af 3e a8 a2 0c 3e 7a 9d 0d 3e
       -0.119465224 0.34299535 0.13733923 0.13829604
000340 8e 49 70 be 3e 61 63 3d 39 75 85 3d eb a6 e3 3d
       -0.23465559 0.05551266 0.06516499 0.111158215
000350 06 cd 8f 3d a7 97 50 3d 01 79 68 3e 6d 28 5d be
       0.07021527 0.050925877 0.2270241 -0.21597452
000360 51 fa 47 3e 79 6e 67 bd 2d cb 7b 3e c7 c4 c0 3e
       0.19529082 -0.05650184 0.24589224 0.3765013
000370 8b b1 4b 3e fd 6e ae 3e 5f 19 ca be e6 79 c7 bd
       0.19891946 0.34069052 -0.39472482 -0.09740047
000380 c9 df a6 be 00 8f 89 3e 93 27 c6 3e 7c e9 68 3e
       -0.3259261 0.26866913 0.38702068 0.22745317
000390 7b b2 19 3e c6 a4 21 3e 3a cb 05 bc c7 16 f8 bd
       0.15009491 0.15785512 -0.008166129 -0.121137194
0003a0 f7 c2 65 3e 30 f9 83 3c 91 ed 70 3e 43 00 82 be
       0.22437654 0.016110033 0.23528124 -0.25390825
0003b0 33 bc 94 bd 8a 89 56 be f2 c1 3e 3d 27 08 40 be
       -0.07262459 -0.20950904 0.04657168 -0.1875311
0003c0 15 ba c0 3c 6a 64 03 bc 6b 49 0a 3e 9d 1c 60 3e
       0.02352623 -0.008019546 0.13504569 0.21885915
0003d0 fa f5 65 3c 9e 51 1b be e7 d2 95 3d 0f 1e 7e 3e
       0.014035696 -0.15167853 0.07315617 0.24816154
0003e0 f7 25 9f 3c 00 57 a6 3d 83 4b 1c 3e 6c 4e d2 3d
       0.019427283 0.08122063 0.1526318 0.10268864
0003f0 86 29 c3 bd 87 4b 20 3d ca 3d 94 be b4 33 12 be
       -0.09529404 0.03913453 -0.2895339 -0.14277536

fc2.0.bias f4 [10]
000000 19 3b 21 be 2a a9 22 3e c5 9e 79 3e 0c 50 ae 3d
       -0.157452 0.15884843 0.24376972 0.085113615
000010 45 9a 81 3e 58 30 55 3e 55 b1 0e be 7f 0b 28 3e
       0.2531301 0.20819223 -0.13934834 0.16410635
000020 0b 78 8b bd 0d 95 28 3d
       -0.06810006 0.04115777
