pretrained_model/mnist.pth (torch, 205087 bytes, 4 tensors)

fc1.1.weight f4 [64, 784]
0	0x3d06bac7	0.03289297
1	0xbc907360	-0.01763314
2	0xbcfbe3d1	-0.03074828
3	0xbd0cdef4	-0.034392312
4	0x3cb0ec7a	0.021597136
5	0xbcb1e540	-0.02171576
6	0xbbda2054	-0.006656686
7	0x3ce7ef1a	0.028312255
8	0xbc61d132	-0.013782786
9	0xbc362c00	-0.011118889
10	0xbbac4cc0	-0.0052581728
11	0x3cd58e12	0.026068721
12	0x3b3f2ce6	0.0029171049
13	0x3d3ad2d7	0.04561123
14	0x3bf13438	0.0073609613
15	0x3ade7d92	0.0016974679
16	0xbd1049a6	-0.035226487
17	0x3d119713	0.035544466
18	0xbc2d0892	-0.010561125
19	0xbd093e5a	-0.03350673
20	0xbc0a2e04	-0.008433823
21	0xbc0f8fc0	-0.0087623
22	0x3d062aa7	0.03275552
23	0x3d0fdddd	0.035123695
24	0xbced8bf5	-0.0289974
25	0x3cfae9d6	0.03062908
26	0xbcb4bbc5	-0.022062192
27	0xbcfadaba	-0.030621875
28	0x3c231c9c	0.0099555515
29	0xbc91e87a	-0.017811049
30	0x3d120a1d	0.035654176
31	0x3cd14390	0.025544912
32	0xbccd89aa	-0.025090057
33	0x3ae0df60	0.0017156415
34	0x3d85a5f1	0.065257914
35	0x3d0a12a4	0.033709183
36	0x3d937693	0.072003506
37	0x3cfca4b3	0.030840253
38	0x3c2fe98c	0.010736834
39	0x3d60256d	0.054723192
40	0x3cf7f624	0.030268736
41	0x3c335b5c	0.010947075
42	0x3b71d194	0.00368986
43	0xbc240cc9	-0.010012814
44	0xbca328e2	-0.019916955
45	0x3d12516d	0.035722185
46	0xbd832e8d	-0.06405363
47	0xbd26c052	-0.040710755
48	0xbce630af	-0.028099386
49	0x3bc858ee	0.006114117
50	0xbc3a322a	-0.011364499
51	0xbc691b7c	-0.014227744
52	0x3cb6ba22	0.022305552
53	0x3cb733f0	0.022363633
54	0xbc8eeab0	-0.017445892
55	0x3c831c4e	0.016004708
56	0xbce97d4e	-0.028502133
57	0xbc520378	-0.01281821
58	0xbc9a568e	-0.0188401
59	0xb939aed4	-0.00017708103
60	0x3d925106	0.0714436
61	0xbc086525	-0.008324896
62	0xbd1d95c1	-0.038472895
63	0xbcd2d274	-0.025735117
64	0x3d5a0975	0.053231675
65	0x3e0b0181	0.13574792
66	0x3e1086cd	0.14113922
67	0x3de4b3b8	0.11167091
68	0x3dbdf134	0.092745215
69	0x3e068d73	0.13139896
70	0x3dd930e5	0.10605029
71	0x3d8a6392	0.06757273
72	0xbd285af9	-0.041102383
73	0xbd81c64a	-0.06336649
74	0x3d49cce9	0.049267683
75	0x3dde19e7	0.10844784
76	0x3deecace	0.11659776
77	0xbd81f62c	-0.06345782
78	0xbd5bd377	-0.053668465
79	0xbcf41283	-0.029793983
80	0x3b85e995	0.004086683
81	0xbce9d0cb	-0.028541943
82	0x3c1325e4	0.008981202
83	0x3d1180f9	0.03552339
84	0xba7c8940	-0.0009633489
85	0xbc2c312a	-0.0105097685
86	0x3d1bda01	0.0380497
87	0xbc7332fc	-0.014843699
88	0xbd356112	-0.044282027
89	0x3d9a0e8f	0.07522308
90	0x3cfc2036	0.030777078
91	0x3daf386a	0.08555682
92	0x3e8c2cd7	0.2737796
93	0x3e8e7d84	0.27830136
94	0x3e858efc	0.2608565
95	0x3e310da2	0.17290357
96	0x3edb5b8a	0.42843276
97	0x3eef04f3	0.46683463
98	0x3eafa25c	0.34303558
99	0x3e96987e	0.29413217
100	0x3e6dee88	0.23235524
101	0x3dd6ef56	0.104948685
102	0xbd6766a0	-0.056494355
103	0xbd86cd52	-0.065821305
104	0x3d26a21e	0.04068195
105	0xbdd244e1	-0.10267044
106	0xbe0a4d70	-0.13506103
107	0xbdbf55d3	-0.093425415
108	0x3d8a1734	0.06742707
109	0xbcd7c836	-0.026340585
110	0x3cd6ddc3	0.026228791
111	0xbcda5e18	-0.026656196
112	0x3abc09c0	0.0014346167
113	0xbccd437b	-0.025056591
114	0xbcbdebfc	-0.023183815
115	0xbc8f9d9c	-0.017531209
116	0xbd20f45c	-0.03929554
117	0x3e2c2608	0.16811383
118	0x3e808700	0.25102997
119	0x3ea642ba	0.32472783
120	0x3e7ea63d	0.24868102
121	0x3e5c8bb3	0.21537666
122	0x3e388f27	0.18023358
123	0x3e612cbe	0.21989724
124	0x3e331682	0.17489055
125	0x3df472db	0.119359694
126	0x3c159347	0.009129352
127	0x3dc3856c	0.095469326
128	0x3d923e31	0.07140768
129	0x3cc17467	0.023615075
130	0x3da794b3	0.08182659
131	0x3da5e85a	0.08100958
132	0x3d7bdc6d	0.06148951
133	0x3d81c938	0.063372076
134	0x3d1637ec	0.036674425
135	0xbd123d2e	-0.035702877
136	0x3e07f3b2	0.13276556
137	0x3e0ed446	0.13948163
138	0x3dff9594	0.12479702
139	0xbcde9350	-0.027169853
140	0x3cefe9aa	0.029286224
141	0x3c826604	0.015917785
142	0xbd210f6b	-0.039321344
143	0x3dd4fb6a	0.10399516
144	0x3e2b9e0c	0.16759509
145	0x3ea497a0	0.3214693
146	0x3e6ef777	0.23336588
147	0x3e24f765	0.16109999
148	0x3e47c6cc	0.19509429
149	0x3e1c9ec5	0.15294941
150	0x3e1538ca	0.14572445
151	0x3d838f2e	0.06423794
152	0x3d40e7e8	0.047096163
153	0x3e34e469	0.17665257
154	0x3e13d85b	0.14438002
155	0x3e2cd829	0.16879334
156	0x3daf8b5c	0.085715026
157	0x3de3baea	0.111196354
158	0x3e1cd8f5	0.15317138
159	0x3daa95f5	0.08329383
160	0x3d8e0984	0.06935409
161	0x3d27a308	0.040926963
162	0x3c158844	0.009126727
163	0xbc619fa7	-0.013770974
164	0x3dfb19e3	0.12260797
165	0x3d8460fa	0.06463809
166	0xbcc961ae	-0.02458271
167	0xbd22f268	-0.039781958
168	0xbd08a87e	-0.03336381
169	0x3d223d43	0.039609205
170	0xbcdbf4f2	-0.026850197
171	0x3e4ea550	0.20180249
172	0x3e423563	0.18965678
173	0x3e75a015	0.23986848
174	0x3e443dd7	0.19164215
175	0x3e06242b	0.13099734
176	0x3e4fab9e	0.2028031
177	0x3e1544a6	0.14576969
178	0x3e2da850	0.16958737
179	0x3deded4f	0.11617529
180	0x3de813db	0.11331912
181	0x3e2e0f10	0.16997933
182	0x3e1f9661	0.15584709
183	0x3de54a2e	0.11195789
184	0x3e23dccb	0.16002195
185	0x3dd72017	0.105041675
186	0x3e2d6933	0.16934662
187	0x3db16997	0.08662718
188	0x3ded8048	0.11596733
189	0xbbfa5504	-0.007639529
190	0xbc9aef3f	-0.01891291
191	0xbdccb55f	-0.09995531
192	0x3d65c63b	0.05609725
193	0x3ce5748e	0.02800968
194	0x3de3cea7	0.111234
195	0x3d814452	0.06311859
196	0x3ca8ea9f	0.020619689
197	0x3d667c6c	0.056271
198	0xbd50b3b6	-0.050952636
199	0x3e0f8cf1	0.14018609
200	0x3e3d85c0	0.18508053
201	0x3e477398	0.1947769
202	0x3e35ffb5	0.17773326
203	0x3d721648	0.05910328
204	0x3e1108b7	0.1416348
205	0x3dba2134	0.09088364
206	0x3e01ccb8	0.1267575
207	0x3e11bbbe	0.14231774
208	0x3e6212e1	0.22077514
209	0x3e261b98	0.16221464
210	0x3e6b6e19	0.22991218
211	0x3e4aa5c4	0.19789797
212	0x3e397153	0.18109636
213	0x3e175687	0.14779101
214	0x3e04ba9b	0.1296181
215	0x3da74897	0.08168142
216	0x3dacea51	0.0844313
217	0x3cf8163a	0.030284036
218	0xbd09e247	-0.03366306
219	0xbe7ddda6	-0.24791583
220	0xbe7234db	-0.23652975
221	0x3ccc683b	0.024952045
222	0x3c35474c	0.011064362
223	0x3d8b6e7b	0.06808182
224	0xbcf51706	-0.029918205
225	0x3d82d855	0.06388918
226	0x3ca454d1	0.020059975
227	0x3d3a3fe5	0.04547109
228	0x3e3ef722	0.18648961
229	0x3e0474af	0.12935136
230	0xbc9597cd	-0.01826086
231	0x3dcdd73e	0.1005082
232	0x3dc1d25c	0.09463951
233	0x3d7cf01b	0.06175242
234	0xbbf4b28b	-0.007467573
235	0x3d57ed1a	0.052716352
236	0x3d84b953	0.0648066
237	0x3d5c9b98	0.053859323
238	0x3e6ebb91	0.23313738
239	0x3e857834	0.2606827
240	0x3e5669fc	0.20938867
241	0x3e07616e	0.1322076
242	0x3db799cc	0.08964881
243	0xbd2d9ec4	-0.04238774
244	0x3cda50a3	0.026649779
245	0xbcbe3ac7	-0.023221387
246	0xbcdf70d0	-0.027275473
247	0xbda91a05	-0.08256916
248	0xbe758ff4	-0.23980695
249	0xbd2f1c56	-0.042751633
250	0x3d472480	0.048618793
251	0x3c96a243	0.01838792
252	0x3d68e856	0.056862198
253	0x3dc86465	0.09784774
254	0x3e037ce8	0.12840617
255	0x3e0e82f5	0.13917144

fc1.1.bias f4 [64]
0	0x3e736e46	0.23772535
1	0x3ea32142	0.3186131
2	0x3e1e4282	0.15455058
3	0xbdce7638	-0.10081142
4	0x3e812c69	0.25229195
5	0x3db63104	0.08896068
6	0x3ed2592f	0.41083667
7	0xbdbd3052	-0.09237732
8	0x3e6f080b	0.23342912
9	0xbd44ef84	-0.048079982
10	0xbe31333e	-0.17304704
11	0xbc7870b6	-0.015163591
12	0xbb5670d5	-0.0032721062
13	0xbdb8176e	-0.08988844
14	0x3c8ca92c	0.017170511
15	0xbe084287	-0.13306628
16	0xbd0619c2	-0.03273941
17	0x3a8ee508	0.0010901997
18	0xbe7907cf	-0.24319385
19	0xbd866a2c	-0.065632194
20	0x3eb215d3	0.34782276
21	0xbe4f52c9	-0.20246424
22	0xbeb58f99	-0.3546112
23	0x3e27e5df	0.16396283
24	0x3d4cc6bc	0.049994215
25	0x3dc69bdc	0.096976966
26	0xbe492d33	-0.19646148
27	0x3d85c8ee	0.06532465
28	0xbc55f4e4	-0.013058875
29	0x3e55d5b1	0.20882298
30	0x3ee49d96	0.4465148
31	0x3e1b3b05	0.15159233
32	0xbd8b7919	-0.06810207
33	0x3db0b037	0.0862736
34	0x3e3d78c3	0.18503098
35	0xbdfbddb4	-0.12298146
36	0x3e53a1e2	0.20667222
37	0x3d06f538	0.032948703
38	0x3ddd21b5	0.10797445
39	0xbde7fddb	-0.11327716
40	0xbc71ef36	-0.014766505
41	0x3d3ec527	0.046574738
42	0x3e8332ed	0.2562479
43	0xbe4620b5	-0.19348414
44	0x3d524559	0.051335666
45	0x3dc3b0df	0.0955522
46	0xbe0c480a	-0.13699356
47	0x3e8a3251	0.26991513
48	0xbd852b53	-0.06502404
49	0x3e919a99	0.2843826
50	0x3e573aff	0.21018599
51	0xbe17b8c1	-0.14816572
52	0xbe148e08	-0.14507306
53	0x3e70d1f9	0.23517598
54	0x3da5d5cb	0.080974184
55	0x3db66906	0.089067504
56	0xbdc756a3	-0.097333215
57	0xbe9f6ad9	-0.31136206
58	0x3e10fcba	0.14158908
59	0x3e2befa4	0.16790634
60	0x3e0be96d	0.13663264
61	0x3e8e5ce6	0.2780525
62	0xbd6c160f	-0.057638224
63	0xbe6cea04	-0.23136145

fc2.0.weight f4 [10, 64]
0	0x3e56c630	0.2097404
1	0x3eafda10	0.34346056
2	0xbef49af2	-0.47774464
3	0xbd48161b	-0.048849206
4	0x3e18b3b9	0.14912309
5	0xbf2663ac	-0.6499584
6	0xbf67b0e0	-0.90504265
7	0xbf27658b	-0.6538932
8	0xbdac4fc5	-0.08413652
9	0xbe30ab1b	-0.17252772
10	0x3e90059b	0.28129277
11	0xba9e63a8	-0.0012084143
12	0xbdefde90	-0.11712372
13	0x3e6e90c8	0.23297417
14	0x3d0d82b2	0.03454847
15	0x3c9b09bf	0.018925546
16	0x3e88d414	0.26724303
17	0xbee36c3e	-0.4441852
18	0xbf0d30f2	-0.5515281
19	0x3e816cd3	0.2527834
20	0x3e78fd11	0.24315287
21	0xbe65cb73	-0.22440891
22	0x3e955376	0.29165238
23	0xbedfc84b	-0.437075
24	0xbca4f44d	-0.020136023
25	0x3e89d500	0.2692032
26	0x3eaae338	0.3337648
27	0x3e0c40da	0.13696614
28	0xbef85b7f	-0.48507306
29	0xbee24fca	-0.442015
30	0xbf25a5b1	-0.6470595
31	0x3e4ce470	0.20009017
32	0x3e8ffe2b	0.28123602
33	0x3e33c05c	0.17553848
34	0xbf51de8d	-0.8198021
35	0x3e7e55f9	0.24837483
36	0xbed6aa4b	-0.41926798
37	0xbed3555b	-0.4127606
38	0x3e584107	0.21118556
39	0xbf038692	-0.51377213
40	0x3d149d66	0.03628292
41	0x3d9eb37f	0.0774908
42	0xbe727d8d	-0.23680706
43	0xbf275955	-0.65370685
44	0xbeccd8a9	-0.4000905
45	0x3e9ae246	0.30250758
46	0x3e64d3bd	0.22346397
47	0x3e534484	0.20631605
48	0x3dfff242	0.12497379
49	0x3e92550b	0.28580508
50	0xbeca6d56	-0.39536542
51	0x3e58e405	0.21180733
52	0x3dab8f25	0.08376912
53	0x3e494be3	0.19657855
54	0x3ca7161a	0.020396281
55	0xbf1ec379	-0.6201702
56	0xbd12e32f	-0.03586119
57	0xbebc3bdc	-0.3676442
58	0xbe6c310f	-0.2306559
59	0x3e0ac31c	0.13550991
60	0xbf43a259	-0.764196
61	0x3e8c0421	0.273469
62	0xbf04890c	-0.51771617
63	0xbd207135	-0.039170463
64	0x3d039677	0.032125916
65	0xbd3099df	-0.043115493
66	0xbdf157ba	-0.11784311
67	0xbda6a33f	-0.081366055
68	0xbdcef92e	-0.10106121
69	0xbdb0f80d	-0.08641062
70	0xbdb4c15f	-0.08825945
71	0x3d4a9c37	0.049465384
72	0xbe0945d4	-0.13405544
73	0x3cb26d38	0.021780595
74	0xbd9333f5	-0.071876444
75	0x3dbca9ab	0.09212049
76	0x3dc2bdfa	0.095088914
77	0x3d78bc8d	0.06072669
78	0xbd29680d	-0.041358996
79	0xbceb1152	-0.028694782
80	0x3cd0ca41	0.025487067
81	0xbdf8c2db	-0.12146541
82	0x3d3584e9	0.044316206
83	0xbdae2ac1	-0.085042484
84	0x3d45b274	0.04826589
85	0xbcb38af3	-0.021916842
86	0x3cafb607	0.021449102
87	0xbd1535a8	-0.036428124
88	0xbb64c90d	-0.0034909875
89	0xbe0c22c6	-0.1368514
90	0xbd89225a	-0.06696005
91	0xbdd277b6	-0.10276739
92	0xbd32d7fb	-0.043663006
93	0xbd953738	-0.07285923
94	0xbb60b6d2	-0.0034288657
95	0x3cbcec11	0.023061784
96	0x3d69fcab	0.05712573
97	0x3b569862	0.0032744636
98	0x3d89fd66	0.06737785
99	0xbb8e28a4	-0.004338341
100	0xbe206f5f	-0.15667485
101	0xbc52c064	-0.012863252
102	0x3b9493d0	0.004534222
103	0xbd278d19	-0.040906046
104	0x3d49db59	0.04928145
105	0xbdd19fce	-0.102355585
106	0x3d4a50c1	0.04939342
107	0x3d976e9b	0.07394143
108	0xbd86cefa	-0.065824464
109	0xbddafca4	-0.106927186
110	0x3d245675	0.040121514
111	0x3d4111ee	0.04713624
112	0xbdcddd3f	-0.10051965
113	0xbcb13300	-0.021630764
114	0xbd890a75	-0.06691448
115	0xbdbd38af	-0.09239327
116	0xbddc2646	-0.107494876
117	0xbe04603c	-0.12927336
118	0xbcb0ea27	-0.021596028
119	0x3c239b59	0.009985768
120	0x3d5d5214	0.054033354
121	0xbcb8e171	-0.022568436
122	0x3c48525d	0.012226668
123	0xbca5d872	-0.02024481
124	0xbdb5bf04	-0.08874324
125	0xbc226853	-0.009912568
126	0xbc0d9b01	-0.008642913
127	0xbe168f8e	-0.147032
128	0x3ef7fc76	0.484348
129	0xbedfae98	-0.43687892
130	0x3ee44341	0.4458256
131	0x3e5f513a	0.21808329
132	0xbea1585c	-0.31512725
133	0xbf0b1fee	-0.54345596
134	0x3e27bb1f	0.16379975
135	0x3e5f31c7	0.21796332
136	0xbf7b62a4	-0.9819739
137	0x3ddbb749	0.10728318
138	0x3dae0244	0.08496526
139	0x3d0372ad	0.032091785
140	0x3d7e0b99	0.06202278
141	0x3e0caf48	0.1373874
142	0xbe96d2b3	-0.29457626
143	0xbef4604d	-0.47729722
144	0x3e7ad6b2	0.24495962
145	0x3e779aad	0.24180098
146	0x3e2b4a84	0.16727644
147	0x3e81b228	0.25331235
148	0x3ef398f0	0.4757762
149	0x3e8fde62	0.28099352
150	0x3e959e0e	0.2922215
151	0xbd40d48a	-0.047077693
152	0x3e403d8f	0.18773483
153	0x3e6c5afd	0.23081584
154	0xbbf6ab59	-0.0075277505
155	0xbef4de13	-0.4782568
156	0x3d332b37	0.043742385
157	0xbf139629	-0.57651
158	0x3eac7c8b	0.3368877
159	0x3c84e9d7	0.016224785
160	0xbed95b8c	-0.42452657
161	0x3e308886	0.1723958
162	0xbf084890	-0.5323572
163	0x3e888ac4	0.2666837
164	0xbd079812	-0.03310401
165	0xbf48eb37	-0.7848391
166	0x3e5801b4	0.210944
167	0xbf0fe598	-0.5620971
168	0x3dc5883a	0.09645124
169	0x3e84b530	0.25919485
170	0xbf0e2273	-0.55521315
171	0x3dfa0023	0.12207057
172	0xbe094bc6	-0.13407812
173	0x3d67c724	0.0565864
174	0x3d9cddce	0.076594934
175	0xbecf3335	-0.40468755
176	0x3e659305	0.22419365
177	0x3c210a4b	0.009829114
178	0xbf3725cd	-0.71542054
179	0xbd7ea241	-0.062166456
180	0x3e5a7b5f	0.21336125
181	0x3e4c96dd	0.19979425
182	0xbe113cf3	-0.14183407
183	0x3e2d39a7	0.16916524
184	0xbe945762	-0.28972918
185	0x3c3ec810	0.011644378
186	0x3f0325a9	0.5122934
187	0xbf2e70be	-0.6814078
188	0xbd618146	-0.055054925
189	0xbf48cab4	-0.784343
190	0x3e47fa65	0.19529112
191	0x3c9fdc6b	0.019514283
192	0x3ea7f62e	0.32805008
193	0x3dc421c4	0.09576753
194	0xbe19c029	-0.1501471
195	0x3e49da08	0.19712079
196	0xbe88a91d	-0.26691523
197	0x3d3683a5	0.04455914
198	0x3ea6fb81	0.32613757
199	0x3e8de9de	0.2771749
200	0x3cea7f6f	0.028625218
201	0x3db203ed	0.08692155
202	0xbe172530	-0.1476028
203	0xbd20677d	-0.039161194
204	0x3ddc2bd9	0.10750551
205	0x3e4a7e1a	0.19774666
206	0x3de2f651	0.110821374
207	0xbc574c61	-0.013140769
208	0xbf2437fe	-0.6414794
209	0x3de49fe4	0.11163309
210	0x3df46163	0.119326375
211	0x3d9706b3	0.07374325
212	0xbeac4887	-0.33649084
213	0x3e0ac1f2	0.13550547
214	0x3e507741	0.20357992
215	0xbf378243	-0.7168314
216	0x3e63edb7	0.2225865
217	0x3e217bf1	0.15769936
218	0xbf06c676	-0.5264658
219	0xbe364651	-0.17800261
220	0xbf22f67d	-0.6365736
221	0x3d583aef	0.05279058
222	0xbe401788	-0.18758976
223	0xbf75baef	-0.95988363
224	0x3ea2c638	0.31791854
225	0xbe00e2e9	-0.1258656
226	0x3ee2c46d	0.44290486
227	0x3d434682	0.047674663
228	0x3e3daab5	0.18522151
229	0x3e538888	0.20657551
230	0xbeaa7f69	-0.3330033
231	0xbe44ad97	-0.19206844
232	0x3b885add	0.0041612224
233	0x3e638301	0.22217943
234	0xbf2932fa	-0.6609341
235	0xbf58430e	-0.8447732
236	0x3d810753	0.06300225
237	0x3e3580f0	0.17724967
238	0x3e1abb3a	0.15110484
239	0x3e5a818e	0.21338484
240	0xbf031df0	-0.51217556
241	0x3e81e1e9	0.25367668
242	0x3e5580df	0.20849942
243	0x3df4537d	0.119299866
244	0x3e75d73d	0.24007888
245	0xbbff57d5	-0.007792453
246	0x3e3705ba	0.17873278
247	0xbc05af55	-0.008159478
248	0xbe409b02	-0.18809131
249	0xbcab9ffd	-0.020950312
250	0x3e9315d7	0.287276
251	0x3e06a935	0.13150485
252	0x3e0704d4	0.13185436
253	0xbe608479	-0.21925534
254	0x3e0bba57	0.13645302
255	0x3e6b5a50	0.2298367

fc2.0.bias f4 [10]
0	0xbe39ef5e	-0.18157718
1	0xbd654ba1	-0.05598033
2	0x3d74d61f	0.059774514
3	0xbe955959	-0.2916973
4	0x3d074901	0.033028606
5	0x3edf3a7f	0.43599316
6	0x3cd6343c	0.026147954
7	0x3e4a90be	0.19781777
8	0xbc116f26	-0.0088765975
9	0x3bd84de1	0.0066010808
