callbacks/05-23-2022_08-54-19/models/epoch_8.pt (torch, 205087 bytes, 4 tensors)

fc1.0.weight f4 [64, 784]
0	0x3c84511e	0.016151961
1	0xbbd2659c	-0.006420804
2	0x3d0bc30d	0.03412156
3	0x3c766ebc	0.01504105
4	0x3be1ea70	0.006894402
5	0x3a9954a0	0.0011698194
6	0x39eaf700	0.00044815987
7	0xbca56ed0	-0.020194441
8	0x3cd83802	0.026393894
9	0xbd08963c	-0.0333464
10	0xbc4fde80	-0.0126873255
11	0x3cae584e	0.021282341
12	0x3d937a97	0.072011165
13	0x3de3ad20	0.11117005
14	0x3c3f18e0	0.0116636455
15	0x3b27e420	0.002561815
16	0xbc457f32	-0.0120542515
17	0xbbe29138	-0.006914284
18	0x3c22e2b8	0.009941749
19	0x3c51e674	0.012811292
20	0xbca0ed1c	-0.019644313
21	0xbc9da93c	-0.019245736
22	0xbc9a7d23	-0.018858498
23	0x3c4b97dc	0.012426343
24	0x3d0fa46d	0.035068918
25	0x3bb138f8	0.0054084025
26	0x3cdb3326	0.026757788
27	0xbd0efc78	-0.03490874
28	0x3cbbfec8	0.022948638
29	0xbb074ed0	-0.002064634
30	0x3cf0c8da	0.029392648
31	0xbd070a44	-0.032968774
32	0x3d1465f4	0.036230043
33	0x3d1b0f33	0.037856292
34	0x3dfd0c56	0.123558685
35	0x3e0ac597	0.13551937
36	0x3c3a85c6	0.011384433
37	0x3ca564b3	0.020189619
38	0x3d4768e9	0.048684034
39	0x3d897240	0.067112446
40	0x3e220a45	0.1582423
41	0x3e17fae8	0.14841807
42	0x3dcb139a	0.09915848
43	0x3d5cc704	0.053900734
44	0xbc16a2a3	-0.009194049
45	0x3dea92c4	0.114537746
46	0x3e2865ce	0.16445085
47	0x3e1e4633	0.15456466
48	0x3e0139ac	0.12619656
49	0x3dfe6ce4	0.12423113
50	0x3d77754e	0.060414605
51	0x3d2a53f6	0.041583978
52	0xbc8c5be3	-0.017133659
53	0xbcb55e70	-0.022139758
54	0x3ca7136e	0.020395007
55	0x3c63a428	0.013894118
56	0x3ca46fbc	0.02007281
57	0x3d0e26f3	0.034705114
58	0xbc3b2721	-0.011422903
59	0xbdca6e1c	-0.09884283
60	0xbd046539	-0.032323096
61	0x3d20647e	0.039158337
62	0x3e17a190	0.14807725
63	0x3d924bb2	0.07143344
64	0xbd34e27e	-0.044161312
65	0xbc4779ef	-0.012175067
66	0x3db9defb	0.09075733
67	0x3e5600d6	0.20898756
68	0x3e8a38e5	0.26996532
69	0x3e521418	0.20515478
70	0x3e304460	0.17213583
71	0x3e78bbf1	0.24290444
72	0x3e31dd54	0.17369586
73	0xbab661eb	-0.001391468
74	0xbd170f64	-0.036879912
75	0x3d67e7ad	0.056617428
76	0x3b557682	0.0032571857
77	0x3cf03382	0.029321436
78	0x3e0b9a19	0.13633002
79	0x3e1a8c2a	0.15092531
80	0xbdabc20c	-0.08386621
81	0xbdb9dd14	-0.090753704
82	0x3cd852ae	0.026406612
83	0x3c10d058	0.0088387355
84	0x3d0ccb63	0.034373652
85	0xbcfedca5	-0.03111107
86	0x3d803287	0.06259637
87	0xbc71961e	-0.014745263
88	0x3dfa152f	0.12211072
89	0x3d8c9a93	0.0686542
90	0x3d0db3b1	0.034595195
91	0x3e39b0c4	0.18133837
92	0x3cc048bb	0.02347218
93	0xbc99f003	-0.018791204
94	0x3c008b83	0.007845762
95	0xbc8eb98e	-0.017422464
96	0xbd991cfa	-0.0747623
97	0xbd687680	-0.056753635
98	0xbd7d22c7	-0.061800744
99	0xbd8cdcdd	-0.06878064
100	0xbe9adef7	-0.30248234
101	0xbea6c4c5	-0.32571998
102	0xbe955655	-0.2916743
103	0xbe82963a	-0.2550524
104	0xbe32f5bf	-0.17476557
105	0x3daadae3	0.083425306
106	0x3e6383c2	0.2221823
107	0x3ea36ff8	0.31921363
108	0x3deebb16	0.116567776
109	0xbd93c993	-0.072161816
110	0xbe00558d	-0.12532635
111	0x3a117e00	0.00055500865
112	0xbc707b6e	-0.014677865
113	0x3b56534e	0.0032703462
114	0x3ded8cb2	0.11599101
115	0x3d97f375	0.074194826
116	0x3e95f5e4	0.29289162
117	0x3db4d580	0.088297844
118	0xbdd09cad	-0.101861335
119	0x3c75c1d2	0.014999824
120	0xbe1a14f0	-0.1504705
121	0xbde678f2	-0.11253537
122	0xbda0b5ef	-0.07847201
123	0xbe2963b3	-0.16541938
124	0x3b853e7a	0.0040662857
125	0x3e1be084	0.15222365
126	0x3e341ad9	0.17588367
127	0x3db81f1f	0.08990311
128	0xbe02d214	-0.12775451
129	0xbe95fabc	-0.29292858
130	0xbeaeb6d2	-0.34123856
131	0xbe418666	-0.18898925
132	0xbc8c9269	-0.017159658
133	0x3dd1e361	0.10248447
134	0x3e8de280	0.27711868
135	0x3ebdecc2	0.37094694
136	0xbcc6e958	-0.024281189
137	0xbe23669e	-0.15957114
138	0x3d2f381a	0.042778112
139	0x3d5e1feb	0.054229658
140	0xbd0fe0af	-0.035126384
141	0x3cae118c	0.021248601
142	0x3d5a412d	0.053284813
143	0x3dcbcd60	0.099512815
144	0x3e0b6152	0.13611344
145	0xbe3963e1	-0.18104507
146	0xbd673a79	-0.05645225
147	0xbce99668	-0.028514102
148	0xbd92f348	-0.071753085
149	0xbd80b886	-0.06285195
150	0xbe68dde5	-0.22740896
151	0xbd47a1e4	-0.048738375
152	0x3dda71c3	0.106662296
153	0x3d7eb1f1	0.062181417
154	0x3d59b2b0	0.053148925
155	0xbd5ca0ef	-0.053864416
156	0xbe6bdb2e	-0.23032829
157	0xbe8a5051	-0.27014402
158	0xbe6d8c34	-0.23198014
159	0xbd1b8842	-0.037971742
160	0x3e073372	0.13203219
161	0x3e1a7870	0.15085006
162	0x3e3719b9	0.17880906
163	0x3e7434a4	0.23848206
164	0x3e318d56	0.17339072
165	0xbe3a3d8b	-0.1818754
166	0xbe05c63c	-0.13063902
167	0x3ae0f715	0.001716348
168	0xbc1a7a8e	-0.009428633
169	0xbca2e6f4	-0.019885518
170	0x3ce5ed3e	0.028067227
171	0xbdb52aed	-0.08846078
172	0xbc0378fc	-0.00802445
173	0xbd2bd425	-0.041950364
174	0xbd551fc1	-0.052032236
175	0x3d920347	0.07129531
176	0xbd165c9d	-0.036709417
177	0xbdf0c01e	-0.117553934
178	0xbd8ba7d8	-0.06819123
179	0xbd4b292f	-0.049599823
180	0xbcdf4dd0	-0.027258784
181	0xbe02035c	-0.12696594
182	0xbe1c70ea	-0.15277448
183	0xbe4843df	-0.19557141
184	0xbf0a8778	-0.5411296
185	0xbedacf8f	-0.4273648
186	0xbe994060	-0.29931927
187	0xbd01488d	-0.03156333
188	0xbd551581	-0.05202246
189	0x3d9ced6c	0.07662472
190	0x3e4211b1	0.18952061
191	0x3ec3ae6f	0.3821902
192	0x3e6e332e	0.23261711
193	0xbd090d1c	-0.033459768
194	0xbe7713d0	-0.24128652
195	0xbc12aca8	-0.008952297
196	0xbcc17e7c	-0.023619883
197	0xbd6de1a0	-0.0580765
198	0xbca3548d	-0.019937778
199	0xbdacb2c8	-0.08432537
200	0x3d13c109	0.036072765
201	0x3c33e210	0.0109791905
202	0xbdf53bbc	-0.11974284
203	0x3d78471a	0.060614683
204	0x3b7f3ad7	0.0038944983
205	0xbd4f5c14	-0.050624922
206	0xbdb658c9	-0.08903653
207	0xbe1f54e2	-0.15559724
208	0xbdead49c	-0.11466333
209	0xbd965905	-0.07341198
210	0xbe1a7a5e	-0.15085742
211	0xbeac364c	-0.33635175
212	0xbf01343a	-0.50470316
213	0xbe8bb21d	-0.27284327
214	0xbd754249	-0.059877668
215	0x3e0be2f9	0.13660802
216	0x3d2c3708	0.04204467
217	0xbcb0821b	-0.021546414
218	0x3d431d4f	0.047635373
219	0x3e4019f5	0.18759902
220	0x3e26b32b	0.16279285
221	0xbe41c2fa	-0.18922034
222	0xbdf758b1	-0.120774634
223	0xbdaff3a7	-0.08591395
224	0x3d68c0f9	0.056824658
225	0xbd4eeec7	-0.050520685
226	0x3dcccb48	0.0999971
227	0xbcf7fc3a	-0.030271638
228	0xbd549b37	-0.051905837
229	0xbdf8186a	-0.121140316
230	0xbe19fb3b	-0.15037243
231	0x3cdb041b	0.026735356
232	0xbd9d43b0	-0.07678926
233	0x3ccbd0e9	0.02487989
234	0xbdad933b	-0.084753476
235	0xbd10f91e	-0.035393827
236	0x3df62a7d	0.12019823
237	0xbcca83a2	-0.02472097
238	0xbe94b422	-0.2904368
239	0xbecfdc00	-0.40597534
240	0xbef72a84	-0.48274624
241	0xbe63a306	-0.22230157
242	0x3cef320a	0.029198665
243	0x3df2d479	0.11856932
244	0x3d6798ad	0.056542087
245	0xbcde0122	-0.02710015
246	0xbdb3fd56	-0.08788554
247	0xbc55953b	-0.013036068
248	0xbd89f849	-0.0673681
249	0xbe371f74	-0.17883092
250	0x3da6fd03	0.08153727
251	0x3e1662d1	0.14686133
252	0x3db28a37	0.08717769
253	0xbe033401	-0.12812807
254	0xbcc83946	-0.024441373
255	0xbe062386	-0.13099489

fc1.0.bias f4 [64]
0	0xbdf411b9	-0.11917443
1	0xbe632009	-0.22180189
2	0x3dada583	0.084788345
3	0xbed2e1e8	-0.41187978
4	0x3d465dcc	0.048429295
5	0x3e8cdb5b	0.27511105
6	0xbe14298b	-0.14468972
7	0x3b6146eb	0.0034374546
8	0xbdfab6c2	-0.122418895
9	0xbe6135a7	-0.21993123
10	0x3e3167ed	0.17324801
11	0x3de39b5a	0.11113615
12	0x3f090a73	0.5353157
13	0xbdc92c95	-0.098229565
14	0x3ca418c3	0.020031339
15	0xbe020e22	-0.12700704
16	0x3d91c382	0.07117368
17	0x3d30fdb0	0.043210685
18	0xbe9a5706	-0.3014452
19	0x3e68c141	0.2272997
20	0xbe0921e7	-0.13391839
21	0xbd46760d	-0.048452426
22	0x3e40391c	0.18771785
23	0xbe099c66	-0.13438568
24	0xbe33877c	-0.17532152
25	0x3e203801	0.15646364
26	0x3e301c6a	0.17198339
27	0x3e795397	0.24348293
28	0x3d8a78b3	0.06761303
29	0xbf01200c	-0.50439525
30	0x3e51b909	0.20480742
31	0xbce9d574	-0.028544165
32	0xbd2741be	-0.04083418
33	0x3e4a8cf8	0.19780338
34	0x3e090d68	0.1338402
35	0x3e3ccc2e	0.18437263
36	0xbdb3f18b	-0.08786305
37	0x3d562541	0.05228162
38	0xbede4b17	-0.43416664
39	0x3e3a9a1d	0.18222852
40	0xbd27abe3	-0.04093541
41	0xbe24cec6	-0.16094503
42	0xbda7783d	-0.081772305
43	0x3ea4432a	0.32082492
44	0xbe1baa36	-0.15201649
45	0x3e42695f	0.18985508
46	0x3e745abd	0.23862739
47	0x3f0510ad	0.5197857
48	0x3cd1a7d6	0.025592726
49	0x3eb75d45	0.35813347
50	0x3da745a4	0.0816758
51	0xbe162429	-0.14662232
52	0xbe1dadb1	-0.1539829
53	0x3e876da6	0.26450843
54	0xbd8721e8	-0.06598264
55	0xbe964c98	-0.2935531
56	0x3e1f031e	0.15528533
57	0x3e6365c9	0.22206797
58	0xbe50e4c4	-0.20399767
59	0x3ec4054a	0.38285285
60	0xbe8b1b54	-0.27169287
61	0xbe228a9c	-0.15873188
62	0x3e22515f	0.15851353
63	0x3ecb16d4	0.39665854

fc2.0.weight f4 [10, 64]
0	0xbc5275c1	-0.0128454575
1	0x3e58c9fd	0.21170802
2	0x3e2bda07	0.1678239
3	0xbd8f74ab	-0.070046745
4	0x3e8485b8	0.2588327
5	0x3e6d7571	0.23189332
6	0xbd1b3e88	-0.03790143
7	0x3e61991b	0.22031061
8	0x3e92eef5	0.28697935
9	0x3da5e17b	0.080996476
10	0x3dcd1754	0.10014215
11	0xbd84d906	-0.064867064
12	0xbf4e583e	-0.80603397
13	0xbf479240	-0.77957535
14	0x3e053481	0.1300831
15	0xbe10a133	-0.14123993
16	0xbdaf888f	-0.08570968
17	0x3e77cb72	0.24198702
18	0x3e6a2f89	0.22869696
19	0xbf3cc987	-0.73745006
20	0x3e75e050	0.2401135
21	0x3e821278	0.25404716
22	0xbf0c5545	-0.5481761
23	0xbf417a8a	-0.75577605
24	0x3e97530a	0.2955554
25	0xbee45ff9	-0.4460447
26	0xbf32a83c	-0.69787955
27	0xbf67511b	-0.9035813
28	0xbdf5089f	-0.11964535
29	0x3e6cf41a	0.23139992
30	0x3d846e98	0.064664066
31	0x3e41dc51	0.189317
32	0x3e7fbe13	0.24974851
33	0x3dcc07be	0.09962414
34	0x3cb22871	0.0217478
35	0x3e4856f3	0.19564418
36	0xbf00c6e7	-0.503035
37	0xbec505e1	-0.38481048
38	0x3e5d4e89	0.2161199
39	0x3ebc0acf	0.36726996
40	0xbc02469a	-0.007951403
41	0x3d21b910	0.03948313
42	0x3e6b9d89	0.23009314
43	0x3ed8cbed	0.42343083
44	0x3e2264d9	0.15858783
45	0xbf13dd14	-0.57759213
46	0xbe545fc8	-0.20739663
47	0xbe8f1a8e	-0.27949947
48	0xbf6fb908	-0.9364171
49	0x3df1938e	0.11795722
50	0x3eb21557	0.34781906
51	0xbedcf47f	-0.43155286
52	0x3e5d1c18	0.21592748
53	0x3ea12389	0.31472424
54	0xbe78d204	-0.24298865
55	0xbbeea3fb	-0.0072827316
56	0xbe7076f0	-0.23482871
57	0x3dd928dc	0.106034964
58	0xbdacad38	-0.08431476
59	0xbf62e1bb	-0.8862569
60	0x3e7fc077	0.24975763
61	0x3ed0bfa8	0.40771222
62	0xbef15ad1	-0.471396
63	0x3ea94ec8	0.33067918
64	0x3ee1205f	0.4397001
65	0x3e8fe9b3	0.28107986
66	0xbed1c205	-0.40968338
67	0x3e930095	0.28711382
68	0xbf81c712	-1.0138876
69	0x3ecb39a1	0.39692405
70	0x3e87cc35	0.26522985
71	0xbf55dcdd	-0.83540136
72	0xbf33f1b3	-0.7029068
73	0xbe20d425	-0.15705927
74	0xbf472479	-0.7779003
75	0xbd8366f8	-0.06416124
76	0x3e4a7de3	0.19774584
77	0x3e677283	0.22602277
78	0x3e1d872c	0.15383595
79	0xbeca8e9b	-0.39561924
80	0xbf3cd13b	-0.7375676
81	0x3e479ee6	0.19494209
82	0x3dc0edf9	0.0942039
83	0x3e0ca131	0.13733365
84	0xb99caed6	-0.00029884902
85	0x3e915805	0.28387466
86	0xbf2a2a23	-0.66470546
87	0x3e81bc64	0.25339043
88	0xbea7964c	-0.32731855
89	0x3e35397b	0.17697708
90	0x3e8f6de3	0.28013524
91	0x3ea6174a	0.32439643
92	0xbf201f91	-0.62548167
93	0x3db3ec96	0.087853596
94	0xbce1ff3f	-0.027587531
95	0x3c329c12	0.010901468
96	0x3e629175	0.221258
97	0x3e81616a	0.25269634
98	0xbf348ae9	-0.7052446
99	0xbf778b51	-0.96696955
100	0x3e3f6cc6	0.18693838
101	0xbed5f765	-0.4179031
102	0xbf2445e5	-0.6416915
103	0x3e84c08d	0.25928155
104	0xbcdffdf8	-0.027342781
105	0x3f41b358	0.7566428
106	0xbe5c66f2	-0.21523646
107	0x3e0615a5	0.13094194
108	0x3e4311ea	0.19049802
109	0x3e85390d	0.2602009
110	0xbf5bdf31	-0.8588744
111	0x3db71d46	0.0894113
112	0x3e9794d3	0.2960573
113	0x3e1cb2ec	0.15302628
114	0xbf47754c	-0.77913356
115	0xbe666148	-0.22498047
116	0xbf1d6610	-0.6148386
117	0xbe696472	-0.22792223
118	0x3e130ed1	0.14361121
119	0xbee8a27b	-0.45436463
120	0x3f3df39e	0.74199855
121	0xbf36887e	-0.7130202
122	0x3e4f6a6d	0.20255442
123	0x3e266ed3	0.16253214
124	0xbeecc27c	-0.4624213
125	0x3e32e12c	0.17468709
126	0xbe5543e2	-0.20826676
127	0x3f137685	0.5760272
128	0xbeac7a80	-0.3368721
129	0x3e41bc84	0.18919569
130	0x3da4d1da	0.080478385
131	0x3e8c0c5d	0.27353182
132	0xbe063c79	-0.13109006
133	0xbe5591d8	-0.20856416
134	0xbd5abef0	-0.05340475
135	0xbe82ca01	-0.25544742
136	0x3de1975e	0.11015199
137	0x3ecb094d	0.39655533
138	0xbe5e4099	-0.2170433
139	0x3e83abb8	0.25716949
140	0x3e7b849d	0.24562307
141	0x3e987315	0.297753
142	0x3e08a73a	0.13345042
143	0xbd88275c	-0.06648132
144	0xbcfa53b5	-0.030557493
145	0xbf543ba8	-0.8290353
146	0x3e2ac7f8	0.16677845
147	0xbc2cd970	-0.010549888
148	0x3ee76e52	0.45201355
149	0x3e071e01	0.1319504
150	0xbf4bd27a	-0.79618037
151	0xbdafb217	-0.0857889
152	0x3e803cbc	0.25046337
153	0xbd8a3244	-0.06747869
154	0x3e919772	0.28435856
155	0x3e4f83f5	0.20265181
156	0x3eef9778	0.4679525
157	0x3e6396a2	0.2222543
158	0x3f2c1a76	0.67227876
159	0xbeaf1e7f	-0.34202954
160	0x3db1be08	0.08678824
161	0xbf75d523	-0.96028346
162	0x3ef46724	0.4773494
163	0xbd06eef2	-0.03294272
164	0x3e583895	0.21115334
165	0x3f087a11	0.5331126
166	0xba9ef684	-0.0012127911
167	0xbf14cb80	-0.58123016
168	0xbd4f3fc7	-0.050597932
169	0x3c1d71a8	0.009609617
170	0x3eda8887	0.42682287
171	0x3e6df6d6	0.23238692
172	0x3de790cf	0.11306917
173	0x3e6acd51	0.22929884
174	0xbf48c541	-0.78425986
175	0xbf8fe2e4	-1.1241117
176	0x3e7317f5	0.23739608
177	0x3dba8d71	0.09109009
178	0x3eadec96	0.33969563
179	0x3e87929b	0.2647904
180	0x3e84cdbe	0.2593822
181	0xbf33bd00	-0.70210266
182	0xbeeb3416	-0.45938176
183	0xbd7e0f54	-0.062026337
184	0xbe0e5d0c	-0.13902682
185	0xbf060d87	-0.5236439
186	0x3e8fb4a0	0.28067493
187	0x3e3c3aa9	0.18381752
188	0x3e7b3a95	0.24534066
189	0x3e52686c	0.20547646
190	0xbf2741b3	-0.65334624
191	0xbec5ed76	-0.3865773
192	0xbd9c6b5d	-0.076376654
193	0x3d3ce3c9	0.04611567
194	0xbe0b458b	-0.13600747
195	0xbd949831	-0.07255591
196	0xbda44fab	-0.08023008
197	0x3d4fca8e	0.05073028
198	0xbb679427	-0.0035336108
199	0x3d4225d5	0.04739936
200	0xbd95a273	-0.07306375
201	0x3d4fc5b6	0.05072566
202	0xbd5883bb	-0.052860003
203	0xbc8c07ec	-0.017093621
204	0xbdec40a4	-0.11535767
205	0xbc0b68b1	-0.008508847
206	0xbcccf358	-0.02501838
207	0x3d3fbca3	0.046810757
208	0xbde0af0f	-0.1097089
209	0xbe063fbb	-0.13110249
210	0xbd9ca0eb	-0.0764788
211	0xbd6c43ca	-0.057681836
212	0xbda122a0	-0.07867932
213	0xbd92ee6f	-0.07174384
214	0x3d28adef	0.0411815
215	0xbe15da61	-0.14634086
216	0xbd09271a	-0.033484556
217	0xbba0d554	-0.004908243
218	0x3d1ba65e	0.038000457
219	0x3d599d50	0.05312854
220	0xbdca33bf	-0.09873151
221	0xbe0854ad	-0.13313551
222	0x3bae9482	0.005327762
223	0xbd7bb0dd	-0.061447967
224	0x3c967536	0.018366437
225	0xbe304e09	-0.17217268
226	0xbc9209c2	-0.017826919
227	0xbdfcf5c0	-0.123515606
228	0xbc62764a	-0.013822148
229	0xbda2c157	-0.07947033
230	0x3d3b66ed	0.045752455
231	0x3af744cf	0.0018865111
232	0x3d4c04b5	0.049809176
233	0xbde91fd6	-0.11383025
234	0x3b100cfc	0.0021980396
235	0x3c8459a8	0.016156033
236	0xbe1424e6	-0.144672
237	0xbdcc25b0	-0.09968126
238	0xbdf34138	-0.11877674
239	0xbb7cf42f	-0.0038597693
240	0xbdd72d6e	-0.10506712
241	0xbce2d2ce	-0.02768841
242	0xbc326742	-0.010888876
243	0xbda8037b	-0.08203789
244	0xbe21b990	-0.15793443
245	0xbcafdb65	-0.02146692
246	0xbd550e24	-0.05201544
247	0xbbb7daf4	-0.005610818
248	0x3d6b02dd	0.057375778
249	0xbd332f06	-0.043746017
250	0xbdc813d4	-0.09769407
251	0xbd4bd4e8	-0.04976359
252	0xbda30290	-0.07959473
253	0xbd96d2e0	-0.0736444
254	0xbd4a39dc	-0.049371585
255	0xbdf732df	-0.1207025

fc2.0.bias f4 [10]
0	0xbdc46749	-0.095900126
1	0x3e5d2bbb	0.21598713
2	0x3e3cb825	0.1842962
3	0xbe0dc794	-0.13845664
4	0x3e9df0d2	0.30847794
5	0x3edba11c	0.42896354
6	0x3dc92b97	0.09822767
7	0xbc8177eb	-0.015804252
8	0xbee1049c	-0.4394883
9	0x3e519c34	0.20469743
