callbacks/05-23-2022_08-54-19/models/epoch_5.pt (torch, 205087 bytes, 4 tensors)

fc1.0.weight f4 [64, 784]
0	0x3c84511e	0.016151961
1	0xbbd2659c	-0.006420804
2	0x3d0bc30d	0.03412156
3	0x3c766ebc	0.01504105
4	0x3be1ea70	0.006894402
5	0x3a9954a0	0.0011698194
6	0x39eaf700	0.00044815987
7	0xbca56ed0	-0.020194441
8	0x3cd83802	0.026393894
9	0xbd08963c	-0.0333464
10	0xbc4fde80	-0.0126873255
11	0x3cae584e	0.021282341
12	0x3d936af9	0.07198138
13	0x3de39a40	0.11113405
14	0x3c3f18e0	0.0116636455
15	0x3b27e420	0.002561815
16	0xbc457f32	-0.0120542515
17	0xbbe29138	-0.006914284
18	0x3c22e2b8	0.009941749
19	0x3c51e674	0.012811292
20	0xbca0ed1c	-0.019644313
21	0xbc9da93c	-0.019245736
22	0xbc9a7d23	-0.018858498
23	0x3c4b97dc	0.012426343
24	0x3d0fa46d	0.035068918
25	0x3bb138f8	0.0054084025
26	0x3cdb3326	0.026757788
27	0xbd0efc78	-0.03490874
28	0x3cbbfec8	0.022948638
29	0xbb074ed0	-0.002064634
30	0x3cf0c8da	0.029392648
31	0xbd070a44	-0.032968774
32	0x3d146635	0.036230285
33	0x3d1b10b7	0.037857737
34	0x3dbb27a0	0.09138417
35	0x3db091e0	0.086215734
36	0xbca95095	-0.020668307
37	0x3aaf1521	0.0013357737
38	0x3be609d2	0.0070202136
39	0x3d7e0d95	0.06202467
40	0x3e1048c2	0.14090255
41	0x3e02742c	0.12739629
42	0x3d981189	0.074252196
43	0x3d1e69a9	0.038674984
44	0xbb414c64	-0.0029494995
45	0x3d8ee1cc	0.06976661
46	0x3e257f65	0.16161878
47	0x3e1bb29b	0.15204851
48	0x3dcbcdb5	0.09951345
49	0x3e026ae8	0.12736094
50	0x3dac4431	0.08411444
51	0x3d95077e	0.0727682
52	0xbc8c5be3	-0.017133659
53	0xbcb55e70	-0.022139758
54	0x3ca7136e	0.020395007
55	0x3c63a428	0.013894118
56	0x3ca46fbc	0.02007281
57	0x3d0e26f3	0.034705114
58	0xbc3b26be	-0.011422811
59	0xbd487936	-0.04894372
60	0x3c5f39b0	0.013624594
61	0x3d1b11a9	0.03785864
62	0x3debf0cc	0.11520538
63	0x3d42b4c0	0.047535658
64	0xbc5c3d6c	-0.0134423785
65	0x3cd92d75	0.026510933
66	0x3db8e003	0.09027102
67	0x3dd01edd	0.10162137
68	0x3dd30b06	0.10304837
69	0x3db661a1	0.0890534
70	0x3daa2173	0.08307161
71	0x3dfef29d	0.124486186
72	0x3d746bf0	0.05967325
73	0x3c4fb64a	0.012677738
74	0x3cf58759	0.029971765
75	0x3dbd2b1b	0.09236737
76	0x3d3a5fdf	0.045501586
77	0x3d579b3e	0.052638285
78	0x3deb5df0	0.114925265
79	0x3e1e2672	0.15444353
80	0xbcf6f99b	-0.030148318
81	0xbdb0f821	-0.08641077
82	0x3cd852ae	0.026406612
83	0x3c10d058	0.0088387355
84	0x3d0ccb63	0.034373652
85	0xbcfedca5	-0.03111107
86	0x3d010a6c	0.03150408
87	0x3ccf8f7c	0.025336973
88	0x3e0124be	0.12611672
89	0x3d2940f6	0.041321717
90	0xbd878d5c	-0.06618759
91	0x3deb7d3b	0.11498495
92	0x3cef7c3c	0.029234044
93	0x3d689b9e	0.056789033
94	0x3d8dc54a	0.069223955
95	0xbcc581ad	-0.024109686
96	0xbdea75d8	-0.11448258
97	0xbdc3d0fa	-0.095613435
98	0xbddc3b6e	-0.10753523
99	0xbdc3ee12	-0.09566893
100	0xbe49dd3b	-0.19713299
101	0xbdc752b9	-0.09732575
102	0xbddb2ad8	-0.10701531
103	0xbe25bb8a	-0.16184822
104	0xbe27c5e6	-0.16384086
105	0xbbee6343	-0.0072750165
106	0x3deb25dc	0.114818305
107	0x3e340f61	0.17583992
108	0x3c121c84	0.0089179315
109	0xbdcc54b3	-0.099770926
110	0xbdc23b66	-0.094839856
111	0x3a117e00	0.00055500865
112	0xbc707b6e	-0.014677865
113	0x3b56534e	0.0032703462
114	0x3d9857b1	0.07438601
115	0x3d9ae2ca	0.07562788
116	0x3e8be952	0.27326447
117	0x3d3fb722	0.04680551
118	0xbe205806	-0.15658578
119	0xbd4b01b0	-0.049562156
120	0xbdc4d859	-0.096115775
121	0xbcc76d67	-0.02434416
122	0x3c82bf46	0.015960347
123	0xbded97b3	-0.116012
124	0xbd659029	-0.056045685
125	0x3da0b7e2	0.07847573
126	0x3dd3005c	0.10302803
127	0x3dbe9d4a	0.09307344
128	0xbcada454	-0.021196522
129	0xbdb74b81	-0.08949948
130	0xbe0c0900	-0.13675308
131	0xbd9cb4e9	-0.076516934
132	0xbbc3dc77	-0.005977209
133	0x3d9e7599	0.07737274
134	0x3e83ea38	0.25764632
135	0x3e8f7bae	0.28024048
136	0xbd80dcb4	-0.06292096
137	0xbe125842	-0.1429148
138	0x3d411050	0.047134697
139	0x3d90602d	0.07049594
140	0xbd0fe0af	-0.035126384
141	0x3cae118c	0.021248601
142	0x3cd03b27	0.025418831
143	0x3db1f715	0.08689705
144	0x3e12bcc0	0.14329815
145	0xbe105f29	-0.140988
146	0xbdc90770	-0.09815872
147	0xbd1c177d	-0.038108338
148	0xbd2c5f39	-0.042083
149	0xbd287109	-0.041123424
150	0xbe283bf8	-0.16429126
151	0xbd4961a8	-0.049165398
152	0x3d5b148a	0.053486384
153	0xbbbe5bae	-0.005809269
154	0xbc25aebd	-0.010112462
155	0xbd000c17	-0.03126153
156	0xbdf8bc14	-0.12145248
157	0xbe0f0394	-0.13966209
158	0xbe1a2a90	-0.15055299
159	0xbae5f9a1	-0.0017545709
160	0x3e2877c5	0.16451938
161	0x3e35d432	0.17756727
162	0x3e4c9f71	0.19982697
163	0x3e5d8dd9	0.21636142
164	0x3dad97fa	0.08476253
165	0xbe2295a0	-0.1587739
166	0xbe0827ab	-0.13296382
167	0x3b9e5085	0.004831376
168	0xbc1a7a8e	-0.009428633
169	0xbca2e6f4	-0.019885518
170	0x3c48ef3e	0.012264071
171	0xbd0ad358	-0.03389296
172	0x3c9d8336	0.019227605
173	0xbcbe6ad8	-0.023244306
174	0xbd858928	-0.06520301
175	0x3c9bd031	0.019020172
176	0xbd15bd63	-0.036557566
177	0xbdc4146f	-0.0957421
178	0xbd761590	-0.060079157
179	0xbd1b852a	-0.037968792
180	0xbd54dbf2	-0.05196757
181	0xbe09bc6c	-0.13450783
182	0xbe262938	-0.16226661
183	0xbe21ab8c	-0.15788096
184	0xbec5d560	-0.38639355
185	0xbe99330b	-0.29921755
186	0xbe8e5761	-0.2780104
187	0xbd822a17	-0.06355684
188	0xbc83d769	-0.016093927
189	0x3e1283c9	0.14308085
190	0x3e848d11	0.25888875
191	0x3ec5c2cd	0.38625184
192	0x3e3cf303	0.18452077
193	0xbd9c8be6	-0.07643871
194	0xbe362032	-0.17785719
195	0x3c687e88	0.014190324
196	0xbcc17e7c	-0.023619883
197	0xbd43cb2e	-0.04780119
198	0xbd037840	-0.0320971
199	0xbcbd6072	-0.023117278
200	0x3dafc382	0.08582212
201	0x3d90c95f	0.070696585
202	0xbd03e10e	-0.03219705
203	0x3ced177b	0.02894186
204	0xbc92ddde	-0.01792806
205	0xbd8b541b	-0.06803151
206	0xbd9a6c20	-0.075401545
207	0xbe1dd86a	-0.15414587
208	0xbde6fa7a	-0.11278243
209	0xbde37770	-0.11106765
210	0xbe33922c	-0.17536229
211	0xbe8b5535	-0.27213445
212	0xbed09b86	-0.40743655
213	0xbe8029af	-0.25031802
214	0xbe184f2e	-0.14873955
215	0x3bb0670a	0.005383377
216	0xbbafc157	-0.005363624
217	0xbce01196	-0.027352136
218	0x3cd91bde	0.026502546
219	0x3e433ded	0.19066592
220	0x3d75e1cb	0.060029786
221	0xbe1dd9e8	-0.15415156
222	0xbd6040e8	-0.0547494
223	0xbd1eeff5	-0.03880306
224	0x3d68c0f9	0.056824658
225	0xbd4b1df2	-0.049589105
226	0x3dc58193	0.09643855
227	0x3c988f48	0.01862301
228	0x3c7a604e	0.01528175
229	0xbb85c776	-0.0040826155
230	0xbd9bbc54	-0.0760428
231	0xbc2497f7	-0.010045997
232	0xbd83b1b1	-0.06430376
233	0x3cb25032	0.021766756
234	0xbd3e229d	-0.04641973
235	0xbd2885fb	-0.0411434
236	0x3c172a2f	0.009226366
237	0xbd90ddda	-0.07073565
238	0xbe84fbf3	-0.25973472
239	0xbea94a48	-0.33064485
240	0xbeb080c5	-0.34473243
241	0xbe4c716e	-0.19965145
242	0xbd15f56b	-0.036611002
243	0x3d64be39	0.055845473
244	0xb9da1e18	-0.00041602622
245	0xbd81a5fd	-0.06330488
246	0xbd55c537	-0.05219003
247	0xbc6ec18b	-0.014572511
248	0xbd9f8cdf	-0.07790541
249	0xbde9fa1a	-0.11424656
250	0x3dd47f92	0.103758946
251	0x3e0ca2c9	0.13733973
252	0x3db20166	0.08691673
253	0xbdac91a4	-0.08426216
254	0x3ca9e4fa	0.020739067
255	0xbd56adb3	-0.052411746

fc1.0.bias f4 [64]
0	0xbdb1948f	-0.086709134
1	0xbe4f2bc4	-0.20231539
2	0x3d8a5715	0.06754891
3	0xbe9b3b8f	-0.30318877
4	0x3d1296b2	0.035788245
5	0x3e7455fd	0.23860927
6	0xbde15a54	-0.11003557
7	0x3cc829d6	0.024434011
8	0xbd9c5e3e	-0.07635163
9	0xbe36b4a8	-0.17842352
10	0x3df4e650	0.11957991
11	0x3df79a66	0.12089996
12	0x3ee368df	0.44415948
13	0xbce0b13f	-0.027428268
14	0x3d2fddde	0.0429362
15	0xbde84e79	-0.113430925
16	0x3e035f01	0.1282921
17	0x3cd602c4	0.026124366
18	0xbe6193e7	-0.22029077
19	0x3e206519	0.15663566
20	0xbde19a72	-0.11015786
21	0x3bf5a03e	0.007495909
22	0x3e295eba	0.16540042
23	0xbe080f01	-0.13286974
24	0xbddd9500	-0.10819435
25	0x3e1d1dd8	0.15343416
26	0x3dfcf060	0.123505354
27	0x3e858ef1	0.26085618
28	0x3d55d16a	0.052201666
29	0xbee37354	-0.44423926
30	0x3e091f07	0.13390742
31	0xbd538d52	-0.051648445
32	0x3d62e606	0.05539515
33	0x3e2cc6c3	0.16872697
34	0x3dd5e6df	0.10444426
35	0x3e59fec4	0.21288592
36	0xbd94e955	-0.07271067
37	0x3dbf2c92	0.09334673
38	0xbebc6589	-0.36796215
39	0x3e36b85c	0.17843765
40	0xbd27b163	-0.040940654
41	0xbe0ff890	-0.14059663
42	0xbd4dd6b4	-0.050253585
43	0x3e959dd4	0.29221976
44	0xbdd51620	-0.10404611
45	0x3e45d608	0.19319928
46	0x3e847416	0.25869817
47	0x3ef50d4d	0.4786171
48	0x3d87783c	0.0661473
49	0x3e8727a7	0.2639744
50	0x3e03ecf0	0.12883353
51	0xbd9b51d7	-0.07583969
52	0xbe06e1ad	-0.13172026
53	0x3e45579f	0.19271706
54	0xbd93afbb	-0.07211252
55	0xbe8c579c	-0.2741059
56	0x3e171439	0.14753808
57	0x3e5a0565	0.2129112
58	0xbe329eb6	-0.17443356
59	0x3ea46dd2	0.32115036
60	0xbe639e1d	-0.22228284
61	0xbe00435e	-0.12525699
62	0x3e35b217	0.17743717
63	0x3e9ea603	0.30986032

fc2.0.weight f4 [10, 64]
0	0xbd6e01ef	-0.058107313
1	0x3e63e188	0.22254002
2	0x3e298a4b	0.16556661
3	0xbe1068a7	-0.14102422
4	0x3e2db69d	0.16964193
5	0x3e4faea3	0.20281462
6	0xbe1e16ed	-0.15438433
7	0x3e5a6def	0.21330999
8	0x3e9b569a	0.3033951
9	0x3e2f1005	0.17095955
10	0x3dd93700	0.106061935
11	0xbdcf9cb0	-0.10137308
12	0xbf1beb60	-0.6090603
13	0xbf22ad11	-0.6354533
14	0x3de87780	0.11350918
15	0xbe0f8508	-0.14015591
16	0xbdd1d974	-0.10246554
17	0x3e82ab6e	0.25521415
18	0x3e496830	0.1966865
19	0xbf16508f	-0.5871667
20	0x3e4ec007	0.2019044
21	0x3e4c75ba	0.19966784
22	0xbeec49c8	-0.4615004
23	0xbf09c321	-0.5381337
24	0x3e8f5520	0.27994633
25	0xbea97361	-0.3309584
26	0xbf0cb36b	-0.5496127
27	0xbf2f1dcd	-0.6840485
28	0xbe2988a8	-0.16556036
29	0x3e6eb6c0	0.23311901
30	0xbd25191f	-0.04030716
31	0xbafa45d6	-0.0019094299
32	0x3e58c681	0.21169473
33	0x3d622cbc	0.055218443
34	0xbd839a47	-0.064259104
35	0x3e45e726	0.19326457
36	0xbee3f430	-0.44522238
37	0xbea3c606	-0.31987017
38	0x3e5ec8dd	0.21756311
39	0x3eb0146c	0.3439058
40	0xbc02469a	-0.007951403
41	0x3d17804e	0.036987595
42	0x3e6471c6	0.22309026
43	0x3ebc0f2e	0.3673033
44	0x3e1a425e	0.1506438
45	0xbefca160	-0.4934187
46	0xbe20e3f5	-0.15711959
47	0xbe988a61	-0.29793075
48	0xbf326ad6	-0.6969427
49	0x3d7e3da1	0.062070493
50	0x3e98e961	0.29865554
51	0xbe941370	-0.2892108
52	0x3e635fb6	0.2220448
53	0x3e9042ba	0.28175908
54	0xbe76cb48	-0.24100983
55	0xbc628d4b	-0.013827632
56	0xbe4b5313	-0.19855909
57	0x3dc6fea9	0.09716541
58	0xbdc4817a	-0.09595008
59	0xbf2ba4db	-0.67048424
60	0x3e721036	0.23638996
61	0x3eb2e0c6	0.34937114
62	0xbefcc6cb	-0.49370417
63	0x3ea4a846	0.32159632
64	0x3ec5391a	0.38520128
65	0x3dcb5ccc	0.09929809
66	0xbe74e8bc	-0.23916906
67	0x3e86c61e	0.26323026
68	0xbf5794a6	-0.84211195
69	0x3ea8300b	0.32849154
70	0x3e86b9cc	0.26313627
71	0xbf447e10	-0.76754856
72	0xbf17fd59	-0.5937095
73	0xbe53db41	-0.20689107
74	0xbf2d6277	-0.6772837
75	0xbd9f3551	-0.07773841
76	0x3de7f00a	0.11325081
77	0x3e5512d4	0.20807964
78	0x3e1df204	0.15424353
79	0xbebedb20	-0.37276554
80	0xbf19c939	-0.60072666
81	0x3e2ec2a1	0.17066433
82	0x3d4121ac	0.047151253
83	0x3df1964b	0.11796244
84	0xbccfcb83	-0.025365597
85	0x3e941655	0.28923288
86	0xbed60286	-0.417988
87	0x3e50d63f	0.20394228
88	0xbebe1ad0	-0.3712983
89	0x3e33e2ce	0.17566988
90	0x3e5081d2	0.20362023
91	0x3e89c2b7	0.26906368
92	0xbf19d2a6	-0.6008705
93	0x3d3ef991	0.046624724
94	0xbca7175c	-0.02039688
95	0xbc99d475	-0.018778065
96	0x3e458d32	0.19292143
97	0x3e6420ea	0.2227818
98	0xbf163694	-0.5867703
99	0xbf446e46	-0.76730764
100	0x3e31ad20	0.17351198
101	0xbedc73af	-0.4305701
102	0xbf004c22	-0.5011617
103	0x3e5373d3	0.20649652
104	0xbcdffdf8	-0.027342781
105	0x3f2fb5a7	0.68636554
106	0xbe1b871e	-0.15188262
107	0xbdc92f53	-0.098234795
108	0x3e49eb05	0.19718559
109	0x3e8a2e67	0.26988527
110	0xbf3e0ee8	-0.74241495
111	0x3e0b641f	0.13612412
112	0x3e85bfd7	0.26122925
113	0x3e323380	0.17402458
114	0xbf2e9482	-0.68195355
115	0xbe296e4b	-0.1654598
116	0xbf0a7925	-0.540911
117	0xbeb2f0d7	-0.3494937
118	0x3dff1bde	0.12456487
119	0xbede2dbb	-0.43394265
120	0x3f1cd403	0.61261004
121	0xbf280962	-0.6563932
122	0x3e0d2be0	0.13786268
123	0x3e2d7b7a	0.16941634
124	0xbece1074	-0.40246928
125	0x3e368468	0.17823946
126	0xbe35f15c	-0.17767853
127	0x3e67cf54	0.22637683
128	0xbe87e939	-0.26545122
129	0x3e81bc42	0.25338942
130	0x3cfd555b	0.03092449
131	0x3e800181	0.25001147
132	0xbe15bdd3	-0.14623193
133	0xbe0599ca	-0.13046947
134	0xbe3393ee	-0.175369
135	0xbe683d9e	-0.22679755
136	0x3c70e370	0.014702663
137	0x3eae7924	0.34076798
138	0xbe4509c5	-0.19242008
139	0x3e7feb22	0.2499204
140	0x3e49da75	0.19712241
141	0x3e7d5ff4	0.24743634
142	0x3df4626d	0.11932836
143	0xbdc21cf0	-0.09478176
144	0xbdc2c4c9	-0.0951019
145	0xbf2e8733	-0.6817505
146	0x3e36da2c	0.17856663
147	0x3b88e95e	0.00417821
148	0x3ee8d4b7	0.4547479
149	0x3df7ac29	0.12093384
150	0xbf26489e	-0.64954555
151	0xbdbe14f3	-0.092813395
152	0x3e651076	0.2236956
153	0xbd93dd67	-0.072199635
154	0x3e6b5e8c	0.22985286
155	0x3e3c0bc8	0.18363869
156	0x3ec874bf	0.3915157
157	0x3e318b69	0.17338337
158	0x3f10e14a	0.56593764
159	0xbdac12eb	-0.08402046
160	0x3d24759d	0.040151227
161	0xbf4a5c07	-0.7904667
162	0x3efd1c7e	0.494358
163	0xbd11eee2	-0.035628207
164	0x3e4d4eda	0.2004961
165	0x3eb2c593	0.34916362
166	0xbd9c7ce3	-0.07641008
167	0xbf05078c	-0.5196464
168	0xbd4f3fc7	-0.050597932
169	0x3dab9215	0.08377472
170	0x3ebb242d	0.36551037
171	0x3e7a24dc	0.24428123
172	0x3db6bfa8	0.08923274
173	0x3e030d65	0.12798078
174	0xbf186e92	-0.59543717
175	0xbf744b48	-0.9542737
176	0x3e30eb49	0.17277254
177	0x3e07d893	0.1326621
178	0x3e7cad97	0.24675594
179	0x3e9941d6	0.2993304
180	0x3e87a3a4	0.26492035
181	0xbf1983a5	-0.599665
182	0xbedb2954	-0.42804968
183	0xbd569a8b	-0.052393477
184	0xbd9f259d	-0.07770846
185	0xbedc3397	-0.4300811
186	0x3e740806	0.23831186
187	0x3e745178	0.23859203
188	0x3e7f49b9	0.24930467
189	0x3e145f0c	0.14489383
190	0xbf1802d0	-0.5937929
191	0xbeafca5c	-0.34334075
192	0xbd3787dc	-0.0448073
193	0x3d3d0b9c	0.04615365
194	0xbe0b3c67	-0.1359726
195	0xbd949831	-0.07255591
196	0xbd468648	-0.048467904
197	0x3da88160	0.08227801
198	0xbb679427	-0.0035336108
199	0x3d9f6810	0.0778352
200	0xbd353ddb	-0.044248443
201	0x3d4fc5b6	0.05072566
202	0xbd5883bb	-0.052860003
203	0x3c6e40da	0.014541829
204	0xbdec40a4	-0.11535767
205	0xbc0b68b1	-0.008508847
206	0x3ba45a40	0.0050156415
207	0x3da0419a	0.078250125
208	0xbde0ab81	-0.10970212
209	0xbdce1d99	-0.10064239
210	0xbd3ede6f	-0.046598848
211	0xbcd7b4fc	-0.026331417
212	0xbda122a0	-0.07867932
213	0xbd26ad1e	-0.04069244
214	0x3d80a555	0.062815346
215	0xbe15da61	-0.14634086
216	0xbd09271a	-0.033484556
217	0x3cc95437	0.02457629
218	0x3d8e2aea	0.06941779
219	0x3d599d50	0.05312854
220	0xbdca33bf	-0.09873151
221	0xbe083ad4	-0.13303691
222	0x3bb0fe5c	0.0054014158
223	0xbd7bb0dd	-0.061447967
224	0x3c967536	0.018366437
225	0xbe304e09	-0.17217268
226	0x3c624a1d	0.013811615
227	0xbdbc1eb3	-0.09185543
228	0x3c925c5a	0.017866302
229	0xbda2c157	-0.07947033
230	0x3d9d6a82	0.076863304
231	0x3d0a02d8	0.03369412
232	0x3d4c04b5	0.049809176
233	0xbde91fd6	-0.11383025
234	0x3b100cfc	0.0021980396
235	0x3c8459a8	0.016156033
236	0xbe1424e6	-0.144672
237	0xbdcc25b0	-0.09968126
238	0xbdf34138	-0.11877674
239	0x3ce445e6	0.027865361
240	0xbdd72d6e	-0.10506712
241	0x3b726db7	0.0036991665
242	0xbc326742	-0.010888876
243	0xbda8037b	-0.08203789
244	0xbe017594	-0.12642509
245	0xbc1dd851	-0.009634093
246	0xbca6dce0	-0.020368993
247	0x3ccbc8f6	0.0248761
248	0x3d6b02dd	0.057375778
249	0xbd32ecba	-0.04368279
250	0xbd88b3e0	-0.066749334
251	0xbd4bd4e8	-0.04976359
252	0xbda30290	-0.07959473
253	0xbd96d2e0	-0.0736444
254	0xbc91e741	-0.017810466
255	0xbdf732df	-0.1207025

fc2.0.bias f4 [10]
0	0xbd2ab9d9	-0.041681144
1	0x3e2d1462	0.16902307
2	0x3e545794	0.20736533
3	0xbdeb1df9	-0.11480326
4	0x3e60d30f	0.21955512
5	0x3ed3c327	0.41359827
6	0x3d9e4147	0.077272944
7	0x3d289989	0.041162048
8	0xbee15db8	-0.44016814
9	0x3e3809c6	0.17972478
