callbacks/05-23-2022_08-54-19/models/epoch_6.pt (torch, 205087 bytes, 4 tensors)

fc1.0.weight f4 [64, 784]
00000000: 1e51 843c 9c65 d2bb 0dc3 0b3d bc6e 763c
00000010: 70ea e13b a054 993a 00f7 ea39 d06e a5bc
00000020: 0238 d83c 3c96 08bd 80de 4fbc 4e58 ae3c
00000030: f96a 933d 409a e33d e018 3f3c 20e4 273b
00000040: 327f 45bc 3891 e2bb b8e2 223c 74e6 513c
00000050: 1ced a0bc 3ca9 9dbc 237d 9abc dc97 4b3c
00000060: 6da4 0f3d f838 b13b 2633 db3c 78fc 0ebd
00000070: c8fe bb3c d04e 07bb dac8 f03c 440a 07bd
00000080: 7c66 143d 5811 1b3d 4c1f bc3d fc6e b53d
00000090: 9da6 a5bc 09a2 163b bd1d 613c f536 853d
000000a0: fa9a 1e3e 75a3 1c3e 9cf1 cf3d 52ee 423d
000000b0: 2da0 343c 0291 d13d 8327 263e 6758 1e3e
000000c0: ca9b 063e 5dae 1f3e 245d bc3d 94d4 923d
000000d0: e35b 8cbc 705e b5bc 6e13 a73c 28a4 633c
000000e0: bc6f a43c f326 0e3d 0927 3bbc 41cf 89bd
000000f0: 4199 03bb 7e9e 1b3d e83b ed3d 57bc 913c
00000100: 539b 0dbd 45d3 e83c 9e9f 973d fbb2 153e
00000110: 124d 2f3e 0730 013e a8b8 e63d 81a8 213e
00000120: 30ea c53d fc69 333d b956 303d dd84 c93d
00000130: 7c82 1b3d 29bd 673d e970 143e 5d2f 3e3e
00000140: 9620 fabc 6e35 b1bd ae52 d83c 58d0 103c
00000150: 63cb 0c3d a5dc febc ba32 803d 46c6 933c
00000160: a0af 023e 4091 2e3d 330a b7bd f589 8f3d
00000170: 6630 e4bb c145 723c be2d f33b 7d4c 75bd
00000180: 0110 e6bd b40f 6cbd fe38 4dbd 663a 27bd
00000190: 228f 54be 2366 1dbe db70 10be c12c 2bbe
000001a0: 7a42 31be 5a96 803c d9d0 103e 1d5d 5b3e
000001b0: 2d26 083d 33d3 ebbd 9e26 01be 007e 113a
000001c0: 6e7b 70bc 4e53 563b 40a8 da3d 9d58 c03d
000001d0: e95c 8c3e f74b 353d a6f1 1abe 8787 8fbd
000001e0: fec3 22be 803a 99bd 14c4 86bb 6db0 efbd
000001f0: 3d43 fcbc 24a4 f23d cf5c 2e3e 9948 073e
00000200: df77 0cbd b303 12be 5cf7 59be 65f2 fabd
00000210: 7b38 aebb 6a29 be3d 5e74 813e 3322 993e
00000220: c857 acbd 5195 3abe 7c9a 223d 160d 913d
00000230: afe0 0fbd 8c11 ae3c 89b1 5b3d 5655 cb3d
00000240: 2dd6 fe3d 9633 3bbe a543 d8bd cccd 9fbd
00000250: 96a4 b0bd 818e 88bd d95e 2ebe f335 2cbd
00000260: 1178 a63d 9a64 c53c bcb4 8a3a 67ad 09bd
00000270: 6e30 1dbe b8a2 30be b88f 2fbe f6e4 f6ba
00000280: 9774 303e 02f2 323e 92e0 413e 85cf 573e
00000290: 260d f13d 9240 52be 5ae7 05be 60ca b03c
000002a0: 8e7a 1abc f4e6 a2bc a26b 543c 837b 83bd
000002b0: d184 96bc 426e 86bd 5151 aebd 4f4e d23a
000002c0: 6a3b 6cbd 9347 cfbd de45 26bd 1930 05bd
000002d0: 61ea 5dbd c89f 12be 455b 35be eb09 45be
000002e0: 06b7 e8be 397a bebe 585d 90be 1663 e9bc
000002f0: 1c03 b6bb 5b73 f13d 4499 6b3e 679a c83e
00000300: f29d 6f3e 4868 07bd 8a09 2abe f39c b2bb
00000310: 7c7e c1bc 9412 52bd b48a 00bd 1019 99bd
00000320: 4150 083d 872b 733c 8e29 acbd c237 223d
00000330: aea3 543c 0c3a 1cbd 8055 a0bd d7dc 22be
00000340: e375 02be ec75 e4bd b26d 3cbe dd72 9cbe
00000350: c875 edbe 810e 94be b202 f0bd 29c6 9f3d
00000360: cb57 933c 1d1d 3cbd dc30 c33c 08df 563e
00000370: 5779 073e f681 19be 42b2 7dbd edc1 77bd
00000380: f9c0 683d e730 4dbd a797 c63d b02b 03bd
00000390: 1e69 e1bc bf6a 77bd ea14 cabd 8683 1a3d
000003a0: e2b0 c9bc 7817 073d ee2e 8ebd c6b0 57bd
000003b0: beab 0f3d 67d7 72bd c03c 8dbe dae9 b7be
000003c0: 3c59 d7be f430 79be 8b77 f1bc 4f5c ae3d
000003d0: 972f a03c 30c3 80bd c67e 89bd dda6 02bb
000003e0: 3256 98bc a991 e4bd 4748 b93d fc42 0c3e
000003f0: d66f b23d 4de3 ecbd f63b 863c 5f9b bbbd
0.016151961 -0.006420804 0.03412156 0.01504105 0.006894402 0.0011698194 0.00044815987 -0.020194441
0.026393894 -0.0333464 -0.0126873255 0.021282341 0.07198138 0.11113405 0.0116636455 0.002561815
-0.0120542515 -0.006914284 0.009941749 0.012811292 -0.019644313 -0.019245736 -0.018858498 0.012426343
0.035068918 0.0054084025 0.026757788 -0.03490874 0.022948638 -0.002064634 0.029392648 -0.032968774
0.03623055 0.037858337 0.09185657 0.08859059 -0.020221049 0.0022984764 0.01374 0.06504623
0.15488806 0.15296729 0.10153505 0.04759056 0.011024517 0.10232736 0.1622601 0.1546341
0.13145366 0.15593858 0.09197453 0.07169452 -0.017133659 -0.022139758 0.020395007 0.013894118
0.02007281 0.034705114 -0.011422881 -0.06728984 -0.002008036 0.037992947 0.11583692 0.017790003
-0.034571957 0.028421054 0.074034914 0.14619057 0.17119244 0.12615977 0.11265689 0.15786935
0.09663808 0.043802246 0.043051455 0.09839795 0.037966236 0.05657688 0.14496197 0.18572755
-0.030533116 -0.08652769 0.026406612 0.0088387355 0.034373652 -0.03111107 0.06259675 0.01803888
0.12762308 0.04261899 -0.08937492 0.07008735 -0.0069637774 0.014787138 0.0074212244 -0.059887398
-0.11233521 -0.057632163 -0.05010318 -0.040827177 -0.20757726 -0.15370993 -0.14105551 -0.16716291
-0.17310515 0.015696693 0.14142169 0.21422239 0.033239532 -0.115148924 -0.12612388 0.00055500865
-0.014677865 0.0032703462 0.106766224 0.09391902 0.27414635 0.0442619 -0.15131244 -0.07008272
-0.15895078 -0.07481861 -0.00411273 -0.117035724 -0.03079378 0.118477136 0.17027591 0.13211288
-0.034294005 -0.14259224 -0.21285766 -0.12253264 -0.0053167916 0.09285243 0.25284094 0.29908904
-0.084151804 -0.18221022 0.03969811 0.07082574 -0.035126384 0.021248601 0.053636108 0.09928386
0.124431945 -0.18281397 -0.10559777 -0.078029245 -0.08625142 -0.066678055 -0.17028369 -0.042043637
0.081283696 0.024095822 0.0010582427 -0.033612635 -0.15350506 -0.17249572 -0.17144668 -0.0018836546
0.17231975 0.17475131 0.18933323 0.21075256 0.11770086 -0.20532444 -0.13076535 0.021580875
-0.009428633 -0.019885518 0.012965115 -0.06420042 -0.018373879 -0.06563999 -0.085116036 0.0016045066
-0.05767385 -0.101210736 -0.040593974 -0.032516573 -0.0541786 -0.14318764 -0.17710598 -0.19242065
-0.45452136 -0.37202623 -0.28196216 -0.02848963 -0.00555457 0.117895804 0.23007685 0.391803
0.23400095 -0.033058435 -0.16605201 -0.0054508387 -0.023619883 -0.05128725 -0.031382278 -0.074754834
0.03327966 0.014841921 -0.084063634 0.039603956 0.012978477 -0.038141295 -0.07828808 -0.15904556
-0.12740283 -0.11155304 -0.1840122 -0.30556384 -0.46378922 -0.28917316 -0.11719264 0.07801468
0.017986199 -0.045926202 0.023827009 0.20983517 0.13229881 -0.14990982 -0.061937578 -0.060487676
0.056824658 -0.050095465 0.09696894 -0.032024086 -0.027515944 -0.060404535 -0.0986727 0.037723087
-0.024620477 0.032981366 -0.06942545 -0.05265882 0.035075895 -0.059287455 -0.2758541 -0.35920602
-0.42060268 -0.2433508 -0.029475948 0.085137 0.019553943 -0.06287229 -0.06713633 -0.0019935884
-0.018595789 -0.11160595 0.09046989 0.13697428 0.08712737 -0.11566792 0.016386013 -0.09160494

fc1.0.bias f4 [64]
00000000: f76c c0bd ee55 4ebe dd2d 8c3d 32d2 a8be
00000010: fe8c 533d e2a5 863e 010d f5bd d469 6e3c
00000020: d70a cabd fb97 36be 5229 193e 13f3 e53d
00000030: f12d f63e 26ed 3bbd 5f86 1f3d 496c eabd
00000040: 4895 e13d 162d 2d3d 1442 7fbe 160d 2f3e
00000050: fb20 edbd cc71 f7bb b3e5 343e c209 1ebe
00000060: 4bf3 07be 6e90 143e 9313 023e 0180 853e
00000070: 6573 913d 997a f7be 08f8 293e 28e2 2fbc
00000080: 2f1b 2d3c 9d7c 1f3e 2df5 023e 928e 4b3e
00000090: bd38 c3bd 311d 993d e268 cfbe a78d 383e
000000a0: a0ad 27bd 00ca 0dbe 9b10 7dbd e6ee 9e3e
000000b0: d3c2 dfbd b285 3e3e c501 7d3e 2402 003f
000000c0: 16d2 7e3d 0eea 9f3e 68ef cf3d 249e cdbd
000000d0: 07dd 16be 40d7 4f3e 6f3a 80bd 87ff 90be
000000e0: 55b3 203e a4e5 643e 0595 5dbe 5861 ae3e
000000f0: 3698 63be e614 01be 2de1 273e d826 a73e
-0.093957834 -0.20149967 0.06844685 -0.32972866 0.051648133 0.26298434 -0.11965371 0.014551599
-0.09865349 -0.17831413 0.14957169 0.11228003 0.48081926 -0.04588046 0.038946506 -0.11446435
0.11014801 0.042279325 -0.2492755 0.17094836 -0.11578556 -0.0075514074 0.17665748 -0.1543341
-0.13276403 0.1450822 0.1270278 0.26074222 0.07102088 -0.48335722 0.16598523 -0.010735072
0.010565563 0.1557488 0.1278884 0.19878605 -0.09532306 0.07476271 -0.40509707 0.18022786
-0.040937066 -0.13846588 -0.061783414 0.3104164 -0.10925832 0.18605688 0.24707706 0.50003266
0.062212072 0.31233257 0.10153085 -0.100399286 -0.14732753 0.20296955 -0.06261145 -0.28319952
0.1569341 0.22353226 -0.21638878 0.34058642 -0.22226033 -0.12605628 0.16394491 0.32646823

fc2.0.weight f4 [10, 64]
00000000: 6f1b 7bbd 5274 533e cf5c 2c3e 3a31 ddbd
00000010: e8f4 553e 6dcd 593e ef4f f7bd 561f 763e
00000020: 0dc5 a43e a495 fe3d d87a 003e d759 dabd
00000030: 04b6 29bf 77c6 34bf 6573 103e f826 cdbd
00000040: 0dcc 97bd 72d3 8e3e 5913 703e 93c6 1dbf
00000050: b6b6 573e 81ef 683e 44ff ebbe a543 0fbf
00000060: d0d8 943e 44d3 d2be 6a8d 1dbf 0eed 3fbf
00000070: 4e71 0fbe 8654 6d3e a90d d33c 8cf2 173e
00000080: b844 6a3e 89a3 a93d fd45 26bd 437b 673e
00000090: cda0 e4be d046 bcbe 6fa1 5f3e f799 ba3e
000000a0: 9a46 02bc ded3 883d 03f9 703e e3ea c53e
000000b0: fbfd 143e 0c80 08bf 61c9 19be f70c 7bbe
000000c0: f337 41bf 7da1 e63d 6e05 973e cfe7 a5be
000000d0: 8596 683e 3fd9 943e abf2 6ebe 06ca 383c
000000e0: 14d4 6abe 4320 e33d 3879 70bd 0f2c 49bf
000000f0: 7661 7e3e 2df1 c03e 001c fcbe 68f8 9e3e
00000100: 9437 c23e ce83 1b3e 659a 9ebe f258 853e
00000110: bfdf 6abf d838 a63e 3092 8d3e d692 48bf
00000120: 638e 23bf a071 3cbe 65be 3fbf ad18 8dbd
00000130: 1640 2c3e 5a5f 653e 1621 213e cf27 c7be
00000140: 429b 21bf 0f1d 323e 8e1b 9b3d 06ab db3d
00000150: d889 0d3b f86e 8b3e daa7 0cbf de49 623e
00000160: 7fce b1be 709e 3c3e c729 743e 141d 9f3e
00000170: ebae 25bf 94f3 573d 8478 4bbd 6069 52bd
00000180: b161 373e ed4b 6f3e 2993 22bf 3076 4fbf
00000190: d840 323e 1930 e0be f33d 0dbf 3279 513e
000001a0: f8fd dfbc a083 323f d187 17be 7d94 113c
000001b0: f5b2 4e3e 67a4 973e 7130 4cbf 0e75 ed3d
000001c0: 521d 963e 686d 1c3e f48e 3cbf 8363 22be
000001d0: 6d26 0dbf 8ad0 abbe f711 da3d e6c0 e5be
000001e0: c675 313f a7cb 33bf d9f8 1e3e e5f9 543e
000001f0: 492f cabe ae8d 4f3e 5eef 4abe 1841 b03e
00000200: 4b8e 92be 97e1 6c3e a9ac e73c c55d 8d3e
00000210: c43f ebbd 3547 37be 2ec0 40be 8ac3 77be
00000220: 7d76 333d a278 b13e c3c7 52be 0da4 783e
00000230: 2867 7e3e a927 873e fc2d f33d ca49 eebd
00000240: 8a06 98bd b79e 3cbf 0a55 2f3e f931 053c
00000250: 4059 e33e 5b8f 093e 7ddb 33bf 2733 6abd
00000260: ba01 623e a637 3dbd 43d6 7c3e 9e8a 1a3e
00000270: c7be e43e c1d2 3d3e e102 1b3f f890 4ebe
00000280: fe40 223d 4c66 5bbf 7a1d 073f 551b 4cbd
00000290: 2afb 4e3e 0d73 db3e e84f 41bd e8ae 0dbf
000002a0: c73f 4fbd 94d1 4c3d 89b2 cb3e a70d 953e
000002b0: 7eea c63d 4ed9 363e 41da 33bf 8fbb 81bf
000002c0: 831e 383e 6bd2 063e 022c 9b3e 10f4 8f3e
000002d0: cae5 813e b553 1fbf 8575 dfbe bf5b 4dbd
000002e0: ea66 b9bd c344 e9be dfe2 843e 3cc1 7a3e
000002f0: 8878 6f3e dbdf 123e 7935 1ebf 77fc b7be
00000300: 5d6b 9cbd c9e3 3c3d 8b45 0bbe 3198 94bd
00000310: ab4f a4bd 8eca 4f3d 2794 67bb d525 423d
00000320: 73a2 95bd b6c5 4f3d bb83 58bd ec07 8cbc
00000330: a440 ecbd b168 0bbc 58f3 ccbc a3bc 3f3d
00000340: 0faf e0bd bb3f 06be eba0 9cbd ca43 6cbd
00000350: a022 a1bd 6fee 92bd efad 283d 61da 15be
00000360: 1a27 09bd 54d5 a0bb 5ea6 1b3d 509d 593d
00000370: bf33 cabd ad54 08be 8294 ae3b ddb0 7bbd
00000380: 3675 963c 094e 30be c209 92bc c0f5 fcbd
00000390: 4a76 62bc 57c1 a2bd ed66 3b3d cf44 f73a
000003a0: b504 4c3d d61f e9bd fc0c 103b a859 843c
000003b0: e624 14be b025 ccbd 3841 f3bd 2ff4 7cbb
000003c0: 6e2d d7bd ced2 e2bc 4267 32bc 7b03 a8bd
000003d0: 90b9 21be 65db afbc 240e 55bd f4da b7bb
000003e0: dd02 6b3d 062f 33bd d413 c8bd e8d4 4bbd
000003f0: 9002 a3bd e0d2 96bd dc39 4abd df32 f7bd
-0.06130546 0.20649841 0.16832279 -0.10800405 0.20894206 0.2126977 -0.12075793 0.24035391
0.32181588 0.124308854 0.12546861 -0.10661667 -0.6629336 -0.70615333 0.1410652 -0.10017198
-0.074119665 0.27895695 0.2344488 -0.61631125 0.21065792 0.22747613 -0.4609319 -0.5596259
0.29071665 -0.41176808 -0.61543906 -0.7497109 -0.14008066 0.23176774 0.02576335 0.14838618
0.22877777 0.08283145 -0.04059409 0.22605614 -0.4465393 -0.36772776 0.21838926 0.3644559
-0.007951403 0.066810355 0.2353249 0.38655767 0.14550011 -0.53320384 -0.15018226 -0.24516664
-0.75475997 0.1126127 0.2949633 -0.32403418 0.22713669 0.29071996 -0.23334758 0.011278635
-0.22932464 0.11090138 -0.058709353 -0.78582853 0.24841866 0.37684003 -0.49240112 0.31048894
0.37933028 0.15186998 -0.3097717 0.26044422 -0.9174766 0.32465243 0.27650595 -0.78349054
-0.6388914 -0.1840272 -0.74899894 -0.06889472 0.16821322 0.22399655 0.15735278 -0.3889756
-0.6312753 0.17393897 0.07573615 0.107259795 0.0021597054 0.272331 -0.5494362 0.2209849
-0.34727857 0.18419814 0.23844062 0.31076872 -0.6472003 0.05272253 -0.04967548 -0.051370025
0.1790836 0.23368807 -0.635058 -0.81039715 0.17407548 -0.43786696 -0.5517265 0.20456389
-0.027342781 0.69732094 -0.14797904 0.0088855 0.20185454 0.29617617 -0.79761416 0.11594592
0.29319245 0.1527611 -0.7365563 -0.15858273 -0.5513676 -0.3355754 0.10647958 -0.44873732
0.69320333 -0.70232624 0.15524615 0.20798452 -0.394892 0.2026889 -0.19817874 0.34424663
-0.28624186 0.2313293 0.028280573 0.27610603 -0.11486772 -0.17898257 -0.1882331 -0.24195686
0.04381417 0.34662348 -0.20584016 0.2428133 0.24844038 0.26397446 0.11874005 -0.11635168
-0.07423122 -0.7367968 0.17122284 0.00812959 0.4440403 0.13433592 -0.7025679 -0.05717769
0.22070971 -0.04619565 0.2469111 0.15091941 0.44676802 0.18537427 0.6055127 -0.20172489
0.039612763 -0.8570297 0.5277935 -0.049830753 0.20212999 0.42861214 -0.047195345 -0.5534501
-0.050597932 0.050004557 0.3978465 0.29111978 0.097126946 0.17856333 -0.70254904 -1.0135363
0.1798039 0.13166206 0.30307013 0.28115892 0.25370628 -0.622371 -0.43644348 -0.050136324
-0.090528324 -0.45560274 0.2595434 0.24487776 0.23385823 0.14343207 -0.6180034 -0.35934803
-0.076376654 0.04611567 -0.13600747 -0.07255591 -0.08023008 0.05073028 -0.0035336108 0.04739936
-0.07306375 0.05072566 -0.052860003 -0.017093621 -0.11535767 -0.008508847 -0.02501838 0.046810757
-0.1097089 -0.13110249 -0.0764788 -0.057681836 -0.07867932 -0.07174384 0.0411815 -0.14634086
-0.033484556 -0.004908243 0.038000457 0.05312854 -0.09873151 -0.13313551 0.005327762 -0.061447967
0.018366437 -0.17217268 -0.017826919 -0.123515606 -0.013822148 -0.07947033 0.045752455 0.0018865111
0.049809176 -0.11383025 0.0021980396 0.016156033 -0.144672 -0.09968126 -0.11877674 -0.0038597693
-0.10506712 -0.02768841 -0.010888876 -0.08203789 -0.15793443 -0.02146692 -0.05201544 -0.005610818
0.057375778 -0.043746017 -0.09769407 -0.04976359 -0.07959473 -0.0736444 -0.049371585 -0.1207025

fc2.0.bias f4 [10]
00000000: 490f 15bd ed72 413e 7914 4d3e 94c7 0dbe
00000010: 8532 833e 4f43 dc3e 5caf 833d 4434 9a3c
00000020: e163 e7be 773d 3e3e
-0.03639153 0.18891497 0.20027341 -0.13845664 0.2562448 0.43020102 0.064299315 0.01882375
-0.4519339 0.18578134
