pretrained_model/05-22-2022_19-21-00/model/epoch_5.pt (torch, 205087 bytes, 4 tensors)

fc1.1.weight f4 [64, 784]
0.016673509 -0.014614439 0.011395089 -0.0072994493 0.014221102 0.025096405 0.0024850368 0.031456795
-0.03232002 0.019248415 0.017149284 -0.026821708 0.020997494 0.0175865 -0.03867771 0.028010637
-0.021281447 -0.035013095 0.025410254 -0.015961815 0.034495648 -0.028751664 0.007921364 -0.011802243
0.03121904 0.027829658 0.033992436 0.0030657537 0.0047951452 -0.011000937 -0.023064112 0.005828429
0.033285815 0.05963356 0.11353908 0.13262683 0.11063076 0.1428121 0.12462731 0.13831326
0.18270595 0.15435517 -0.09704737 -0.09467309 -0.03306991 0.13065273 0.12815458 0.15078703
0.17757356 0.1356264 0.17844357 0.19785893 -0.014366308 0.013470501 0.010393608 0.026651766
0.012495585 0.017187983 0.025913265 0.07885373 0.15324537 0.078380086 0.14026931 0.20282589
0.22523223 0.29162246 0.28676105 0.32280746 0.33083227 0.4191996 0.14029633 -0.034106243
0.017717676 0.186917 0.31039464 0.35316458 0.29960927 0.18866786 0.16842532 0.25279072
0.041233897 -0.10029156 0.032718513 0.010856204 -0.02542796 0.029089663 -0.083898485 0.072741576
0.12436697 0.042722583 0.22269711 0.29869547 0.24719903 0.15197645 0.25780582 0.3484647
0.16445418 0.2589413 0.22341335 0.14461438 0.17156959 0.17508906 0.20670326 0.14239158
0.13686843 0.05103995 0.16913755 0.3496975 0.21897893 -0.050854966 -0.032777976 0.011687063
-0.0017708205 -0.0021800199 -0.0946757 -0.1659174 -0.105177656 -0.09629377 0.028637668 0.117991515
0.10279121 0.083295904 0.13765463 0.15932833 0.12047294 0.12535311 0.052576225 0.044765063
0.12232962 0.24785975 0.18144807 0.14610045 0.023119938 0.048871014 0.003815623 0.12020379
0.043558095 0.16774164 0.17543645 0.15081044 -0.03410922 -0.012338912 -0.067189224 -0.08332984
-0.16092564 -0.10562642 0.0438927 0.07000881 0.24673815 0.190575 0.18281092 0.09371477
0.049641266 0.039900646 0.09261171 0.030224843 0.13048476 0.25138018 0.117667034 0.13793641
0.061174404 0.025520438 -0.025707085 -0.0029427616 -0.0031104463 0.357322 0.35107133 0.06976071
-0.024008267 -0.0053998875 0.1446624 -0.15585068 -0.16338712 0.022945553 0.024547812 0.072270975
0.036575925 0.045214035 -0.0045099864 -0.043041937 -0.04963587 -0.05574745 -0.07039429 -0.0138983885
-0.07547615 -0.09828084 -0.13397032 0.0032091197 -0.047117654 -0.21103463 -0.08058428 0.010227051
0.3350575 0.40701377 0.19042303 0.088501714 -0.00459861 -0.061691955 0.06800944 -0.19126037
-0.1843694 -0.0164777 0.08948803 0.027641542 0.04430028 -0.035199188 -0.015505502 -0.017732516
-0.0724654 -0.09417693 -0.054782603 -0.052075863 -0.16889319 -0.27725303 -0.19541496 -0.10135576
-0.22109608 -0.09365815 -0.17170946 0.045533042 0.46656236 0.4190907 0.16677219 0.103036
0.05641085 0.0042770538 -0.02344283 -0.19091187 -0.24275354 0.004114888 -0.024505438 -0.10182457
0.024234127 0.022329872 -0.09784344 -0.037566226 -0.015161701 -0.124619946 -0.17407292 -0.11249204
-0.10697302 -0.23625337 -0.19473961 -0.08250166 -0.11433673 0.017102448 -0.09192419 0.14160757
0.4002621 0.41843212 0.22086088 0.1458857 0.014650278 -0.14778914 -0.09382201 -0.09997798
00000000: e296 883c 6671 6fbc 78b2 3a3c 3830 efbb
00000010: a0ff 683c fa96 cd3c 00dc 223b d7d8 003d
00000020: ff61 04bd daae 9d3c a87c 8c3c 33b9 dbbc
00000030: f002 ac3c 9011 903c 856c 1ebd 9076 e53c
00000040: 6e56 aebc e469 0fbd 2a29 d03c 5ac2 82bc
00000050: 4f4b 0d3d 9c88 ebbc 9cc8 013c 325e 41bc
00000060: 12bf ff3c 06fb e33c a73b 0b3d d0ea 483b
00000070: 9820 9d3b 463d 34bc f3f0 bcbc 68fc be3b
00000080: b556 083d 5242 743d 2d87 e83d 54cf 073e
00000090: 6192 e23d 563d 123e 9a3c ff3d fea1 0d3e
000000a0: 4517 3b3e 480f 1e3e c6c0 c6bd f7e3 c1bd
000000b0: 5074 07bd d4c9 053e f43a 033e ea67 1a3e
000000c0: d8d5 353e a6e1 0a3e e9b9 363e 889b 4a3e
000000d0: aa60 6bbc 60b3 5c3c f449 2a3c ce54 da3c
000000e0: 48ba 4c3c d0cd 8c3c 0e48 d43c 107e a13d
000000f0: 5bec 1c3e bd85 a03d c2a2 0f3e 97b1 4f3e
00000100: 47a3 663e 8a4f 953e 58d2 923e 0547 a53e
00000110: d962 a93e 54a1 d63e d7a9 0f3e fdb2 0bbd
00000120: a924 913c 2c67 3f3e 0cec 9e3e fdd1 b43e
00000130: 6366 993e 2632 413e b077 2c3e c96d 813e
00000140: e0e4 283d a965 cdbd d903 063d 38de 313c
00000150: 4c4e d0bc 724d ee3c f8d2 abbd 89f9 943d
00000160: 1cb4 fe3d e0fd 2e3d b60a 643e 9dee 983e
00000170: be21 7d3e b79f 1b3e 20ff 833e f769 b23e
00000180: ad66 283e f493 843e 78c6 643e cb15 143e
00000190: f0af 2f3e 8c4a 333e 05aa 533e 19cf 113e
000001a0: 3d27 0c3e 440f 513d 6532 2d3e 8d0b b33e
000001b0: 033c 603e 4c4d 50bd 3342 06bd 187b 3f3c
000001c0: e01a e8ba aade 0ebb 55e5 c1bd 40e6 29be
000001d0: 6267 d7bd ab35 c5bd 8b99 ea3c 89a5 f13d
000001e0: 3384 d23d 0b97 aa3d 56f5 0c3e f726 233e
000001f0: 84ba f63d 915c 003e 2b5a 573d 925b 373d
00000200: f487 fa3d f2ce 7d3e 86cd 393e 5b9b 153e
00000210: 0666 bd3c f92c 483d 880f 7a3b 682d f63d
00000220: f969 323d 77c4 2b3e 9da5 333e 0d6e 1a3e
00000230: 1cb6 0bbd 2629 4abc 819a 89bd d6a8 aabd
00000240: b1c9 24be aa52 d8bd d5c8 333d c760 8f3d
00000250: eda8 7c3e 1826 433e c932 3b3e 88ed bf3d
00000260: a454 4b3d dc6e 233d 35ab bd3d 179a f73c
00000270: cc9d 053e e7b4 803e 6afb f03d 343f 0d3e
00000280: 0392 7a3d 3d10 d13c aa97 d2bc 59db 40bb
00000290: a1d8 4bbb e9f2 b63e 9fbf b33e b4de 8e3d
000002a0: fcac c4bc 8af1 b0bb 6122 143e 5297 1fbe
000002b0: f44e 27be 50f8 bb3c 7e18 c93c ce02 943d
000002c0: a3d0 153d 5a32 393d 82c8 93bb be4c 30bd
000002d0: fb4e 4bbd 7057 64bd e22a 90bd 11b6 63bc
000002e0: 3d93 9abd 7747 c9bd 842f 09be 1850 523b
000002f0: 71fe 40bd 7619 58be 5f09 a5bd 5c8f 273c
00000300: a88c ab3e 1c64 d03e 41fe 423e 6340 b53d
00000310: f0af 96bb b4b0 7cbd 8948 8b3d c2d9 43be
00000320: 55cb 3cbe 3efc 86bc 8045 b73d 8470 e23c
00000330: 3674 353d 062d 10bd ca0a 7ebc c843 91bc
00000340: bd68 94bd d6df c0bd b963 60bd 804d 55bd
00000350: 56f2 2cbe 1cf4 8dbe dc1a 48be 9c93 cfbd
00000360: 0367 62be d8cf bfbd 9bd4 2fbe db80 3a3d
00000370: 43e1 ee3e 0e93 d63e 54c6 2a3e 8a04 d33d
00000380: 100f 673d 8726 8c3b 2e0b c0bc 677e 43be
00000390: 6294 78be 2fd6 863b a1bf c8bc 6689 d0bd
000003a0: a686 c63c 23ed b63c 2462 c8bd 0bdf 19bd
000003b0: c868 78bc be38 ffbd 2c40 32be 3a62 e6bd
000003c0: ac14 dbbd 67ec 71be d269 47be a1f6 a8bd
000003d0: 6029 eabd 6f1a 8c3c c042 bcbd 9301 113e
000003e0: 27ef cc3e bc3c d63e 5b29 623e 1063 153e
000003f0: b807 703c 0956 17be c125 c0bd 41c1 ccbd

fc1.1.bias f4 [64]
0.024179406 0.004702622 0.15200286 -0.12063384 0.20537603 0.23273334 -0.36933565 -0.059192754
0.038264457 0.13656552 0.11256053 0.22925824 0.006097554 -0.12665953 -0.223149 0.0036278402
-0.117236584 -0.030288626 0.16292311 -0.064249784 0.16820848 0.2916903 -0.027890196 0.25725222
-0.29401797 0.014863679 -0.06368116 0.032193873 -0.040356208 0.13122259 0.10728615 0.38464734
0.114342876 0.05155694 0.007832403 -0.03942044 0.10291052 -0.031652212 -0.07061199 0.08620353
0.46483845 0.04163094 0.3674696 -0.0006778704 0.17753643 0.20454377 -0.13590358 0.15214199
0.030061552 -0.17737111 0.02420777 0.06500814 0.18876675 0.24551043 0.049523715 0.13233218
-0.0035041813 0.028176367 -0.23985809 -0.24076572 -0.1846805 0.053830363 0.25284198 -0.032250933
00000000: e413 c63c 7418 9a3b a3a6 1b3e e00e f7bd
00000010: 184e 523e a651 6e3e 9019 bdbe 1a74 72bd
00000020: 31bb 1c3d d5d7 0b3e 2386 e63d acc2 6a3e
00000030: fecd c73b 09b3 01be 2c81 64be 0fc1 6d3b
00000040: bc19 f0bd da1f f8bc 51d5 263e 6495 83bd
00000050: d83e 2c3e 6e58 953e fb79 e4bc 90b6 833e
00000060: 8689 96be ca86 733c 456b 82bd b9dd 033d
00000070: 8d4c 25bd 375f 063e d7b8 db3d 7ff0 c43e
00000080: 992c ea3d 5f2d 533d 7b53 003c 5477 21bd
00000090: c0c2 d23d c0a5 01bd 059d 90bd 7a8b b03d
000000a0: 4eff ed3e 3485 2a3d fa24 bc3e 1db3 31ba
000000b0: 1ccc 353e ec73 513e 4f2a 0bbe 1ccb 1b3e
000000c0: a543 f63c c6a0 35be 604f c63c fd22 853d
000000d0: 124c 413e 1667 7b3e 61d9 4a3d 1682 073e
000000e0: 68a6 65bb 20d2 e63c 5c9d 75be 4a8b 76be
000000f0: e31c 3dbe 3a7d 5c3d 8174 813e 8e19 04bd

fc2.0.weight f4 [10, 64]
0.09114163 0.32462353 -0.94371545 0.040584214 0.25735667 0.1941031 -0.1897302 -0.95066464
-0.43718582 -0.18450506 -0.7149445 -0.008873238 0.14110334 0.11754124 -0.53913593 0.09463588
0.27178368 0.0066290065 0.1340723 -0.7202194 -0.4746287 0.02048532 0.29507425 0.24502714
0.25461984 0.06666287 0.21989323 0.07800428 0.2769876 -0.6565804 -0.24489263 0.29741883
0.15562963 -0.43913028 0.06850455 -0.04453702 0.088527955 -0.8699213 0.116740316 -0.0033838234
-0.57227 -0.7247206 -0.27792752 0.27753448 0.28231925 0.26708892 0.20185123 -0.3888753
0.26755038 0.19614486 -0.23918208 0.2698592 0.27823633 0.0324673 -0.56712663 -0.42982534
-0.05694364 -0.43426472 -0.2763091 0.2771634 0.15271522 0.30422845 -0.32866967 0.036819875
-0.3802025 -0.28195322 0.71802586 -0.015228767 0.35131195 0.5169484 0.24600253 0.2474381
0.19052881 -0.42120624 0.36253825 -0.56950593 -0.2953065 -0.36768407 0.17739812 -0.019238625
-0.5853568 0.014679166 0.17741331 -0.36347023 0.2708912 -0.29473796 -0.66136277 -0.57328427
0.19149567 0.033499062 -0.735023 0.013028782 0.3285403 -0.40581632 0.18293831 -1.0329615
0.190123 0.39704788 0.057697892 -0.0045041526 0.22093877 0.24445085 0.27938 0.29131737
0.21763778 0.1334466 -0.11701985 -0.4515687 0.19040316 -0.2986355 0.17416987 -0.07623929
0.24984689 0.22662471 -0.60366887 -0.3991956 -0.29497376 0.24643442 0.15253751 0.64571387
-0.0632461 0.056271374 0.1893016 -0.5019029 -0.5813376 -0.8019659 0.39006376 -0.10050221
0.21520236 0.44163448 -0.60457736 0.37201512 0.42038575 -0.13447332 0.1527579 0.26147833
0.09241445 -0.18773416 0.17418826 -0.73050064 -0.61837584 0.0656538 0.03631546 -0.041483384
-0.12692711 -0.09238213 0.2531847 0.011032045 -0.5301831 -0.47186202 0.292399 0.34179628
0.17004134 0.00040678127 0.13132335 -0.061904 0.012928112 0.2863829 -0.833703 0.37428343
0.13127401 0.2476998 0.10869872 -0.046284787 0.27365083 0.3500111 -0.25635397 -0.03936499
0.15454318 -0.486786 -0.19272241 -0.87054366 -0.5070631 0.08278716 0.14923318 -0.37518373
-0.66659683 0.21536165 -0.07821256 0.2624456 0.2668907 -0.017916698 0.27831915 -0.97768164
-0.070042826 0.24038878 0.06889437 -0.06364573 0.12561996 0.26966566 0.44627327 -0.010679667
-0.053112987 0.14472693 0.35394576 -0.30006927 -0.30959645 0.34405485 0.11899898 -0.616463
0.059444174 -0.68578583 0.42168203 0.043378763 0.1427724 -0.057376705 0.26706642 0.010675947
0.22073989 -0.03289481 -0.48010272 0.13720274 -0.026818004 -1.1329355 0.25524804 -0.19544764
0.20247442 0.057372782 -0.3417499 0.34267595 0.13116506 -0.13728818 0.32405195 -0.08951658
0.11103334 0.35748306 -0.032376457 -0.10040789 0.16647683 0.1736517 -0.6405668 -0.45628053
-0.6814672 -0.36045003 0.31303412 -0.48807126 -0.31770802 -0.79620266 0.17268719 0.10432773
-0.4413634 0.22251463 0.19796334 -0.19269778 0.13331632 -0.037058663 0.29223248 -0.5280054
-0.07792576 0.18656489 0.18889628 0.079163335 0.06913348 0.2804858 0.12161807 0.013779455
00000000: 77a8 ba3d 0e35 a63e 5697 71bf a23b 263d
00000010: 41c4 833e f7c2 463e a248 42be c25e 73bf
00000020: d2d6 dfbe e5ee 3cbe 9a06 37bf 0f61 11bc
00000030: 657d 103e 76b9 f03d d004 0abf 75d0 c13d
00000040: 3b27 8b3e 2338 d93b 404a 093e 4c60 38bf
00000050: 8802 f3be d4d0 a73c f913 973e 65e8 7a3e
00000060: 885d 823e 8b86 883d b12b 613e b5c0 9f3d
00000070: 52d1 8d3e a715 28bf 22c5 7abe 4847 983e
00000080: 605d 1f3e afd5 e0be 1d4c 8c3d 736c 36bd
00000090: 254e b53d 2ab3 5ebf 8c15 ef3d 23c3 5dbb
000000a0: 4980 12bf 4a87 39bf 844c 8ebe 0019 8e3e
000000b0: 268c 903e e1bf 883e 17b2 4e3e aa1a c7be
000000c0: 5dfc 883e 33da 483e 26ec 74be fc2a 8a3e
000000d0: fe74 8e3e 6efc 043d 362f 11bf 1112 dcbe
000000e0: bc3d 69bd f257 debe 6378 8dbe 5ce8 8d3e
000000f0: 6161 1c3e d5c3 9b3e 6447 a8be 70d0 163d
00000100: e7a9 c2be 2c5c 90be 8bd0 373f 1482 79bc
00000110: 29df b33e bb56 043f 16e8 7b3e 6a60 7d3e
00000120: fc19 433e 58a8 d7be 9d9e b93e 24cb 11bf
00000130: 6a32 97be 1641 bcbe daa7 353e 529a 9dbc
00000140: f1d9 15bf e280 703c d6ab 353e c518 babe
00000150: 40b2 8a3e e5e7 96be 124f 29bf c2c2 12bf
00000160: 7117 443e 5036 093d 782a 3cbf ac76 553c
00000170: 6f36 a83e 28c7 cfbe 2e54 3b3e 1538 84bf
00000180: 9baf 423e dc49 cb3e a054 6c3d 9297 93bb
00000190: c63d 623e 5351 7a3e e50a 8f3e 8d27 953e
000001a0: 70dc 5e3e 3aa6 083e 1aa8 efbd 0334 e7be
000001b0: 0cf9 423e c1e6 98be 9659 323e 5823 9cbd
000001c0: ddd7 7f3e 4f10 683e 0b8a 1abf 5e63 ccbe
000001d0: cd06 97be 4e59 7c3e cb32 1c3e 814d 253f
000001e0: 2c87 81bd d07c 663d 47d8 413e b57c 00bf
000001f0: 8ad2 14bf a34d 4dbf 70b6 c73e 1ad4 cdbd
00000200: 025e 5c3e ea1d e23e 95c5 1abf c478 be3e
00000210: cd3c d73e 60b3 09be 916c 1c3e 7de0 853e
00000220: ca43 bd3d 623d 40be 685e 323e 1702 3bbf
00000230: e14d 1ebf 8075 863d 85bf 143d 7bea 29bd
00000240: 2ef9 01be d832 bdbd 6da1 813e c0bf 343c
00000250: 14ba 07bf e697 f1be 52b5 953e ecff ae3e
00000260: 511f 2e3e 4245 d539 a179 063e 0c8f 7dbd
00000270: 6fd0 533c c8a0 923e 8f6d 55bf 14a2 bf3e
00000280: b26c 063e 04a5 7d3e 6f9d de3d 1e95 3dbd
00000290: f61b 8c3e a834 b33e d440 83be 2f3d 21bd
000002a0: 9140 1e3e 043c f9be 0659 45be f3db 5ebf
000002b0: e3ce 01bf 518c a93d 95d0 183e 1518 c0be
000002c0: 17a6 2abf c487 5c3e e82d a0bd 455f 863e
000002d0: e6a5 883e 0ac6 92bc d97f 8e3e 5849 7abf
000002e0: 9d72 8fbd 7a28 763e 7e18 8d3d b158 82bd
000002f0: 85a2 003e 9e11 8a3e ee7d e43e c5f9 2ebc
00000300: 018d 59bd 4c33 143e 6138 b53e aea2 99be
00000310: 6d83 9ebe f527 b03e bdb5 f33d 85d0 1dbf
00000320: bc7b 733d a98f 2fbf b5e6 d73e eead 313d
00000330: ee32 123e d603 6bbd eebc 883e 2bea 2e3c
00000340: a309 623e b5bc 06bd 06d0 f5be e07e 0c3e
00000350: 6eb1 dbbc 0804 91bf dfaf 823e 6d23 48be
00000360: 7455 4f3e b9ff 6a3d d8f9 aebe 3973 af3e
00000370: 2250 063e 4695 0cbe 23ea a53e 7854 b7bd
00000380: 7365 e33d 0508 b73e 2d9d 04bd a7a2 cdbd
00000390: e778 2a3e c0d1 313e 30fc 23bf 9a9d e9be
000003a0: a274 2ebf e88c b8be 0246 a03e 7ae4 f9be
000003b0: a0aa a2be f0d3 4bbf e9d4 303e c7a9 d53d
000003c0: 62fa e1be e0da 633e e7b6 4a3e 9152 45be
000003d0: 1384 083e d3ca 17bd 7f9f 953e 5d2b 07bf
000003e0: 8a97 9fbd de0a 3f3e 076e 413e 6320 a23d
000003f0: db95 8d3d d69b 8f3e e512 f93d 39c3 613c

fc2.0.bias f4 [10]
-0.091134116 0.21706674 0.016460693 0.0033977977 0.14252397 0.27308112 0.143593 0.06688237
-0.06635895 0.122269854
00000000: 86a4 babd be46 5e3e 93d8 863c 96ad 5e3b
00000010: cef1 113e 4ad1 8b3e 0b0a 133e a0f9 883d
00000020: 34e7 87bd 9e68 fa3d
