pretrained_model/05-22-2022_19-21-00/model/epoch_1.pt (torch, 205087 bytes, 4 tensors)

fc1.1.weight f4 [64, 784]
0	0x3c8896e2	0.016673509
1	0xbc6f7166	-0.014614439
2	0x3c3ab278	0.011395089
3	0xbbef3038	-0.0072994493
4	0x3c68ffa0	0.014221102
5	0x3ccd96fa	0.025096405
6	0x3b22dc00	0.0024850368
7	0x3d00d8d7	0.031456795
8	0xbd0461ff	-0.03232002
9	0x3c9daeda	0.019248415
10	0x3c8c7ca8	0.017149284
11	0xbcdbb933	-0.026821708
12	0x3cb727ef	0.022357909
13	0x3d0b46b5	0.03400298
14	0xbc61a340	-0.013771832
15	0x3d03cd94	0.032178476
16	0xbcae566e	-0.021281447
17	0xbd0f69e4	-0.035013095
18	0x3cd0292a	0.025410254
19	0xbc82c25a	-0.015961815
20	0x3d0d4b4f	0.034495648
21	0xbceb889c	-0.028751664
22	0x3c01c89c	0.007921364
23	0xbc415e32	-0.011802243
24	0x3cffbf12	0.03121904
25	0x3ce3fb06	0.027829658
26	0x3d0b3ba7	0.033992436
27	0x3b48ead0	0.0030657537
28	0x3b9d2098	0.0047951452
29	0xbc343d46	-0.011000937
30	0xbcbcf0f3	-0.023064112
31	0x3bbefc68	0.005828429
32	0x3d04eb6e	0.032451086
33	0x3d13c4b4	0.036076263
34	0x3d3acfd1	0.045608345
35	0x3d83a928	0.06428748
36	0x3d152a30	0.036417186
37	0x3d97f995	0.07420651
38	0x3daab0c6	0.08334498
39	0x3d8cc958	0.06874341
40	0x3dd72453	0.10504975
41	0x3db5d078	0.08877653
42	0xbb0c0af0	-0.0021368824
43	0x3a88bdda	0.0010432557
44	0x3cceb58c	0.025233053
45	0x3d7b8df3	0.06141467
46	0x3d49f94f	0.049310025
47	0x3d73cc2e	0.059520893
48	0x3d849ea0	0.06475568
49	0x3d8dbc16	0.0692064
50	0x3ddf9f78	0.10919088
51	0x3da77a70	0.0817765
52	0xbc6b60aa	-0.014366308
53	0x3c5cb360	0.013470501
54	0x3c2a49f4	0.010393608
55	0x3cda54ce	0.026651766
56	0x3c4cba48	0.012495585
57	0x3c8ccdd0	0.017187983
58	0x3ccef9d6	0.025265615
59	0x3d323f3a	0.04351733
60	0x3d9d3ad2	0.07677235
61	0x3d13af01	0.03605557
62	0x3d8266af	0.063672416
63	0x3da0c08b	0.07849225
64	0x3dd5c834	0.10438576
65	0x3e023662	0.12716058
66	0x3e3cc673	0.18435077
67	0x3e7eabed	0.24870272
68	0x3e476325	0.19471414
69	0x3e3f022c	0.18653172
70	0x3da5757b	0.08079048
71	0x3d440a86	0.0478616
72	0x3d5ad0cf	0.05342179
73	0x3e0ad194	0.1355651
74	0x3e1c8eec	0.15288895
75	0x3e2391a5	0.15973528
76	0x3e0d7ba9	0.13816704
77	0x3dd727f4	0.10505667
78	0x3df7a86b	0.1209267
79	0x3e1f8793	0.15579061
80	0x3d5bffac	0.053710625
81	0xbd6e870a	-0.058234252
82	0x3d0603d9	0.032718513
83	0x3c31de38	0.010856204
84	0xbcd04e4c	-0.02542796
85	0x3cee4d72	0.029089663
86	0xbd182d17	-0.037152376
87	0x3d31daa6	0.04342141
88	0x3d60e51a	0.05490599
89	0x3c865dda	0.016402174
90	0x3e09dadb	0.13462393
91	0x3e04e7be	0.12979028
92	0x3dfe318f	0.12411796
93	0x3e1a813c	0.15088362
94	0x3e590480	0.21193123
95	0x3e7afea8	0.24511206
96	0x3e47d04a	0.1951305
97	0x3e4be55e	0.19911715
98	0x3e0e32d9	0.13886584
99	0x3df5b51c	0.119974345
100	0x3e1ed5bf	0.15511225
101	0x3e05038c	0.12989634
102	0x3e171185	0.14752777
103	0x3deb92f2	0.11502637
104	0x3e0c356e	0.13692257
105	0x3e019848	0.12655747
106	0x3e31e3cb	0.17372052
107	0x3e298859	0.16555919
108	0x3db404e9	0.08789999
109	0x3c61ec61	0.013789267
110	0xbc986157	-0.018601103
111	0x3c3f7b18	0.011687063
112	0xbae81ae0	-0.0017708205
113	0xbaeac623	-0.0017911833
114	0xbd4460e3	-0.04794396
115	0xbd8eb008	-0.06967169
116	0xbd61d9e7	-0.05513945
117	0xbda21429	-0.079140015
118	0xbcc096cb	-0.023509404
119	0x3d81af3a	0.0633225
120	0x3db4cc59	0.08828039
121	0x3dfc4e9f	0.12319683
122	0x3e064978	0.13113964
123	0x3d9564c2	0.07294609
124	0x3da7fda3	0.08202674
125	0x3de72b57	0.11287563
126	0x3d47b285	0.048754234
127	0x3d4f7340	0.05064702
128	0x3d4c1693	0.049826216
129	0x3dae8788	0.08521944
130	0x3db498bc	0.08818194
131	0x3defd3c6	0.117103145
132	0x3c8994d7	0.016794605
133	0x3d5efea9	0.05444208
134	0x3bab11a2	0.005220608
135	0x3dcdf5f7	0.1005668
136	0x3d2ee444	0.04269816
137	0x3d96c858	0.07362431
138	0x3dc19e40	0.09454012
139	0x3d97dee7	0.07415562
140	0xbd0bb61c	-0.03410922
141	0xbc4a2926	-0.012338912
142	0xbcce26db	-0.025165012
143	0xbdc1c1dc	-0.09460804
144	0xbe05024b	-0.12989156
145	0xbdd95427	-0.10611754
146	0xbd22201e	-0.03958141
147	0x3c948fa3	0.018134898
148	0x3e431ed6	0.19054732
149	0x3e478756	0.1948522
150	0x3e2501ed	0.16114016
151	0x3db5ef95	0.08883587
152	0x3dd5b02b	0.10433992
153	0x3dd45d7e	0.10369395
154	0x3de5a679	0.11213393
155	0x3d92f0c4	0.07174829
156	0x3dc156d8	0.09440392
157	0x3e373d2c	0.17894429
158	0x3d5ec8e1	0.05439079
159	0x3d927835	0.07151834
160	0xbbc9a8fc	-0.0061541777
161	0xbc5f977a	-0.013646955
162	0xbd0ab463	-0.033863436
163	0x3bdf955e	0.006823226
164	0x3d0eb08a	0.03483633
165	0x3e2aec70	0.16691756
166	0x3e2052b1	0.15656544
167	0x3d4346f8	0.047675103
168	0xbcc4acfc	-0.024008267
169	0xbbb0f18a	-0.0053998875
170	0x3d368f51	0.04457027
171	0xbe00de9e	-0.12584922
172	0xbe4b43be	-0.1985006
173	0xbe159e8f	-0.14611267
174	0xbd97c4ec	-0.07410607
175	0x3c2d9e90	0.010596886
176	0x3d6679f2	0.05626864
177	0x3d06a187	0.03286889
178	0x3ca35338	0.019937143
179	0x3ccd160c	0.025034927
180	0x3b92abaa	0.0044760304
181	0x3a907e45	0.0011023959
182	0x3d02cc01	0.031932835
183	0x3d6a3826	0.057182454
184	0x3d3461d8	0.044038624
185	0x3c4c9e39	0.012488895
186	0xbd91ef71	-0.07125748
187	0xbd168f09	-0.036757503
188	0xbd7a0102	-0.061036117
189	0xbe0220e8	-0.12707865
190	0xbd1d9080	-0.038467884
191	0x3cc8546f	0.024454324
192	0x3e53a606	0.20668802
193	0x3e8c8f36	0.2745301
194	0x3e3efa17	0.18650089
195	0x3d333e54	0.043760613
196	0xbb96aff0	-0.00459861
197	0xbd67f8bc	-0.056633696
198	0x39d5a469	0.0004074902
199	0xbdff71eb	-0.124729
200	0xbe57e969	-0.21085133
201	0xbe1fabe0	-0.15592909
202	0xbb8e9732	-0.00435152
203	0x3d98393c	0.074327916
204	0x3d3778b2	0.04479284
205	0x3c0d09a3	0.008608255
206	0x3dab84f7	0.083749704
207	0x3d1e570c	0.038657233
208	0x3a1c5852	0.00059640885
209	0xbd3694d5	-0.04457553
210	0x3d0aa169	0.03384534
211	0x3c1e4752	0.009660559
212	0xbd957ef8	-0.07299608
213	0xbe147fc1	-0.14501859
214	0xbdef598e	-0.11687003
215	0xbdd730dd	-0.10507367
216	0xbdf5a0c6	-0.11993556
217	0xbd60c265	-0.05487289
218	0xbd8c381d	-0.0684664
219	0x3e1277e8	0.14303553
220	0x3e941c78	0.2892797
221	0x3e83bcda	0.2573002
222	0x3e271e06	0.16320047
223	0x3da48d60	0.08034778
224	0x3ca8b2cc	0.02059307
225	0xbd5b0d8d	-0.05347972
226	0xbd73aff7	-0.059493985
227	0xbe43e905	-0.19131859
228	0xbe1d106d	-0.15338297
229	0xbdbb6a63	-0.09151151
230	0xbd1547a1	-0.036445264
231	0xbb57b67a	-0.003291516
232	0x3d873d2e	0.06603466
233	0x3db02e28	0.086025536
234	0x3c807664	0.015681453
235	0x3ceea67c	0.02913212
236	0x3c9b953a	0.018992055
237	0xbd7d7c64	-0.061886206
238	0xbd814ec5	-0.06313852
239	0xbd70e69b	-0.058813673
240	0xbdda5805	-0.1066132
241	0xbe499643	-0.19686227
242	0xbe2974c5	-0.1654845
243	0xbdedb8ef	-0.11607539
244	0xbd3f7501	-0.046742443
245	0x3cdf8c8c	0.027288698
246	0x3d6c3f73	0.057677697
247	0x3e496837	0.19668661
248	0x3e951f5b	0.29125485
249	0x3ea521da	0.3225239
250	0x3e4d8ddb	0.20073645
251	0x3e03af88	0.12859929
252	0x3c7007b8	0.014650278
253	0xbdb2edcb	-0.08736762
254	0xbdef7163	-0.11691549
255	0xbe3c9c60	-0.18419027

fc1.1.bias f4 [64]
0	0xbcdebe2e	-0.027190294
1	0x3a8898a8	0.0010421472
2	0x3e36fa10	0.17868829
3	0xbd588c39	-0.0528681
4	0x3e13ae89	0.14422049
5	0x3e00ed00	0.12590408
6	0xbe5e6eaa	-0.21721902
7	0xbd3454aa	-0.044026054
8	0x3ddc8f58	0.10769528
9	0x3dbc11ff	0.0918312
10	0x3e0600db	0.13086264
11	0x3e386b83	0.18009762
12	0x3d72547f	0.059162613
13	0xbc044140	-0.008072197
14	0xbda1a9a2	-0.07893683
15	0x3b6dc10f	0.0036278402
16	0xbd51fda2	-0.051267274
17	0xbcf81fda	-0.030288626
18	0x3df8e224	0.12152508
19	0xbd065d17	-0.03280362
20	0x3e2eae02	0.17058566
21	0x3e70e032	0.23523024
22	0xbc2de5a3	-0.010613832
23	0x3e524066	0.20532379
24	0xbe27796d	-0.16354914
25	0x3c7386ca	0.014863679
26	0xbda7c804	-0.08192447
27	0x3da3c932	0.07997359
28	0x3d3ea5bf	0.046544787
29	0x3bdf1054	0.0068073664
30	0x3def318e	0.11679374
31	0x3e8cef05	0.27526107
32	0x3e112211	0.14173152
33	0x3d2f8742	0.0428536
34	0x3c00537b	0.007832403
35	0xbd217754	-0.03942044
36	0x3dc203a9	0.09473354
37	0x3ce1ba1a	0.02755456
38	0xbd473103	-0.048630726
39	0x3dd6e7cb	0.1049343
40	0x3eb91989	0.36152294
41	0x3c829832	0.015941713
42	0x3e869eda	0.2629307
43	0xbcdf5e99	-0.027266787
44	0x3df2b784	0.11851409
45	0x3e58e4ed	0.21181078
46	0xbda26903	-0.07930186
47	0x3e14e19d	0.1453919
48	0x3c3af35c	0.01141056
49	0xbd2eaa7d	-0.04264306
50	0xbc048174	-0.008087505
51	0x3d6fe206	0.058565162
52	0x3e083843	0.13302712
53	0x3e088800	0.1333313
54	0x3daa33e0	0.083106756
55	0x3dea3329	0.11435539
56	0xbb65a668	-0.0035041813
57	0xbc30c3d6	-0.010788878
58	0xbe07077c	-0.13186449
59	0xbe018c61	-0.12651207
60	0xbe0943fd	-0.13404842
61	0x3d89c86e	0.06727682
62	0x3e3e5354	0.18586475
63	0xbd04198e	-0.032250933

fc2.0.weight f4 [10, 64]
0	0x3ce4b48f	0.027918128
1	0x3e816cfb	0.25278458
2	0xbf0a1b69	-0.53948075
3	0x3d87b5e8	0.06626493
4	0x3e213855	0.15744145
5	0x3deb3d18	0.11486262
6	0xbe7ecf43	-0.24883752
7	0xbf12b692	-0.5730983
8	0xbeb75e8e	-0.35814327
9	0xbe060412	-0.1308749
10	0xbed4424a	-0.41456825
11	0x3d50e0c9	0.05099562
12	0x3e0d184e	0.13778803
13	0x3d927084	0.07150367
14	0xbe8f389f	-0.27972886
15	0x3dc1d075	0.09463588
16	0x3e7e2998	0.24820554
17	0x3bd93823	0.0066290065
18	0x3d9f98a3	0.07792785
19	0xbecbe6a5	-0.39824405
20	0xbeca91eb	-0.39564452
21	0x3d95a240	0.07306337
22	0x3e659b08	0.22422421
23	0x3e51a6c8	0.20473778
24	0x3e1a5b65	0.15073927
25	0x3d88868b	0.06666287
26	0x3e469e46	0.19396314
27	0xbb0b54e5	-0.0021260318
28	0x3e735977	0.23764597
29	0xbebfcc28	-0.37460446
30	0xbe21cb44	-0.15800196
31	0x3e8d7ca7	0.27634165
32	0x3e33d9cd	0.17563553
33	0xbe976d41	-0.29575542
34	0x3d8c4c1d	0.06850455
35	0xbd366c73	-0.04453702
36	0xbe14e302	-0.14539722
37	0xbed5c2eb	-0.41750273
38	0x3e422282	0.18958476
39	0xbd7c2c51	-0.0615657
40	0xbee0b6fb	-0.43889603
41	0xbee9addf	-0.45640466
42	0xbb96e980	-0.004605472
43	0x3e50a094	0.20373756
44	0x3e72348a	0.23652855
45	0x3e86ffc3	0.26367006
46	0x3e19a929	0.15005936
47	0xbe91843d	-0.28421202
48	0x3e758c9f	0.23979424
49	0x3e49e2fb	0.19715492
50	0xbd8bb20d	-0.0682107
51	0x3e6fdb50	0.23423505
52	0x3e4fb291	0.20282961
53	0x3d1a00f5	0.03759857
54	0xbe987040	-0.2977314
55	0xbda0d033	-0.07852211
56	0xbd693dbc	-0.05694364
57	0xbe53069c	-0.2060799
58	0xbe668059	-0.22509898
59	0x3e497d24	0.19676644
60	0x3de9d1b9	0.114169545
61	0x3e71517d	0.23566242
62	0xbe681116	-0.22662768
63	0x3d16d070	0.036819875
64	0xbeb76514	-0.35819304
65	0xbe85f6cc	-0.26164854
66	0x3ec62f1e	0.38707823
67	0xbd6ceb93	-0.05784185
68	0x3e81c73d	0.2534732
69	0x3e5ecd4f	0.21758007
70	0x3e141515	0.14461167
71	0x3e5a2c84	0.21306044
72	0x3e7b3aba	0.24534121
73	0xbe42f829	-0.19039978
74	0x3e787104	0.24261862
75	0xbed6257f	-0.41825482
76	0xbe74a970	-0.2389276
77	0xbebd1a96	-0.36934346
78	0x3e40053b	0.18751995
79	0xbc9d9a52	-0.019238625
80	0xbee74c5b	-0.45175442
81	0x3c7080e2	0.014679166
82	0x3ddaa218	0.10675448
83	0xbe4abc31	-0.19798352
84	0x3e87a00f	0.26489303
85	0xbe12b08e	-0.14325163
86	0xbef85e1d	-0.48509303
87	0xbed7e100	-0.4216385
88	0x3dea99eb	0.11455139
89	0x3d093650	0.033499062
90	0xbed8825d	-0.4228696
91	0xbd4404d3	-0.047856163
92	0x3e9017c7	0.2814314
93	0xbe6a7bf0	-0.22898841
94	0x3e824cbf	0.25449178
95	0xbf2689e4	-0.65054154
96	0x3dd67ddc	0.104732245
97	0xbd954c5a	-0.072899535
98	0x3d6c54a0	0.057697892
99	0xbb939792	-0.0045041526
100	0x3e5960bf	0.21228312
101	0x3e825375	0.25454298
102	0x3e659128	0.22418654
103	0x3e88af05	0.2669603
104	0x3e5bd59c	0.21468204
105	0x3df38cee	0.118921146
106	0xbd526be9	-0.051372442
107	0xbd5adb60	-0.05343187
108	0x3e44f145	0.19232662
109	0xbe832f48	-0.2562201
110	0x3da03d76	0.07824223
111	0xbd81df98	-0.06341475
112	0x3e5794ef	0.21052907
113	0x3e3adbc1	0.18247892
114	0xbeb1c473	-0.3472019
115	0xbed4cdf3	-0.41563377
116	0xbeb2a1d4	-0.3488909
117	0x3e805dbe	0.2507152
118	0x3df6d420	0.120521784
119	0x3e4451be	0.19171807
120	0xbd81872c	-0.0632461
121	0xbc97ddf4	-0.018538453
122	0x3e299eaf	0.16564439
123	0xbec28e3a	-0.37999135
124	0xbed2c9f2	-0.41169697
125	0xbf0bf6ad	-0.5467327
126	0x3e8fd95e	0.28095526
127	0xbdcdd41a	-0.10050221
128	0x3e3b4511	0.18288065
129	0x3ea3bb2d	0.3197874
130	0xbecab89d	-0.39593974
131	0x3e846bc2	0.25863463
132	0x3e8c6f94	0.27428877
133	0xbdf057a2	-0.11735465
134	0x3d941493	0.07230487
135	0x3d644ae8	0.0557355
136	0x3d9ed8d6	0.07756202
137	0xbe1212fa	-0.14265051
138	0x3de0cdd5	0.10976759
139	0xbef8e2fe	-0.4861068
140	0xbed617e2	-0.41815096
141	0x3dc70725	0.097181596
142	0xbd760099	-0.060059164
143	0xbd29ea7b	-0.041483384
144	0xbe1d583b	-0.15365689
145	0xbdbd32d8	-0.09238213
146	0x3e4681ca	0.19385448
147	0xbdd4d3d6	-0.10391967
148	0xbea457bb	-0.32098183
149	0xbeedb419	-0.46426466
150	0x3e3924be	0.18080422
151	0x3e779000	0.24176025
152	0x3df573eb	0.11985
153	0x39d54542	0.00040678127
154	0x3e04071f	0.12893341
155	0xbda548aa	-0.080705
156	0xbc26236c	-0.010140281
157	0x3e30f0ac	0.17279309
158	0xbebc7545	-0.3680822
159	0x3e912166	0.28345793
160	0x3e0c3df9	0.13695516
161	0x3e86c299	0.2632034
162	0x3dde9d6f	0.10869872
163	0xbd3d951e	-0.046284787
164	0x3e73694b	0.23770635
165	0x3e55d77e	0.20882985
166	0xbe701108	-0.23443997
167	0x3c0a2dbe	0.008433757
168	0x3d80a152	0.062807694
169	0xbec29c47	-0.38009855
170	0xbe38821a	-0.1801838
171	0xbf0e620d	-0.55618364
172	0xbebf1ab2	-0.37325054
173	0xbd3b7180	-0.04576254
174	0x3dfd7776	0.12376301
175	0xbe9f65eb	-0.31132445
176	0xbec95b8f	-0.39327666
177	0x3e59b635	0.21260913
178	0xbd43af3d	-0.047774542
179	0x3df33e90	0.11877167
180	0x3e1d73e3	0.15376239
181	0xbd68876f	-0.056769785
182	0x3e8fcd10	0.28086138
183	0xbf1f7aa0	-0.62296486
184	0xbd8f729d	-0.070042826
185	0x3e491e23	0.19640402
186	0x3d75ea3c	0.060037836
187	0xbc10acff	-0.008830308
188	0x3dfff089	0.1249705
189	0x3e0189d2	0.1265023
190	0x3ed8bcd6	0.4233157
191	0xbc2ef9c5	-0.010679667
192	0xbd84782c	-0.064682335
193	0x3cfd71c9	0.030938046
194	0x3e88a439	0.26687792
195	0xbe82c3a4	-0.25539887
196	0xbe87e1cd	-0.2653946
197	0x3ea00635	0.31254736
198	0x3dbeb273	0.0931138
199	0xbed4ceff	-0.41564175
200	0x3db9c7b8	0.090712965
201	0xbeef55ad	-0.46745053
202	0x3e9d87fa	0.30767804
203	0x3d72d25f	0.059282657
204	0x3e1a7e9a	0.15087357
205	0xbe0824ab	-0.13295238
206	0x3e7c49e4	0.24637562
207	0x3c2eea2b	0.010675947
208	0x3e2723db	0.16322272
209	0xbd06bcb5	-0.03289481
210	0xbe9e95c0	-0.30973625
211	0x3d0da523	0.034581315
212	0xbdd65f93	-0.10467448
213	0xbf2407d1	-0.64074427
214	0x3e897227	0.26844904
215	0xbdcb90d4	-0.09939733
216	0x3e69e2e8	0.22840464
217	0x3d6affb9	0.057372782
218	0xbe8c5db4	-0.2741524
219	0x3e6d0fad	0.23150511
220	0x3deb100d	0.11477671
221	0xbd80f005	-0.0629578
222	0x3e93b88e	0.28851742
223	0xbde6b58e	-0.112650976
224	0x3cc8a006	0.024490368
225	0x3e7b8c5b	0.2456526
226	0xbd049d2d	-0.032376457
227	0xbdcda2a7	-0.10040789
228	0x3e3ca5f8	0.18422687
229	0x3de81172	0.113314524
230	0xbea83dc9	-0.32859638
231	0xbeb01e5c	-0.34398162
232	0xbf05e943	-0.52309054
233	0xbe8a8117	-0.27051613
234	0x3e272f60	0.16326666
235	0xbe7ad263	-0.24494319
236	0xbe966647	-0.29374906
237	0xbef5376f	-0.47893855
238	0x3e047641	0.12935735
239	0x3dd3c539	0.103403516
240	0xbea773bc	-0.32705486
241	0x3e3c333b	0.18378918
242	0x3e18bbf2	0.14915445
243	0xbe5f5886	-0.21811113
244	0x3e040003	0.1289063
245	0xbe0e85b6	-0.13918194
246	0x3e3c7c0a	0.18406692
247	0xbeaac3e4	-0.33352578
248	0xbd9f978a	-0.07792576
249	0x3e3a4366	0.18189773
250	0x3e0cef66	0.13763198
251	0x3dee4551	0.11634315
252	0x3db93241	0.09042788
253	0x3e8062c9	0.25075367
254	0xbd7b5bb8	-0.061366767
255	0x3c61c339	0.013779455

fc2.0.bias f4 [10]
0	0x3d01e622	0.031713612
1	0x3e4bfd59	0.19920863
2	0x3cf4c7c8	0.02988042
3	0x3cce39db	0.025174072
4	0x3d49c743	0.049262296
5	0x3e4e7e5c	0.2016539
6	0x3d4aa6f7	0.049475636
7	0x3d524ae0	0.051340938
8	0xbdaf0240	-0.08545351
9	0x3dd1c0fd	0.10241888
