callbacks/05-23-2022_09-15-37/models/epoch_6.pt (torch, 205087 bytes, 4 tensors)

fc1.0.weight f4 [64, 784]
000000 7c b7 7d bd 47 cb 2d 3b 97 a3 bb bd f1 74 9f 3d
       -0.061942562 0.0026518868 -0.09162062 0.07785977
000010 3e 60 53 3d eb 0d 01 3d 45 57 5d 3c 4f 51 30 bb
       0.051605456 0.031507414 0.013509576 -0.0026903932
000020 a3 3c 79 bc d3 15 d1 bd bd 9f 14 bd da d8 93 bc
       -0.015212211 -0.10209241 -0.03628515 -0.018047739
000030 3f 30 ab bd 06 40 4e 3c b7 3b 7d 3d 1c 28 21 bc
       -0.083588116 0.012588507 0.061824527 -0.009836223
000040 06 2c 18 3d 14 f1 17 bc fd dc 03 bd 3a a5 2c 3d
       0.03715136 -0.009273786 -0.032193173 0.04214976
000050 d7 4a bc bb de 23 b2 ba 61 a6 8e 3c 33 a5 b6 bb
       -0.0057462263 -0.0013591012 0.01741332 -0.0055738925
000060 9f f8 5b 3c 8f 0c a3 3d e3 4c a6 bd 07 ef e0 3d
       0.013425975 0.0796138 -0.08120134 0.10983091
000070 6d 9e 95 3d a7 bc 98 3b ea eb b0 bd ac ed 32 3c
       0.07305608 0.004661161 -0.08638747 0.010920923
000080 4e 97 13 bd 91 76 79 bb b1 16 2c 3c d2 45 80 bd
       -0.036032967 -0.0038065056 0.010503457 -0.06263317
000090 62 2e 2e bd 53 3d d4 bc 3c 80 cb 3d b2 a0 6a 3d
       -0.042524703 -0.025908148 0.09936568 0.057282157
0000a0 50 aa 97 bd da e4 d2 bd a0 00 d0 3d 1a 23 07 3e
       -0.074055314 -0.10297556 0.10156369 0.13196984
0000b0 4a a0 34 bc fb 4d 40 bc 92 0e cb bd 97 40 5b bd
       -0.011024544 -0.011737342 -0.099148884 -0.053528395
0000c0 d2 c4 ee bc 40 59 ca bd 0e ae bd 3c 5d c2 d5 39
       -0.029146586 -0.09880304 0.023154285 0.00040771338
0000d0 6e 68 94 bc f3 73 c3 bc 8e b4 52 bc 63 53 99 3c
       -0.018116202 -0.023859 -0.01286043 0.01871652
0000e0 a1 9f 0b bd 77 64 42 39 89 a7 77 3d 72 8a 22 bd
       -0.03408778 0.00018538708 0.06046251 -0.039682813
0000f0 b4 2b b5 bd 18 ab 81 3c 6e 34 0c 3d c3 c5 58 bd
       -0.08846226 0.015828654 0.03422969 -0.052922975
000100 8c 8e 59 bd 24 d0 45 bc fb 48 b1 bd c2 d5 97 bd
       -0.05311446 -0.01207355 -0.08656498 -0.07413818
000110 c7 11 a1 bb a2 ff be 3c 7f 4a 17 3e 81 65 87 3d
       -0.0049154493 0.023315255 0.14774512 0.06611157
000120 fa f3 3d 3e 5b 30 27 3d f0 f9 1d bd bd c6 31 be
       0.18550101 0.0408176 -0.038568437 -0.17360969
000130 2f 02 27 bd f4 56 f2 bd c2 98 45 bd 94 a9 a5 bd
       -0.040773567 -0.11832991 -0.048241384 -0.08088985
000140 1d 8b 7f 3d cd df c6 3d 80 25 ef b8 cc 18 81 bc
       0.06238853 0.09710655 -0.00011403393 -0.015758894
000150 15 a1 22 3d 75 71 40 bd 13 98 88 3d 57 3b cb 3d
       0.0397044 -0.0469832 0.06669631 0.099234276
000160 7b cc 3e be 97 04 c2 bd 93 ae 69 3d 22 af 44 bc
       -0.1863269 -0.09473532 0.057051253 -0.012004646
000170 0a 31 65 bd 2e 29 ad 3d 34 aa c8 3c f8 ea f1 3c
       -0.05595497 0.0845512 0.024495222 0.029530987
000180 41 87 28 3e ec 8c 79 3e 0e 81 9b 3d bc f4 16 3d
       0.16457845 0.24370164 0.075929746 0.03685449
000190 36 37 9f 3d fd d1 c4 bd 33 7a 49 bd 4b 9a 29 bb
       0.077742025 -0.096103646 -0.049188804 -0.002587932
0001a0 32 05 83 bd 2d 79 15 bd 3f 83 a7 bc 79 7d 1c be
       -0.06397475 -0.036492515 -0.020448325 -0.15282239
0001b0 b4 24 02 be 03 22 23 3e 3b 09 87 3d d4 22 b6 3c
       -0.12709314 0.15930943 0.065935574 0.022233404
0001c0 4f 39 80 3d 1f f7 e6 bc 17 64 07 3d c5 da 99 bd
       0.06260931 -0.028194008 0.033054437 -0.0751243
0001d0 e4 6d 10 be d8 93 38 be 9b c0 e9 3d f0 8b 99 3d
       -0.1410442 -0.18025148 0.1141369 0.07497394
0001e0 b7 c4 8b 3d 5c 69 3e 3e 4f 29 8a 3d 09 46 4c 3e
       0.0682463 0.18594879 0.0674616 0.19948591
0001f0 27 ff 72 3e eb 01 2e 3e 13 10 6d 3e 76 f6 42 3e
       0.23730145 0.16992919 0.23150663 0.1903933
000200 1f 87 dc 3d 59 c2 cb 3c 05 f1 13 3e b6 37 81 3c
       0.1076796 0.024872946 0.1444741 0.015773635
000210 ff 14 c4 bd a1 35 c0 bd df bb c3 bd 83 55 2e bd
       -0.09574317 -0.09385229 -0.09557318 -0.04256202
000220 20 d3 58 3d 0e 45 99 3e 0e fc 92 3d c9 b2 1b 3d
       0.05293572 0.29935497 0.07176982 0.0380123
000230 bc 12 29 3d ed fc 5c 3d 3f 5b d8 bc 8b c1 f4 bc
       0.041277632 0.053952146 -0.026410697 -0.029877445
000240 70 81 17 bd ce 04 51 3d de 6e 11 3e 39 e0 1a 3e
       -0.036988676 0.051029973 0.14202449 0.15124597
000250 27 0a fd 3d 7c d7 ac 3d 47 dd 4c 3e 0b 0f 80 3e
       0.12355452 0.08439538 0.20006286 0.25011477
000260 20 f1 2a 3e 59 99 02 3e 34 f8 92 3d e8 39 9c 3d
       0.16693544 0.1275381 0.07176247 0.07628232
000270 85 c8 c6 3d 52 c0 8e 3d 43 65 01 3e 71 03 0e be
       0.09706215 0.06970276 0.12636285 -0.138685
000280 3a 1f 0d 3d 71 d0 03 3d b5 8b b1 3d 8d 35 4a 3d
       0.034453608 0.032181207 0.08669225 0.049367476
000290 c8 4f 00 3e 4d 7e 7e 3d 13 6e 1f 3d 28 34 bc bd
       0.12530434 0.06213217 0.038923334 -0.091896355
0002a0 f6 40 17 3d 4f 4b 28 3d 3f 39 5f 3d 3a 07 81 bd
       0.036927186 0.041087445 0.054497954 -0.063002065
0002b0 bc 9d 6b 3a cd 50 44 3d cb 9d 43 3d 93 7c fc 3d
       0.0008988043 0.04792862 0.047757905 0.12328448
0002c0 de dc b6 3d 4c d7 09 3e 0f 3b 48 3e 31 18 87 3e
       0.08928846 0.13461035 0.19553779 0.26385644
0002d0 3a 36 de 3d c3 89 c7 3d d4 bf f8 3d 63 a6 40 3d
       0.10850187 0.09743073 0.12145963 0.04703368
0002e0 09 e2 8c bb b9 5c 54 bd 38 8a d3 3d 77 c5 0a be
       -0.0042994064 -0.05184624 0.103290975 -0.1355189
0002f0 1b 4c 5f bb ad ad 20 3d f2 e9 bb 3d 99 3e 40 3e
       -0.0034072462 0.03922813 0.09175481 0.18773879
000300 cc 32 8b 3e ba 2b 0e 3e 9e e4 2b 3e 28 87 d5 bb
       0.27187192 0.13883868 0.1678643 -0.006516356
000310 4e 69 92 3c 37 08 a7 3c 7f 9b 3a 3d 2b 2a 7c 3c
       0.017872479 0.02038966 0.04555845 0.015390913
000320 27 31 04 bd 22 cf 5a 3d 2e 41 b1 3d 81 39 88 bb
       -0.032273438 0.053420193 0.0865501 -0.0041572456
000330 a8 56 cd 3d 6a 21 c1 3d d1 24 bd 3d a3 f8 ea 3d
       0.10026294 0.09430201 0.09235538 0.11473205
000340 e0 e2 8f 3d b2 ee 28 bd fb ed 6e bd 89 4b 12 be
       0.07025695 -0.041243263 -0.058332425 -0.14286627
000350 ea 87 0d bc d5 8a d1 bd 57 fc 20 bd e8 17 66 3d
       -0.0086383615 -0.10231558 -0.03930315 0.056175143
000360 48 d0 c6 3d bf ae b3 3d 04 89 84 3e f0 74 43 3e
       0.09707695 0.087735645 0.25885785 0.19087577
000370 97 8a 9a 3e c8 46 e4 3e f9 e8 67 3e 04 21 84 3d
       0.3018386 0.44585252 0.22647466 0.0645161
000380 d5 50 2a 3e e5 6d 6a 3d 76 37 11 bd 6a 18 56 3e
       0.16632397 0.05723371 -0.035453282 0.2090775
000390 7d 27 b4 bd db 83 04 3b 3c 87 08 be d5 9c e3 bd
       -0.08796594 0.0020220194 -0.13332838 -0.11113898
0003a0 5b 8b 18 be 33 3a fc bd 55 10 2c 3c 5d a8 1a be
       -0.1489691 -0.12315788 0.010501941 -0.15103288
0003b0 27 0c 14 3c 9a 98 07 be 7a 4b 1d bd 1b 87 cb bd
       0.0090361005 -0.13241807 -0.03840206 -0.09937879
0003c0 51 bc b1 3c 7b bf 86 39 0c a4 b2 3e 2b 32 1f 3e
       0.021696242 0.00025701136 0.34890783 0.15546481
0003d0 da 61 1d 3e 02 78 06 3e 01 c9 30 3e 57 e1 6a 3e
       0.15369359 0.13131717 0.17264177 0.22937523
0003e0 48 a4 93 3e 6b 4d b6 3e 43 dc 5f 3e 6e 45 e3 3d
       0.28836274 0.3560594 0.21861367 0.11097227
0003f0 1b 24 c5 bc ef b7 47 3c ea 47 15 3d f0 b7 4c 3e
       -0.024065068 0.012189849 0.036445536 0.19992042

fc1.0.bias f4 [64]
000000 17 ae 6b 3f 21 c5 1e bf 1b 1b a4 bf 4f 69 99 3f
       0.92062515 -0.62019545 -1.2820772 1.1985263
000010 95 fe 57 bf 2a d4 b6 3f c6 84 ec be 5b 42 d0 bf
       -0.84372836 1.4283497 -0.46195048 -1.627025
000020 7f 73 4a bf 60 f2 70 bf 5b a1 66 bd f7 41 8d 3f
       -0.79082483 -0.94119835 -0.056306224 1.1035756
000030 2f 7f 02 3f 18 b3 0d 40 8c c6 d5 bf 16 e6 bc 3f
       0.50975317 2.214056 -1.6701217 1.4757717
000040 0e 8f 53 be f2 76 47 be c1 97 3a 40 b2 33 26 c0
       -0.2066004 -0.19478968 2.9155123 -2.5969052
000050 dd b3 29 bf cc 1f 50 bf 5a 62 93 3f b0 89 a9 bf
       -0.66290075 -0.8129852 1.151439 -1.3245144
000060 4c d6 08 40 f4 7e 06 40 51 d4 bb 3f 63 fe dc bd
       2.1380796 2.1014986 1.4674169 -0.10790708
000070 c7 53 a7 3f a8 4e 55 bf 87 43 3a bf af 0e 8f 3e
       1.3072442 -0.83323145 -0.7275929 0.2794089
000080 a6 c0 82 be b1 12 74 3f be 69 d8 bf 6f 39 e0 bf
       -0.25537604 0.9534102 -1.690727 -1.7517527
000090 8b 9b f9 3e 6a eb 22 40 88 d3 de 3e 26 cb 13 be
       0.48751482 2.5456185 0.4352076 -0.14432964
0000a0 38 d7 66 bf 58 f1 e9 3f 54 35 58 bf 33 10 d7 3e
       -0.9017215 1.8276777 -0.8445637 0.42004547
0000b0 f4 eb 69 be 14 20 c5 bf 37 dd 9f 3f d7 93 d8 3d
       -0.22843915 -1.5400414 1.2489384 0.10575073
0000c0 51 d2 4f 3e ee 6f 0b c0 76 bf ae bf 85 44 d0 3f
       0.20295073 -2.1787066 -1.3652179 1.627091
0000d0 2e 07 d4 bf 90 52 12 3f 29 61 ce 3e 03 c6 c7 bf
       -1.6564691 0.5715723 0.40308502 -1.5607303
0000e0 07 de 1b bf b8 2b 32 40 98 60 d1 3d e4 56 3b c0
       -0.6088566 2.7839184 0.10223502 -2.9271784
0000f0 50 12 7c 3f be 00 fd bf 51 86 f0 3f e4 4a 1e c0
       0.9846544 -1.9765851 1.879099 -2.473321

fc2.0.weight f4 [10, 64]
000000 e5 e1 57 be 19 59 07 bf a7 1c a0 3e 2b 96 99 3e
       -0.21082266 -0.5287033 0.3127186 0.29997382
000010 7a ae b4 3e 82 24 1b bf 37 8c 2d be d4 9d d6 bd
       0.35289365 -0.6060258 -0.16948019 -0.10479322
000020 a5 7b 93 bd 24 07 8b 3d a8 c3 89 be 2a f8 40 bf
       -0.07201318 0.06788471 -0.26907086 -0.7537867
000030 ba fd ff 3e d1 2b a7 3e 81 90 cd bd 5d 9c 98 be
       0.49998266 0.32650617 -0.100373276 -0.29806796
000040 eb fe cc bd 9a e9 74 be 07 7d bd bd 74 d8 e0 be
       -0.10009559 -0.23917237 -0.09252363 -0.4391514
000050 3a ee 08 3f 57 a1 43 bf d2 fa 7c bf bf 02 89 3e
       0.53488505 -0.7641806 -0.9882022 0.26759908
000060 ed 30 ce 3e e2 3d 74 be a2 86 ae be 7c 6c 3b bf
       0.40271702 -0.23851731 -0.34087092 -0.7321241
000070 fe a9 c0 bd f8 53 3c bf 7b 17 17 3e 47 fa 77 bf
       -0.094074234 -0.73565626 0.14755051 -0.9686627
000080 fa cc 73 3d 18 da 01 3c a6 61 3b 3e ef 8d 28 3e
       0.059521653 0.007925533 0.18298969 0.16460393
000090 c4 aa b8 3b 5a 58 00 3e 4d 8c 9b be 33 4d 33 bf
       0.005635591 0.12533703 -0.30380479 -0.7003967
0000a0 65 13 4d bf 85 8c 09 bf 16 7a 83 be 00 b4 f0 bd
       -0.8010772 -0.5373004 -0.25679082 -0.11753082
0000b0 0e 6a f1 3e 34 43 21 3c ff 67 da 3e 5a 79 1a 3e
       0.47151226 0.009842683 0.42657468 0.15085354
0000c0 c6 f1 76 3d 10 0c 85 bd fe 2a 7a 3e 0b 27 c7 3e
       0.060289167 -0.06496441 0.24430463 0.38896975
0000d0 a9 e5 b0 3e 94 ff 43 be 35 f3 da 3e f7 58 2e 3e
       0.34550217 -0.19140464 0.42763677 0.17026125
0000e0 18 55 db 3e 83 70 5b bd 56 be d9 bd f1 5c 3a be
       0.4283836 -0.053574096 -0.10632007 -0.18199517
0000f0 36 c7 27 3e 70 a3 79 3d ba a9 30 bd c1 42 b7 3e
       0.16384587 0.06094688 -0.043130614 0.35793117
000100 45 6d 97 3e 1d dd 69 3e 3d 0e 09 be 4d 1e 98 bf
       0.29575554 0.22838254 -0.13384338 -1.1884247
000110 85 77 22 be bb a2 93 be 5e fd f5 be 1a cd 3f 3e
       -0.15865906 -0.2883509 -0.48044866 0.18730584
000120 73 b8 e2 3e 7e 79 97 bd 42 3d e6 3e c6 4b bc 3e
       0.4428135 -0.0739622 0.4496861 0.3677656
000130 86 fe 3d bf 9d 24 b9 3c ad 0c 8c 3e d6 8a 19 3e
       -0.74216497 0.022600466 0.2735342 0.14994368
000140 24 05 1c bf 19 cb ac 3e 73 05 f3 3e e5 25 f1 bb
       -0.60945344 0.337487 0.47465095 -0.0073592537
000150 f6 a9 3f be 6d 5a a9 3d e7 c7 c2 3e d6 04 31 3e
       -0.18717179 0.082692005 0.38043138 0.17287001
000160 09 21 58 3f 4c 9c 40 3e ab c6 4d bf 9f 70 08 bf
       0.8442541 0.18809623 -0.8038127 -0.53296846
000170 a5 c3 cc bd 80 79 3f 3e c7 63 de bd 99 3c 9d bd
       -0.09998254 0.18698692 -0.10858875 -0.07677574
000180 90 75 68 bd c7 81 51 bf e9 a5 f4 3b f5 20 4a 3d
       -0.05675274 -0.8183865 0.007466067 0.049347837
000190 bd 32 85 be 1a ea 53 3d bb f9 ad 3d ee c1 29 bf
       -0.26015273 0.05173693 0.08494898 -0.6631154
0001a0 45 61 61 bf d0 a2 8b be dc 9c 49 3c 7c f9 03 3f
       -0.88039047 -0.27272654 0.012305465 0.5155256
0001b0 cb da 97 3e 9e 35 c6 be 38 f2 d5 be 61 2a 7f bf
       0.29659113 -0.38712782 -0.4178636 -0.9967404
0001c0 5e f2 8a 3e d0 e1 ed 3d 2b a4 63 bf d9 cb b8 be
       0.27138036 0.11615336 -0.88922375 -0.36093023
0001d0 8b 09 5e be 81 e4 8f bf d4 35 a3 be ca 66 ac 3d
       -0.21683328 -1.1241609 -0.31877005 0.08418043
0001e0 85 ed 5c 3d b8 c5 a1 be 5b 0c 33 3f af 6d c9 bd
       0.053937454 -0.3159616 0.6994073 -0.098353736
0001f0 9c 16 57 bf 3e 46 2e be 2f 04 a7 3e 45 b9 91 be
       -0.84018874 -0.17018983 0.3262038 -0.28461662
000200 fc 72 aa 3e 9f 62 01 3e 29 7c b9 bd 2b 65 ca bd
       0.3329085 0.12635277 -0.09056885 -0.098825775
000210 30 5e 99 bf 4c a4 f4 3e f7 29 bc bd e3 fa c5 bd
       -1.1981869 0.477816 -0.09187692 -0.096669935
000220 4d c3 db be 19 1d d9 3a 7c f6 2d bf c4 2a ee 3e
       -0.4292244 0.0016564458 -0.6795423 0.46517003
000230 ca d8 d4 3e 22 f5 b8 3e 12 68 06 3e 0f 33 dd 3e
       0.41571647 0.36124521 0.13125637 0.43203017
000240 06 b7 d3 bc a8 6c 82 bf 48 65 b8 3d 6e 69 16 be
       -0.025844108 -1.0189409 0.09003693 -0.14688656
000250 54 b8 e5 3e c5 e6 d9 3c dd f4 7c 3e 58 80 85 3e
       0.44867194 0.026599297 0.24702783 0.2607448
000260 a0 90 05 bf 06 03 1b 3e 2a 0e cd 3d 96 fb cb 3b
       -0.52173805 0.15137872 0.10012467 0.0062250597
000270 e5 9f ec be 00 b3 c2 3e 07 d1 14 be a8 48 f4 3e
       -0.4621574 0.3802719 -0.14532863 0.47711682
000280 71 23 b0 bd 72 3b e4 3d fd bc 3f be 3b 0d 84 3e
       -0.0860051 0.11144151 -0.18724437 0.25791344
000290 f5 fa 6b 3e fc fa 89 3e 8f e8 f4 3e 2e d8 19 bf
       0.23044951 0.26949298 0.47833678 -0.6009549
0002a0 f4 4a 2a bf 2f d9 70 bf fd 3d 00 bf e7 ff 45 bf
       -0.6652062 -0.94081396 -0.50094587 -0.773436
0002b0 e4 d8 f8 3e c1 e3 c8 bd 53 7d ca be 1e e2 db be
       0.48602974 -0.098090656 -0.3954874 -0.4294595
0002c0 c5 87 14 be b2 8d 88 bd 4c a2 3a 3e e6 ae 38 bf
       -0.14504917 -0.06667651 0.18225974 -0.72141874
0002d0 9c 6c f9 3d ae 2b 2d bf af 92 0f bf 03 63 15 bc
       0.12178919 -0.67644775 -0.56083196 -0.0091178445
0002e0 29 67 0e 3f a2 89 fb 3e c0 90 6e bf e2 5f 5e be
       0.5562616 0.49128443 -0.9318962 -0.21716264
0002f0 ab 1b e6 be 6b 3e ad be b5 b9 1a 3f e8 92 11 bd
       -0.44942984 -0.33836684 0.60439616 -0.03554049
000300 4b 13 6c 3e cc e7 33 be 4a bd dd be 28 d1 f2 be
       0.23054235 -0.17568892 -0.4330848 -0.474252
000310 18 80 42 be 97 e0 a0 3e fb 72 0d 3e 3a d5 82 3e
       -0.18994176 0.31421348 0.13813393 0.25553304
000320 b7 ff 08 3f 7b 1c e4 bd 14 1b 8d bf e6 e8 1d bf
       0.5351519 -0.11138245 -1.1023889 -0.616835
000330 12 72 ca be 78 45 2c bf 9a 7d 79 be 82 20 d7 3e
       -0.39540154 -0.672935 -0.2436432 0.4201699
000340 fd 74 11 be 35 9f 86 3e cd e6 5c 3f 2f 32 05 3c
       -0.14204784 0.2629334 0.86289674 0.0081296405
000350 44 cd 66 3e d9 6b 0e 3e 8f 37 b5 3e 91 ee 16 3d
       0.2253924 0.13908328 0.3539395 0.03684861
000360 d5 80 23 bd eb 04 c6 3d bd 54 de bd b4 ed 93 3e
       -0.039917786 0.09668907 -0.10856006 0.2889229
000370 40 4b 4a 3e 48 11 e7 be 89 91 6a 3e d7 16 37 3e
       0.19755268 -0.45130372 0.2290708 0.17879806
000380 36 30 57 3e 6b d9 da be 96 41 8f 3d 1e 38 30 3e
       0.21014485 -0.42744002 0.069949314 0.17208907
000390 fb 53 e0 3e 17 ed 22 bf d8 9d 25 3e 7f a8 86 bf
       0.43814072 -0.6364302 0.16173494 -1.0520171
0003a0 f8 18 b6 be b1 89 18 3e 6e b4 46 bf 99 ed 09 3f
       -0.35565925 0.14896275 -0.77619064 0.5387817
0003b0 e5 43 74 bd 2c 39 ac 3d 6e 1e 0f 3f ef 55 91 3d
       -0.05963506 0.08409342 0.55905807 0.07096469
0003c0 83 d2 4f bf 7a d0 52 3d 11 11 bf be 1e 7f df be
       -0.8118059 0.05146835 -0.37317708 -0.4365167
0003d0 ec b7 cd 3e 09 ca d3 be e0 49 e9 3e 8e 18 49 bd
       0.40179384 -0.41365078 0.45564175 -0.049095683
0003e0 54 09 ae 3e d4 fc 7a 3d 0a 2e d6 be 8d d5 0c bf
       0.33991492 0.061276272 -0.41832 -0.5501335
0003f0 4f 2e 4a 3e 4e b4 15 be a8 e5 8e be be fc bb 3e
       0.19744228 -0.14619562 -0.2790959 0.36716264

fc2.0.bias f4 [10]
000000 06 a7 d2 3e e7 67 0d 40 86 cd 3e 3e d2 d5 23 bf
       0.41143054 2.2094667 0.18633088 -0.6399814
000010 44 aa 16 bf 52 5e 89 3f d9 bf 9f bf e1 63 f8 3d
       -0.58853555 1.0731909 -1.2480422 0.121284254
000020 7c fd fa bf a5 33 09 c0
       -1.9608607 -2.1437771
