callbacks/05-23-2022_09-15-37/models/epoch_1.pt (torch, 205087 bytes, 4 tensors)

fc1.0.weight f4 [64, 784]
-0.061942562 0.0026518868 -0.09162062 0.07785977 0.051605456 0.031507414 0.013509576 -0.0026903932
-0.015212211 -0.10209241 -0.03628515 -0.018047739 -0.114265695 -0.018132422 0.061824527 -0.009836223
0.03715136 -0.009273786 -0.032193173 0.04214976 -0.0057462263 -0.0013591012 0.01741332 -0.0055738925
0.013425975 0.0796138 -0.08120134 0.10983091 0.07305608 0.004661161 -0.08638747 0.010920923
-0.030654782 0.007766599 0.010503457 -0.053448327 -0.016861925 0.00033537703 0.099175364 0.06980262
0.032734603 -0.058090333 0.076163515 0.10516488 -0.0036521242 0.0071483776 -0.09324992 -0.053527214
-0.029066242 -0.09880304 0.023154285 0.00040771338 -0.018116202 -0.023859 -0.01286043 0.01871652
-0.03408778 0.00018538708 0.06046251 -0.039682813 -0.08577495 0.021446891 0.008536145 -0.034880195
-0.08438745 -0.042896383 -0.08126625 0.015157687 -0.019534303 -0.019508986 0.10755628 0.0024584583
0.0051092505 -0.015355319 -0.12892233 -0.24463671 -0.07050817 -0.13524485 -0.054987334 -0.104805894
-0.0063949735 -0.017313361 -0.00011403393 -0.015758894 0.0397044 -0.0469832 0.0027502272 0.03542032
-0.12830488 -0.07244091 0.009030983 0.03702937 -0.072805904 0.04697273 -0.04393114 -0.015180728
-0.012388118 0.08561293 -0.018576333 -0.03628271 -0.02560853 -0.14202459 -0.17363092 -0.15884471
-0.14293034 -0.097826645 -0.09285467 -0.1744702 -0.107515074 0.090922125 0.045173734 0.022233404
0.06260931 -0.028138941 0.0052994066 -0.04178043 -0.0065446803 -0.07407408 0.04670046 0.04571588
0.084730566 0.15658899 0.055205222 0.12667477 0.142949 0.1248083 0.16838408 0.10634301
0.01991168 -0.03945241 0.046978626 0.021254808 -0.054294143 -0.060286913 -0.050686724 -0.0682326
-0.015843961 0.15671732 -0.025599401 0.1012136 0.041277632 0.053952146 -0.06298249 -0.0089630755
-0.033245683 -0.031779964 0.03720911 0.070853606 0.09318406 0.06532833 0.09276384 0.11860562
0.13784099 0.05055281 0.07267544 0.0590798 0.022102438 0.055722404 0.13414153 0.01790369
0.15497348 0.04053724 0.042635288 0.039058264 0.06564696 0.02440437 0.09367305 0.033400968
0.036927186 0.029241877 -0.01758068 -0.09891496 -0.098313704 0.0039330805 -0.08345998 0.07315276
0.013139866 0.037647475 0.062404487 0.16467065 0.07731804 0.04522152 0.14817409 0.10571442
0.025427423 -0.0026738949 0.13288014 0.008882898 0.15514754 0.10927297 0.07162833 0.13348803
0.18131743 0.03693207 0.085009545 -0.012213911 0.017872479 -0.026055742 0.0078603495 -0.010426912
-0.08895511 0.0012425884 -0.032374855 -0.05771914 0.12984806 0.08440393 0.028190998 0.10904911
0.062311728 0.019718839 0.03021223 -0.024824347 0.01620498 -0.00479786 0.0024269712 0.12013916
0.13867512 0.040393185 0.15471946 0.1281747 0.20692046 0.28526574 0.08786598 -0.03960705
0.16632397 -0.014718075 -0.03557139 0.07097622 -0.14045075 -0.03860263 -0.117558055 -0.033070408
-0.058978572 -0.05880014 0.071617015 -0.06348753 0.08457857 -0.039977722 0.032133184 -0.05070555
0.020122137 -0.025858572 0.23177917 0.07084008 0.0743893 0.042746052 0.057681073 0.12638752
0.13215648 0.21297906 0.15318814 0.028088277 -0.024065068 -0.006736913 0.0007651372 0.044705983
00000000: 7cb7 7dbd 47cb 2d3b 97a3 bbbd f174 9f3d
00000010: 3e60 533d eb0d 013d 4557 5d3c 4f51 30bb
00000020: a33c 79bc d315 d1bd bd9f 14bd dad8 93bc
00000030: 2204 eabd 728a 94bc b73b 7d3d 1c28 21bc
00000040: 062c 183d 14f1 17bc fddc 03bd 3aa5 2c3d
00000050: d74a bcbb de23 b2ba 61a6 8e3c 33a5 b6bb
00000060: 9ff8 5b3c 8f0c a33d e34c a6bd 07ef e03d
00000070: 6d9e 953d a7bc 983b eaeb b0bd aced 323c
00000080: bd1f fbbc f47e fe3b b116 2c3c a2ec 5abd
00000090: 0522 8abc 8bd5 af39 741c cb3d adf4 8e3d
000000a0: b814 063d 21f0 6dbd 9efb 9b3d af60 d73d
000000b0: 7a58 6fbb f03c ea3b d0f9 bebd 5a3f 5bbd
000000c0: 541c eebc 4059 cabd 0eae bd3c 5dc2 d539
000000d0: 6e68 94bc f373 c3bc 8eb4 52bc 6353 993c
000000e0: a19f 0bbd 7764 4239 89a7 773d 728a 22bd
000000f0: c7aa afbd 64b1 af3c 30db 0b3c 89de 0ebd
00000100: 54d3 acbd 1eb4 2fbd eb6e a6bd f257 783c
00000110: 6706 a0bc 4fd1 9fbc 7846 dc3d 161e 213b
00000120: 806b a73b e094 7bbc 3704 04be 0c82 7abe
00000130: 9666 90bd a07d 0abe 663a 61bd 79a4 d6bd
00000140: ed8c d1bb c0d4 8dbc 8025 efb8 cc18 81bc
00000150: 15a1 223d 7571 40bd 283d 343b e614 113d
00000160: 5b62 03be e65b 94bd b0f6 133c 1cac 173d
00000170: 431b 95bd 7a66 403d 24f1 33bd 97b8 78bc
00000180: 88f7 4abc d555 af3d 652d 98bc 2e9d 14bd
00000190: fbc8 d1bc e56e 11be 4ecc 31be 30a8 22be
000001a0: 555c 12be 5659 c8bd 972a bebd 51a8 32be
000001b0: dd30 dcbd 6135 ba3d 1808 393d d422 b63c
000001c0: 4f39 803d a383 e6bc a5a6 ad3b f521 2bbd
000001d0: c274 d6bb 27b4 97bd fb48 3f3d 9340 3b3d
000001e0: 3887 ad3d dd58 203e df1e 623d 08b7 013e
000001f0: 3961 123e 7e9b ff3d e06c 2c3e 5dca d93d
00000200: d21d a33c da98 21bd a96c 403d 901e ae3c
00000210: 8963 5ebd 69ef 76bd e29c 4fbd 89bd 8bbd
00000220: 32cb 81bc 817a 203e d6b5 d1bc 1349 cf3d
00000230: bc12 293d edfc 5c3d f7fc 80bd ddd9 12bc
00000240: a02c 08bd b52b 02bd 9468 183d b21b 913d
00000250: 49d7 be3d dcca 853d f8fa bd3d 81e7 f23d
00000260: 3026 0d3e 7710 4f3d dcd6 943d a9fd 713d
00000270: 2c10 b53c 2d3d 643d 665c 093e c2aa 923c
00000280: 5eb1 1e3e 610a 263d 57a2 2e3d 8ffb 1f3d
00000290: ea71 863d aceb c73c a8d7 bf3d 74cf 083d
000002a0: f640 173d a98c ef3c 5c05 90bc ed93 cabd
000002b0: b258 c9bd 12e1 803b 11ed aabd 1dd1 953d
000002c0: 9848 573c 3d34 1a3d d99b 7f3d 6c9f 283e
000002d0: ec58 9e3d 333a 393d f3ba 173e cd80 d83d
000002e0: 2c4d d03c 833c 2fbb bb11 083e 9389 113c
000002f0: ffde 1e3e 82ca df3d e0b1 923d 16b1 083e
00000300: 47ab 393e 1546 173d 7c19 ae3d db1c 48bc
00000310: 4e69 923c da72 d5bc b2c8 003c a4d5 2abc
00000320: 192e b6bd 59de a23a 7f9b 04bd e86a 6cbd
00000330: e4f6 043e f8db ac3d cff0 e63c 2455 df3d
00000340: 953a 7f3d 6789 a13c a37f f73c 6e5c cbbc
00000350: 4ec0 843c 5e37 9dbb d20d 1f3b 850b f63d
00000360: da00 0e3e 5373 253d c76e 1e3e 3b40 033e
00000370: f5e2 533e 5a0e 923e 14f3 b33d 013b 22bd
00000380: d550 2a3e 1524 71bc 4eb3 11bd fb5b 913d
00000390: 52d2 0fbe cb1d 1ebd 47c2 f0bd d674 07bd
000003a0: 8493 71bd 6ad8 70bd f1ab 923d c005 82bd
000003b0: 8837 ad3d aebf 23bd 169e 033d 9fb0 4fbd
000003c0: 2ed7 a43c 5bd5 d3bc 8557 6d3e 9b14 913d
000003d0: 6b59 983d 7c16 2f3d fd42 6c3d bb6b 013e
000003e0: 0754 073e 2f17 5a3e 5add 1c3e 6319 e63c
000003f0: 1b24 c5bc 53c1 dcbb 7d93 483a 9f1d 373d

fc1.0.bias f4 [64]
0.8812808 -0.56299603 -1.2820772 1.2315909 -1.0153433 1.5040152 -0.3640025 -1.6267546
-0.7796273 -0.94119835 -0.099415876 1.0118695 0.5208296 2.1707792 -1.6701217 1.4591813
-0.2313861 -0.25740832 3.0037851 -2.5969052 -0.66021526 -0.7427173 1.0989271 -1.3245144
2.2114818 2.238428 1.3922145 0.02796727 1.3336291 -0.8807193 -0.7275929 0.22453688
-0.25537604 0.9461998 -1.690727 -1.7517527 0.5942579 2.6302059 0.48979172 -0.14880541
-0.9012876 1.8654304 -0.76454353 0.52656895 -0.20020239 -1.5400414 1.2223928 0.08384094
0.14015502 -2.1787066 -1.3336048 1.6324387 -1.6363981 0.6020186 0.55562055 -1.5607303
-0.56255686 2.8346307 0.21013074 -2.9271784 0.9606103 -1.9765851 1.8324057 -2.473321
00000000: 9e9b 613f 8220 10bf 1b1b a4bf c5a4 9d3f
00000010: c5f6 81bf 9283 c03f 895e babe 7f39 d0bf
00000020: a895 47bf 60f2 70bf 8d9a cbbd f184 813f
00000030: 1755 053f 0cee 0a40 8cc6 d5bf 74c6 ba3f
00000040: 7af0 6cbe 06cb 83be 043e 4040 b233 26c0
00000050: de03 29bf b922 3ebf a5a9 8c3f b089 a9bf
00000060: eb88 0d40 6842 0f40 1634 b23f 9e1b e53c
00000070: 5cb4 aa3f d276 61bf 8743 3abf ffec 653e
00000080: a6c0 82be 263a 723f be69 d8bf 6f39 e0bf
00000090: 4921 183f 4b55 2840 fbc5 fa3e 7260 18be
000000a0: c9ba 66bf 6cc6 ee3f 20b9 43bf 39cd 063f
000000b0: db01 4dbe 1420 c5bf 5e77 9c3f ccb4 ab3d
000000c0: cc84 0f3e ee6f 0bc0 90b3 aabf c0f3 d03f
000000d0: 7e75 d1bf e41d 1a3f 263d 0e3f 03c6 c7bf
000000e0: ba03 10bf 976a 3540 832c 573e e456 3bc0
000000f0: 8eea 753f be00 fdbf 458c ea3f e44a 1ec0

fc2.0.weight f4 [10, 64]
-0.072038725 -0.32268953 0.3127186 0.25181845 0.3381749 -0.30590475 -0.27798024 -0.105276555
0.02863919 0.06788471 -0.09062563 -0.23403154 0.35094637 0.18686213 -0.100373276 -0.17045234
-0.09511995 0.00074337405 0.032297067 -0.4391514 0.38287535 -0.5319617 -0.38901135 0.26759908
0.241706 -0.18627626 -0.2232417 -0.5648655 -0.006975421 -0.38303757 0.14755051 -0.5175193
0.059521653 -0.033518095 0.18298969 0.16460393 -0.0037836535 0.112564035 -0.294825 -0.44530174
-0.5250774 -0.24667132 -0.16186653 -0.06892483 0.22983567 0.009842683 0.35948956 0.2282164
-0.13724552 -0.06496441 0.204889 0.25321445 0.2212484 -0.1067023 0.38846716 0.17026125
0.25333798 -0.0137966275 -0.057857696 -0.18199517 0.25405508 0.06094688 0.043591965 0.35793117
0.28882673 0.23448668 -0.13384338 -0.60452366 -0.15018564 -0.19870502 -0.3315578 0.18730584
0.10228994 -0.0739622 0.4749995 0.2179751 -0.44254455 0.030199146 0.2735342 0.0039708195
-0.3973873 0.34270632 0.18030272 -0.0073592537 -0.14692265 0.15328954 0.28374386 0.17287001
0.43868914 0.25008595 -0.34354654 -0.38202834 -0.06148955 0.20164432 -0.10858875 -0.05350968
-0.05675274 -0.4394771 0.007466067 0.049347837 -0.06816172 0.090775646 0.07282243 -0.30848524
-0.4692808 -0.25095877 -0.057808325 0.3665721 0.069189735 -0.38712782 -0.28153017 -0.48827425
0.3081322 0.11615336 -0.5186428 -0.220427 -0.2713313 -0.46671626 -0.061460048 0.08418043
-0.028863914 -0.078279056 0.2978461 -0.098353736 -0.53129894 -0.17018983 0.21612838 -0.28461662
0.16944753 0.045972306 -0.09056885 -0.12754351 -0.67222637 0.3290705 -0.16826966 -0.096669935
-0.33561713 0.0016564458 -0.40410635 0.34208244 0.3845647 0.21221586 0.13125637 0.37706584
-0.09397351 -0.44318402 -0.2689062 -0.14688656 0.30176252 0.049986556 0.16232994 0.2607448
-0.38428405 0.07122048 -0.047263768 0.09786831 -0.27721694 0.096454315 -0.14532863 0.50739604
-0.0860051 0.23057638 -0.18724437 0.25791344 0.05145789 0.08827928 0.29017156 -0.41148576
-0.281979 -0.26622954 -0.45161444 -0.48574364 0.47235543 -0.098090656 -0.24104789 -0.3512877
-0.23691176 -0.06667651 0.18469071 -0.3180206 0.10388586 -0.49828362 -0.37741438 -0.0091178445
0.44211316 0.19319624 -0.46921635 -0.21716264 -0.4132039 -0.33836684 0.44076607 -0.03554049
0.12476808 -0.16891833 -0.4330848 -0.22573106 -0.19869652 0.2179374 0.14172354 0.25553304
0.49072516 -0.11138245 -0.59791094 -0.29128566 -0.23507182 -0.31711817 -0.2436432 0.34091446
-0.12957108 0.1079486 0.49721268 0.0081296405 -0.0098538445 0.10755151 0.30023855 0.03684861
-0.08076698 0.067330256 0.024237713 0.34139007 0.08518923 -0.2921558 0.2290708 0.007829065
0.21014485 -0.27663144 0.069949314 0.17208907 0.42634934 -0.2234133 0.045629967 -0.7560549
-0.13463779 0.055545345 -0.47160417 0.50354004 0.06166143 0.08409342 0.31936797 0.051741548
-0.4274511 0.05146835 -0.33946005 -0.19291046 0.31118435 -0.22810522 0.22291018 -0.049095683
0.29208878 0.09741773 -0.25527975 -0.5501335 0.25464746 -0.14619562 -0.14850023 0.36716264
00000000: 0a89 93bd 9037 a5be a71c a03e 59ee 803e
00000010: 4325 ad3e 8c9f 9cbe 6d53 8ebe 3c9b d7bd
00000020: bc9c ea3c 2407 8b3d ee99 b9bd f7a5 6fbe
00000030: 3eaf b33e c958 3f3e 8190 cdbd 0f8b 2ebe
00000040: 40ce c2bd fdde 423a ee49 043d 74d8 e0be
00000050: 3d08 c43e a42e 08bf 7f2c c7be bf02 893e
00000060: c781 773e 34bf 3ebe 7999 64be 079b 10bf
00000070: 1392 e4bb 801d c4be 7b17 173e 257c 04bf
00000080: facc 733d 454a 09bd a661 3b3e ef8d 283e
00000090: 2cf7 77bb f987 e63d 4df3 96be 97fe e3be
000000a0: 796b 06bf 6897 7cbe 57c0 25be 7628 8dbd
000000b0: 0b5a 6b3e 3443 213c 040f b83e 8fb1 693e
000000c0: 178a 0cbe 100c 85bd 6cce 513e 53a5 813e
000000d0: f18e 623e bc86 dabd 2be5 c63e f758 2e3e
000000e0: 84b5 813e 400b 62bc 31fc 6cbd f15c 3abe
000000f0: 8213 823e 70a3 793d 7d8d 323d c142 b73e
00000100: 19e1 933e 471d 703e 3d0e 09be 10c2 1abf
00000110: 44ca 19be 5479 4bbe f2c1 a9be 1acd 3f3e
00000120: 637d d13d 7e79 97bd 2233 f33e dd34 5f3e
00000130: 3395 e2be 3364 f73c ad0c 8c3e a61d 823b
00000140: 5976 cbbe 3477 af3e 47a1 383e e525 f1bb
00000150: e472 16be eff7 1c3e e046 913e d604 313e
00000160: dd9b e03e 440b 803e 55e5 afbe 3899 c3be
00000170: 77dc 7bbd d97b 4e3e c763 debd f72c 5bbd
00000180: 9075 68bd 2403 e1be e9a5 f43b f520 4a3d
00000190: 5f98 8bbd 95e8 b93d ed23 953d c7f1 9dbe
000001a0: 9345 f0be ab7d 80be 6cc8 6cbd 57af bb3e
000001b0: 59b3 8d3d 9e35 c6be b924 90be 15ff f9be
000001c0: 81c3 9d3e d0e1 ed3d c6c5 04bf 9eb7 61be
000001d0: f0eb 8abe 6ff5 eebe 88bd 7bbd ca66 ac3d
000001e0: 0474 ecbc c550 a0bd 497f 983e af6d c9bd
000001f0: 3503 08bf 3e46 2ebe c250 5d3e 45b9 91be
00000200: a783 2d3e 754d 3c3d 297c b9bd c49a 02be
00000210: 0717 2cbf ee7b a83e e24e 2cbe e3fa c5bd
00000220: 02d6 abbe 191d d93a 07e7 cebe 6e25 af3e
00000230: aae5 c43e 1d4f 593e 1268 063e c60e c13e
00000240: 2f75 c0bd 04e9 e2be 13ae 89be 6e69 16be
00000250: 9e80 9a3e b4be 4c3d d239 263e 5880 853e
00000260: e1c0 c4be 0bdc 913d a797 41bd 2e6f c83d
00000270: 61ef 8dbe d789 c53d 07d1 14be b5e4 013f
00000280: 7123 b0bd 371c 6c3e fdbc 3fbe 3b0d 843e
00000290: 82c5 523d c4cb b43d 5e91 943e 43ae d2be
000002a0: 8d5f 90be 3d4f 88be 023a e7be 64b3 f8be
000002b0: 92d8 f13e c1e3 c8bd 42d5 76be fbdb b3be
000002c0: ff98 72be b28d 88bd 901f 3d3e 99d3 a2be
000002d0: 1cc2 d43d 081f ffbe 753c c1be 0363 15bc
000002e0: a85c e23e 3cd5 453e 203d f0be e25f 5ebe
000002f0: 768f d3be 6b3e adbe 17ac e13e e892 11bd
00000300: 6886 ff3d edf8 2cbe 4abd ddbe 0b26 67be
00000310: 1a77 4bbe fb2a 5f3e fa1f 113e 3ad5 823e
00000320: 5440 fb3e 7b1c e4bd b110 19bf 6523 95be
00000330: abb6 70be 505d a2be 9a7d 79be 578c ae3e
00000340: 48ae 04be 2814 dd3d a992 fe3e 2f32 053c
00000350: 0572 21bc f743 dc3d deb8 993e 91ee 163d
00000360: 2969 a5bd 72e4 893d 2b8e c63c aeca ae3e
00000370: b177 ae3d 7295 95be 8991 6a3e 7b45 003c
00000380: 3630 573e a3a2 8dbe 9641 8f3d 1e38 303e
00000390: 764a da3e 75c6 64be 7de6 3a3d d08c 41bf
000003a0: 7dde 09be 8483 633d 1a76 f1be 00e8 003f
000003b0: b290 7c3d 2c39 ac3d 3384 a33e f2ee 533d
000003c0: dfda dabe 7ad0 523d b5cd adbe 528a 45be
000003d0: 8e53 9f3e 6a94 69be 9142 643e 8e18 49bd
000003e0: a98c 953e f282 c73d 07b4 82be 8dd5 0cbf
000003f0: 2761 823e 4eb4 15be 7210 18be befc bb3e

fc2.0.bias f4 [10]
0.4192373 2.1742768 0.14913176 -0.6777047 -0.5836003 1.035382 -1.2246598 0.19252908
-1.8811283 -2.101943
00000000: 45a6 d63e 5a27 0b40 ffb5 183e 0e7e 2dbf
00000010: d466 15bf 6687 843f a7c1 9cbf 5826 453e
00000020: d0c8 f0bf 3c86 06c0
