callbacks/05-22-2022_20-04-48/models/epoch_5.pt (torch, 205087 bytes, 4 tensors)

fc1.1.weight f4 [64, 784]
000000 8a e3 36 bc 58 ab 32 3c 50 9f ee 3b f0 df d1 bc
       -0.011162648 0.010905109 0.007282175 -0.025619477
000010 97 f8 01 3d 54 f2 c9 bb 06 2f fb 3c e0 71 73 bc
       0.031731214 -0.006162921 0.030662071 -0.014858693
000020 bf a8 04 bd 12 ee fc 3c 9c 1b a9 3c 0e b1 d5 bc
       -0.03238749 0.03087524 0.020643048 -0.026085403
000030 30 14 bb bb 63 b4 00 bd 09 7f 09 3d 3c 1c 8a 3c
       -0.0057091936 -0.03142203 0.033568416 0.016859166
000040 f6 2e e7 3c ea 14 a6 3c f7 33 03 3d 00 90 b1 b7
       0.028220635 0.020273644 0.03203198 -2.11671e-05
000050 b2 69 80 3c 78 2a b3 bb 33 02 96 bc f0 03 9f bc
       0.0156754 -0.005467709 -0.018311596 -0.019411057
000060 9c d8 b6 bc 6e 4f 56 bc f3 27 aa bc da 6c c8 bc
       -0.022320084 -0.013080461 -0.020771002 -0.024465967
000070 cc 75 c4 3c 50 2e d8 3c b8 38 70 bc 89 25 01 3d
       0.023981951 0.026389271 -0.01466196 0.031529937
000080 1a c5 be 3c e5 af ac bc e3 7a 04 3d c0 da 6b ba
       0.023287345 -0.021079967 0.032343756 -0.0008997135
000090 60 b5 76 bb 24 b4 01 bd 28 e4 2c 3c b4 88 0b bd
       -0.003764473 -0.031665936 0.010552444 -0.034065917
0000a0 92 a8 18 bc 78 24 c8 bb 2e 6a ae 3c 98 30 1b 3c
       -0.009317534 -0.006107863 0.021290865 0.009472035
0000b0 30 cb d1 3b 80 47 41 3b 0c 6a bf 3c c4 28 00 bc
       0.0064023957 0.002949208 0.023365997 -0.007822219
0000c0 4e 4f 51 bc 4a c0 12 bc ee 86 d4 3c b3 78 9b bc
       -0.012775255 -0.008956978 0.025943246 -0.018978452
0000d0 06 6a 63 bc 80 19 32 bc d0 88 a1 3b 90 99 3f 3b
       -0.013880258 -0.0108703375 0.0049296394 0.0029235817
0000e0 ae e1 3d bc 7f c8 0e bd 7d 3b 10 3d dc bd d5 bc
       -0.011589451 -0.034859177 0.035212982 -0.026091509
0000f0 04 ae 2d 3c 1c 08 9e bb 20 7b 5e 3c ea b1 1e bc
       0.010600571 -0.004822744 0.01357916 -0.009685973
000100 08 d5 cc bc 2e 07 26 bc 0e 9e fb bc 10 b8 9f 3c
       -0.025003925 -0.010133548 -0.030715015 0.019496948
000110 6f 4f 04 3d e5 63 ae bc b1 18 0a 3d 60 3c ca 3a
       0.032302316 -0.021287868 0.033714954 0.001542937
000120 08 7e ad bb 84 35 19 3c ca ae 58 bc 4a 72 00 bd
       -0.005294565 0.009351138 -0.013225267 -0.031358995
000130 2a 8e fb 3c 18 d2 9e 3c 88 66 0b bd c0 58 1e 3a
       0.030707438 0.01938729 -0.03403333 0.00060404465
000140 fa ca 86 bc 6c 3f 80 3c f2 a8 2e bc 10 e0 87 bc
       -0.016454209 0.015655242 -0.010660397 -0.016586334
000150 14 5a 58 3c 98 b4 05 3c 80 c5 d2 3c b0 7f 98 bc
       0.01320507 0.008160733 0.025728941 -0.018615574
000160 98 4a 94 3c 03 3c ab bc a4 a5 d5 bb 30 87 b5 bc
       0.018101975 -0.02090264 -0.00651999 -0.022159189
000170 42 89 ea 3c 49 d2 11 3d 4e cc c0 bc fe 16 f2 bc
       0.028629903 0.035600934 -0.02353492 -0.02955198
000180 c2 9b fa 3c c4 c4 06 bc 56 a1 9e 3c b1 70 0a 3d
       0.03059185 -0.0082256235 0.01936404 0.033798877
000190 bd 71 07 3d d4 6b 31 3c fd f4 05 bd 12 67 fe 3c
       0.033067454 0.010828931 -0.032704342 0.031055007
0001a0 32 0f 15 bc 10 dc d4 3c 62 6a 00 bd b0 5f 3f 3b
       -0.009097861 0.02598384 -0.031351455 0.0029201321
0001b0 1e 97 86 bc 97 b6 9e bc ee c5 bb bc 4f 69 0f bd
       -0.01642948 -0.019374175 -0.022921529 -0.03501254
0001c0 a8 09 94 3b 32 cb 48 bc fc 3a bd 3c 76 62 cf 3c
       0.0045177527 -0.012255477 0.023099415 0.025315505
0001d0 30 2c d8 bb 5e 90 d3 3c a6 b4 c6 3c e8 fe a4 bc
       -0.0065970644 0.025825676 0.024256062 -0.02014108
0001e0 ba ee 95 3c e4 35 2b 3c 39 e2 ee 3c 77 62 20 bb
       0.01830231 0.01044986 0.029160606 -0.0024472752
0001f0 79 8b 82 bc fa de 39 ba 77 52 aa bc d6 57 31 bc
       -0.015935646 -0.0007090416 -0.020791275 -0.010824164
000200 07 70 02 3d 5b 29 13 bd 9d 5d 42 bc 95 a0 c6 bc
       0.03184512 -0.03592811 -0.011863139 -0.024246493
000210 53 d3 71 3c ad 8c 0a bd 03 49 05 bd 80 0e c0 39
       0.014759856 -0.033825565 -0.032540333 0.00036631897
000220 20 1f 81 3c 38 6c 2a bc 62 1a 02 bd 12 37 44 bc
       0.015761912 -0.010401778 -0.03176344 -0.01197602
000230 a0 c1 50 3c 15 10 b0 bc 9e d7 04 bd db 27 1a bc
       0.012741476 -0.021492044 -0.03243219 -0.009408916
000240 fb 37 95 bb 5e b3 a8 bc 62 e4 00 3c ce e8 a3 bc
       -0.0045537925 -0.020593341 0.007866951 -0.02000847
000250 b4 9c f3 bc 1e eb 26 bd c1 5a d6 bb df 20 53 bc
       -0.029737808 -0.04075157 -0.0065415804 -0.012886255
000260 ad 65 c1 3c f1 c8 00 bc df f2 9c 3c c3 2c df 3c
       0.023608053 -0.007860408 0.019158779 0.027243024
000270 46 50 09 bd ff 52 ac 3c 36 25 02 bd 20 54 35 3c
       -0.03352382 0.02103567 -0.03177377 0.01106742
000280 38 30 2a 3c 70 52 39 bb 39 00 0a 3d 58 98 ae 3c
       0.010387473 -0.0028277896 0.03369162 0.021312878
000290 40 61 a1 bb 27 d3 89 bc fa 68 bf bc 5c 63 a0 bc
       -0.004924923 -0.016824318 -0.023365486 -0.019578628
0002a0 e7 a9 0a bd 22 ef c6 3c fe 11 e0 3c 6d 02 f9 bc
       -0.033853438 0.02428395 0.02735233 -0.030396665
0002b0 11 ae e9 3b f6 97 1c 3c a8 3f d1 3c 88 74 9b bc
       0.007131346 0.009557715 0.025543049 -0.018976465
0002c0 69 e7 5b ba 85 e8 93 3c 25 98 90 ba fd 04 14 3c
       -0.000838867 0.01805521 -0.0011031671 0.009034392
0002d0 c3 92 04 bd 8f 6e 30 bd ca cd 4f 3c 17 c4 63 bc
       -0.032366525 -0.043074187 0.012683341 -0.013901732
0002e0 0f 21 91 bc 87 b7 2e bd 77 bf 81 3c ff 5e ac bc
       -0.017715959 -0.042655494 0.015838368 -0.021041391
0002f0 27 43 14 bd 50 42 08 bd 10 94 2f bc de 28 99 bc
       -0.036196854 -0.033266366 -0.010716453 -0.018696245
000300 42 24 11 bd e4 95 0c bc a6 a4 1b bc aa 93 01 bd
       -0.03543497 -0.008580659 -0.009499704 -0.031634964
000310 b0 f4 04 3c 3a 3d eb 3c d7 59 8d bc 35 be 90 3c
       0.008114979 0.028715719 -0.017254753 0.017668823
000320 5f 0a a4 39 7a 94 5a bc ff 66 04 bd e8 4f 8f bc
       0.00031288245 -0.013341064 -0.032324787 -0.017494157
000330 c9 0b 48 3c 0d 0c 40 3c 0b bf 4c 3c ad 9d 62 3c
       0.012209841 0.011721623 0.01249672 0.013831538
000340 c2 e9 bf 3c 7d 44 d2 3a e8 a7 91 bc 19 3e b7 3c
       0.023426894 0.001604214 -0.01778026 0.022368478
000350 de d9 a4 bc 1c c1 63 bc 13 6d 60 bb 74 07 a9 bc
       -0.020123418 -0.013901021 -0.00342447 -0.020633437
000360 da 91 ad bc 40 3e 90 bc 58 70 b7 3b 98 c0 0a bb
       -0.021187712 -0.017607808 0.005598109 -0.0021171924
000370 e8 1e d2 3b 30 55 c8 bb c8 79 79 3c f7 2e 11 3d
       0.0064123757 -0.0061136708 0.015226789 0.03544518
000380 70 33 b1 3b f5 cd 05 bd ae b2 f7 3c 6a a6 96 3c
       0.005407743 -0.03266712 0.030236568 0.0183899
000390 d2 b9 13 bd db a9 0a bd b7 d4 00 bc 34 19 9a 3c
       -0.036065884 -0.033853393 -0.007863215 0.018810846
0003a0 69 03 51 3c 74 d4 fe bc 83 2b d7 bc bc 7c e8 bc
       0.012757161 -0.031107165 -0.026265865 -0.02837979
0003b0 e1 3d 82 3b ec 69 1e bd 24 b9 f8 bc 55 55 cd bb
       0.0039746617 -0.038675234 -0.03036172 -0.006266276
0003c0 6d b8 0b bc 0c 31 6c bb 0a 83 04 bd b1 38 9f bb
       -0.008527857 -0.0036039976 -0.03235153 -0.004859053
0003d0 c3 ee 99 3c 56 c4 15 3d a4 0e 51 ba 3b 74 06 bd
       0.018790608 0.036564194 -0.0007974899 -0.03282569
0003e0 0a 73 ff 3c 00 d5 f4 b9 d5 a4 b5 bc 74 26 2e 3c
       0.031182785 -0.00046698004 -0.022173325 0.010629285
0003f0 40 ef 79 3c 7c c6 a4 3c 7e 7a 00 bd 38 ff 79 bc
       0.015254796 0.020114176 -0.031366818 -0.015258603

fc1.1.bias f4 [64]
000000 a4 65 ec bc e8 83 97 3e 79 15 18 3e 9e 45 29 3c
       -0.02885706 0.29592824 0.14851941 0.010331539
000010 79 16 14 3f 9e 5e 60 bf b1 d4 10 be 0a 18 b5 3e
       0.5784679 -0.87644374 -0.14143635 0.35369903
000020 8a 65 72 be 40 6d b5 3e 32 c8 24 3e 27 32 9c 3c
       -0.23671547 0.35434914 0.16091993 0.019066883
000030 8a 19 ed 3e f0 3f ca 3e 2b 71 a7 be 3f 2b af be
       0.46308547 0.39501905 -0.32703528 -0.34212682
000040 34 36 c8 bd fb 49 8a be ef 2e 0a 3e 78 ff e8 bc
       -0.097759634 -0.27009568 0.13494466 -0.02844213
000050 59 55 14 bf c9 de 0d be c7 70 49 3d 22 86 d7 3e
       -0.5794273 -0.13854517 0.04917982 0.42094523
000060 b9 2a 33 3e 27 2b f8 bd 35 49 97 3d 3f cd d3 3d
       0.17496766 -0.12117606 0.0738701 0.10341882
000070 3b 22 a2 be e7 af a0 3d 16 2e 3c 3d cb 67 21 be
       -0.3166674 0.07846051 0.04594239 -0.1576225
000080 b9 97 08 3f a0 55 ae 3e 9c a4 a9 3e 83 c6 b0 3a
       0.5335651 0.34049702 0.331334 0.0013486895
000090 e4 7b 63 3d 9e e9 69 be c9 5b 97 3c 92 fb 3b bf
       0.055538073 -0.22843024 0.018476384 -0.7343074
0000a0 62 19 04 3f 7a 1a f3 be 00 c6 28 3e 44 14 fd 3d
       0.5160123 -0.47481138 0.16481781 0.12357381
0000b0 f0 43 dd bc 91 b3 21 be e5 8a a6 bd 5e 79 27 3f
       -0.027009934 -0.15791155 -0.08131961 0.65419567
0000c0 8e ba 5f be 3e e1 ca be 66 58 44 be 0f 61 04 bf
       -0.21848509 -0.3962497 -0.19174346 -0.517106
0000d0 33 e3 82 3e bd da 02 3f 97 8f ec 3d 8a 3a 3e be
       0.25563964 0.5111502 0.11550825 -0.18577018
0000e0 d3 43 53 be 60 7d 27 3e 43 61 c9 bd 6e 98 9c 3e
       -0.20631342 0.1635642 -0.09833004 0.30585045
0000f0 5e 5b f1 bc 38 0d 95 3e cf aa 3e 3f fb 53 f2 3e
       -0.029462513 0.29111648 0.74479383 0.47329697

fc2.0.weight f4 [10, 64]
000000 4e 3b 0c bc 3e 2e 89 bf d8 83 61 bf 1d 7f 91 bf
       -0.008559061 -1.0717237 -0.880918 -1.1366917
000010 bf f5 db 3e 53 9d 6e 3d ce 63 ba bf 92 f6 bc 3e
       0.42960927 0.058255505 -1.4561708 0.36906868
000020 b4 f8 d7 3e 6f b6 66 3d 48 a7 f5 3e 7a 66 08 be
       0.42181933 0.056326326 0.47979188 -0.13320342
000030 74 a1 ec be 4f 12 37 3f 2a f0 3a 3e 97 99 0b 3e
       -0.4621693 0.7151231 0.18255678 0.13632809
000040 6b 43 89 3e ff 4b 64 3d 19 fe c9 3c 08 e9 82 bd
       0.26809248 0.055736538 0.024657296 -0.063921034
000050 65 41 fe 3e 56 bd d8 3d d4 bc 9f 3e 4c 7f 90 bf
       0.49659267 0.10582988 0.31198752 -1.1288848
000060 8f 8f 02 be 45 26 15 bf df 4a 33 be a7 8d 4b bf
       -0.12750076 -0.5826152 -0.1750903 -0.7951302
000070 79 cb 5b bf 27 c6 a9 3e b5 69 0d 3e 85 1c 85 3e
       -0.8585735 0.3315899 0.13809855 0.2599832
000080 9d 5d c8 3e 23 8a 3e bf 4e fc 41 be f7 25 d4 be
       0.3913392 -0.7442953 -0.18943903 -0.41435215
000090 a2 12 a9 3e 95 e1 20 bf 83 e0 c8 bd 71 31 aa 3c
       0.33022028 -0.6284421 -0.09808447 0.020775529
0000a0 b0 df cb bf b8 4d da 3e ca 42 18 3e d5 a1 14 c0
       -1.5927639 0.4263742 0.14869228 -2.3223774
0000b0 07 e0 05 bd 57 f1 c5 3e ea f7 27 3f c7 e8 0b 3e
       -0.032684352 0.3866069 0.6561266 0.13663016
0000c0 c2 82 3a bf 74 1f 3f be ff 9d 73 bf 66 aa 1b bf
       -0.7285577 -0.18664342 -0.9516296 -0.6080688
0000d0 86 21 c3 bd d5 d5 a0 bf 07 4c 95 3b d3 21 85 3e
       -0.095278785 -1.2565256 0.0045561823 0.26002368
0000e0 55 ca 86 bd cc 5c 01 3e 97 fe 6e 3e d7 0f cc 3e
       -0.065815605 0.12633055 0.23339306 0.39855835
0000f0 96 25 d0 3e 68 7e 89 bf 17 25 f3 be 31 b0 ca 3e
       0.40653676 -1.0741701 -0.47489235 0.39587548
000100 cd 47 c0 bc a8 4b e5 3e 54 99 29 be 42 28 0f 3f
       -0.023471737 0.44784284 -0.16562396 0.55920804
000110 0e 3a c3 be 46 d7 96 3e d9 fc 83 3d 11 f7 8f 3f
       -0.3813023 0.29461116 0.06444711 1.1247274
000120 06 04 f3 be a4 2e 14 3e 1f 25 cf bf ca e9 b6 3e
       -0.47464007 0.14470917 -1.6183203 0.35725242
000130 ce d9 27 3e 4d 2e 53 bf d1 ca cf be 38 b1 13 bf
       0.1639168 -0.82492524 -0.40584424 -0.5769229
000140 de 9d d0 bd d9 c1 da be bf 66 06 3f e8 13 19 bd
       -0.10186361 -0.4272602 0.5250053 -0.0373725
000150 ce 14 9f bf 06 66 fa 3d ea 00 34 bf f0 6c f6 be
       -1.2428224 0.12226491 -0.70313895 -0.48129988
000160 b2 02 ca bc 3a 60 24 bf 01 89 e5 3e 3a 6b 0e bf
       -0.024659488 -0.6420933 0.44831088 -0.55632365
000170 ae 69 9e 3e 19 64 a6 bf a9 9d 27 3f 3f f1 34 3e
       0.30940002 -1.2999297 0.65474945 0.17670153
000180 59 b8 a3 bf 86 d2 33 3f 7f 49 55 bf 5e 0a 01 3e
       -1.2790633 0.7024311 -0.8331527 0.12601611
000190 53 3e 42 bf b6 9e 02 3f 96 ba c6 3c 08 66 b6 bf
       -0.7587635 0.51023424 0.024258893 -1.4249887
0001a0 87 3e 73 3d 52 48 54 3e 73 6b 7d 3e 85 5b 88 3e
       0.059385803 0.20730713 0.2474802 0.26632324
0001b0 f7 fd 65 bd dc 1f ba bf b9 2c b1 3e d6 cc b1 3e
       -0.056150403 -1.4540973 0.34604433 0.3472659
0001c0 da 33 bc be 50 21 77 bf 97 ae 7a 3d 94 4f 3f 3e
       -0.3675831 -0.96535206 0.061201658 0.186827
0001d0 fe 8d b1 bf d1 9b 8a bf de 43 99 be 5f 2a 5a bf
       -1.3871458 -1.0828801 -0.2993459 -0.85220903
0001e0 a8 18 40 3e 74 7a 5c 3f 17 f6 90 bf 9d 60 33 3f
       0.18759406 0.8612435 -1.1325101 0.70069295
0001f0 1d 71 a8 3e 14 f7 c7 3e c4 b2 f2 be 8e 75 61 3e
       0.328988 0.39055693 -0.47402012 0.220175
000200 ae ac 78 bd 7b fe 2b 3f a4 52 1a 3e c5 05 a5 3f
       -0.060711555 0.6718518 0.15070587 1.2892386
000210 bb 37 0a 3f e0 67 e8 3e 97 2a 3f bf 24 1a 0c 3e
       0.5399129 0.4539175 -0.7467436 0.13681847
000220 5a 8e c2 3e 1b 49 d7 bf a0 8f 40 be 43 79 14 3e
       0.3799923 -1.6819185 -0.18804789 0.14499383
000230 e6 64 19 3f df 70 ad 3c dd ca 16 be 45 ea 99 bc
       0.59919584 0.021171985 -0.14725824 -0.018788466
000240 f7 46 2b 3e 7b b3 04 3e a3 e0 e5 be 97 4d 69 bc
       0.1672629 0.12959091 -0.44897947 -0.01423969
000250 3d 42 86 3e dd ae 28 3e 38 51 3a 3e b9 11 31 bf
       0.2622241 0.16472955 0.18195045 -0.6916767
000260 c8 c5 f7 bf 98 56 9d 3e f7 d7 8b bf 79 10 8d bf
       -1.9357233 0.30730128 -1.0925282 -1.1020652
000270 44 90 ec 3d 5c a4 eb 3c 27 64 fe be 14 0e 16 3e
       0.11550954 0.028764896 -0.49685785 0.14653808
000280 44 aa c1 3e 86 b7 0b 3f b0 7b db bd a3 07 c0 bf
       0.37825215 0.5457691 -0.10716951 -1.500233
000290 1e f8 f7 3e 15 4b 61 3d 19 ec 59 3d f1 92 cc bd
       0.48431486 0.055003244 0.053203676 -0.09988964
0002a0 f3 61 ae be 4b ed 23 3e 1c 97 96 bf b7 d2 95 bf
       -0.34059104 0.16008489 -1.1764865 -1.170493
0002b0 13 4f 9a 3d 56 38 09 3f c1 50 00 3f a1 63 e6 3e
       0.075346135 0.53601587 0.5012322 0.44997886
0002c0 3a f1 b4 bd 58 b3 34 bd 14 47 35 3e 5e d6 79 3e
       -0.08835073 -0.044116348 0.17702895 0.24398181
0002d0 fa 38 85 3e 91 67 e2 3d b9 77 ea bd 9e 9d 13 3e
       0.26020032 0.1105491 -0.114486165 0.14415595
0002e0 d3 cb 1d 3e 96 22 43 bf 8f 35 10 be 16 11 0e bc
       0.15409784 -0.7622465 -0.14082931 -0.008671066
0002f0 06 d3 fc 3e 41 3e 2f 3e b6 96 5c be a4 29 9a bf
       0.49379748 0.17113592 -0.21541867 -1.2043958
000300 7c 65 f3 3d 5c 3d 91 3d c5 72 2f be d2 11 29 bd
       0.11884591 0.070917815 -0.17133625 -0.04127676
000310 d1 c5 5e 3d 77 46 33 3d 22 94 28 3d c8 f7 26 be
       0.05438787 0.043768372 0.041156895 -0.16305459
000320 43 68 2d 3d f0 7d 7b 3d e8 cb 58 3d f0 2d 4d 3d
       0.04233576 0.0613994 0.052928835 0.050092638
000330 f7 ae 44 bd 2c ce 00 bb 74 b2 90 bd 83 55 a2 bd
       -0.048018422 -0.0019654138 -0.07065287 -0.07926466
000340 cf f2 9c bc ca 87 99 bd df bc 60 bd fe f2 a2 3d
       -0.019158749 -0.07496603 -0.05486762 0.07956503
000350 c8 b2 f4 bb 90 3d 71 3c 2b 9f 13 3c 7d ce ff bd
       -0.0074676014 0.01472415 0.009010117 -0.124905564
000360 cf 11 b3 bd 03 90 bc bc b9 fd b5 bd f5 b1 1d bd
       -0.08743631 -0.023017889 -0.088862844 -0.03849979
000370 b9 85 19 be fa c8 cb bd bb 94 38 bc 2d 37 ca bd
       -0.14992417 -0.099504426 -0.011265929 -0.09873805
000380 97 b0 29 bc c3 6d ae bd 86 81 b6 bc 3c 45 da bd
       -0.010357044 -0.08517029 -0.022278558 -0.10657737
000390 fc 71 b0 bd 56 45 70 3c ac 82 87 3c 1e 7f 87 bd
       -0.08615491 0.0146649685 0.016541801 -0.066160426
0003a0 1a 3a ad b9 4c 17 6c bd 68 bb 5c bd 58 ff 02 bc
       -0.0003304042 -0.057639405 -0.053889662 -0.007995449
0003b0 d1 da e4 bd e4 b0 72 bc 96 41 12 be 55 03 2d bd
       -0.111745484 -0.014812682 -0.14282832 -0.042239506
0003c0 3e 6a 17 3d b3 58 18 be 51 a9 60 bd 68 49 cb bd
       0.036966555 -0.14877586 -0.054848973 -0.099261105
0003d0 22 51 a1 bc de f3 02 be 1a b1 7d bd 5b ae f5 bd
       -0.019692007 -0.1278834 -0.061936475 -0.11996146
0003e0 54 3c 42 be f1 ec a2 bd d2 b9 c2 bd 54 4e 0b bd
       -0.18968326 -0.07955349 -0.09508099 -0.034010246
0003f0 a2 14 ed bd 14 95 a1 bd f8 41 02 be 29 18 0d 3a
       -0.11576201 -0.078897625 -0.12720478 0.0005382323

fc2.0.bias f4 [10]
000000 e6 2f a3 bd e8 b6 f8 3e 3c 16 15 3e 47 0e 3b be
       -0.0796812 0.48577046 0.14559263 -0.18267165
000010 4c f4 0e 3f 67 be 06 3f cc 13 90 3e 0e 03 bc 3d
       0.5584152 0.5263428 0.28140104 0.0918027
000020 0e de 0f 3f 58 4a b4 3e
       0.56198204 0.3521297
