callbacks/05-22-2022_20-04-48/models/epoch_1.pt (torch, 205087 bytes, 4 tensors)

fc1.1.weight f4 [64, 784]
-0.011162648 0.010905109 0.007282175 -0.025619477 0.031731214 -0.006162921 0.030662071 -0.014858693
-0.03238749 0.03087524 0.020643048 -0.026085403 -0.0057091936 -0.03142203 0.033568416 0.016859166
0.028220635 0.020273644 0.03203198 -2.11671e-05 0.0156754 -0.005467709 -0.018311596 -0.019411057
-0.022320084 -0.013080461 -0.020771002 -0.024465967 0.023981951 0.026389271 -0.01466196 0.031529937
0.023287345 -0.021079967 0.032343756 -0.0008997135 -0.003764473 -0.031665936 0.010552444 -0.034065917
-0.009317534 -0.006107863 0.021290865 0.009472035 0.0064023957 0.002949208 0.023365997 -0.007822219
-0.012775255 -0.008956978 0.025943246 -0.018978452 -0.013880258 -0.0108703375 0.0049296394 0.0029235817
-0.011589451 -0.034859177 0.035212982 -0.026091509 0.010600571 -0.004822744 0.01357916 -0.009685973
-0.025003925 -0.010133548 -0.030715015 0.019496948 0.032302316 -0.021287868 0.033714954 0.001542937
-0.005294565 0.009351138 -0.013225267 -0.031358995 0.030707438 0.01938729 -0.03403333 0.00060404465
-0.016454209 0.015655242 -0.010660397 -0.016586334 0.01320507 0.008160733 0.025728941 -0.018615574
0.018101975 -0.02090264 -0.00651999 -0.022159189 0.028629903 0.035600934 -0.02353492 -0.02955198
0.03059185 -0.0082256235 0.01936404 0.033798877 0.033067454 0.010828931 -0.032704342 0.031055007
-0.009097861 0.02598384 -0.031351455 0.0029201321 -0.01642948 -0.019374175 -0.022921529 -0.03501254
0.0045177527 -0.012255477 0.023099415 0.025315505 -0.0065970644 0.025825676 0.024256062 -0.02014108
0.01830231 0.01044986 0.029160606 -0.0024472752 -0.015935646 -0.0007090416 -0.020791275 -0.010824164
0.03184512 -0.03592811 -0.011863139 -0.024246493 0.014759856 -0.033825565 -0.032540333 0.00036631897
0.015761912 -0.010401778 -0.03176344 -0.01197602 0.012741476 -0.021492044 -0.03243219 -0.009408916
-0.0045537925 -0.020593341 0.007866951 -0.02000847 -0.029737808 -0.04075157 -0.0065415804 -0.012886255
0.023608053 -0.007860408 0.019158779 0.027243024 -0.03352382 0.02103567 -0.03177377 0.01106742
0.010387473 -0.0028277896 0.03369162 0.021312878 -0.004924923 -0.016824318 -0.023365486 -0.019578628
-0.033853438 0.02428395 0.02735233 -0.030396665 0.007131346 0.009557715 0.025543049 -0.018976465
-0.000838867 0.01805521 -0.0011031671 0.009034392 -0.032366525 -0.043074187 0.012683341 -0.013901732
-0.017715959 -0.042655494 0.015838368 -0.021041391 -0.036196854 -0.033266366 -0.010716453 -0.018696245
-0.03543497 -0.008580659 -0.009499704 -0.031634964 0.008114979 0.028715719 -0.017254753 0.017668823
0.00031288245 -0.013341064 -0.032324787 -0.017494157 0.012209841 0.011721623 0.01249672 0.013831538
0.023426894 0.001604214 -0.01778026 0.022368478 -0.020123418 -0.013901021 -0.00342447 -0.020633437
-0.021187712 -0.017607808 0.005598109 -0.0021171924 0.0064123757 -0.0061136708 0.015226789 0.03544518
0.005407743 -0.03266712 0.030236568 0.0183899 -0.036065884 -0.033853393 -0.007863215 0.018810846
0.012757161 -0.031107165 -0.026265865 -0.02837979 0.0039746617 -0.038675234 -0.03036172 -0.006266276
-0.008527857 -0.0036039976 -0.03235153 -0.004859053 0.018790608 0.036564194 -0.0007974899 -0.03282569
0.031182785 -0.00046698004 -0.022173325 0.010629285 0.015254796 0.020114176 -0.031366818 -0.015258603
00000000: 8ae3 36bc 58ab 323c 509f ee3b f0df d1bc
00000010: 97f8 013d 54f2 c9bb 062f fb3c e071 73bc
00000020: bfa8 04bd 12ee fc3c 9c1b a93c 0eb1 d5bc
00000030: 3014 bbbb 63b4 00bd 097f 093d 3c1c 8a3c
00000040: f62e e73c ea14 a63c f733 033d 0090 b1b7
00000050: b269 803c 782a b3bb 3302 96bc f003 9fbc
00000060: 9cd8 b6bc 6e4f 56bc f327 aabc da6c c8bc
00000070: cc75 c43c 502e d83c b838 70bc 8925 013d
00000080: 1ac5 be3c e5af acbc e37a 043d c0da 6bba
00000090: 60b5 76bb 24b4 01bd 28e4 2c3c b488 0bbd
000000a0: 92a8 18bc 7824 c8bb 2e6a ae3c 9830 1b3c
000000b0: 30cb d13b 8047 413b 0c6a bf3c c428 00bc
000000c0: 4e4f 51bc 4ac0 12bc ee86 d43c b378 9bbc
000000d0: 066a 63bc 8019 32bc d088 a13b 9099 3f3b
000000e0: aee1 3dbc 7fc8 0ebd 7d3b 103d dcbd d5bc
000000f0: 04ae 2d3c 1c08 9ebb 207b 5e3c eab1 1ebc
00000100: 08d5 ccbc 2e07 26bc 0e9e fbbc 10b8 9f3c
00000110: 6f4f 043d e563 aebc b118 0a3d 603c ca3a
00000120: 087e adbb 8435 193c caae 58bc 4a72 00bd
00000130: 2a8e fb3c 18d2 9e3c 8866 0bbd c058 1e3a
00000140: faca 86bc 6c3f 803c f2a8 2ebc 10e0 87bc
00000150: 145a 583c 98b4 053c 80c5 d23c b07f 98bc
00000160: 984a 943c 033c abbc a4a5 d5bb 3087 b5bc
00000170: 4289 ea3c 49d2 113d 4ecc c0bc fe16 f2bc
00000180: c29b fa3c c4c4 06bc 56a1 9e3c b170 0a3d
00000190: bd71 073d d46b 313c fdf4 05bd 1267 fe3c
000001a0: 320f 15bc 10dc d43c 626a 00bd b05f 3f3b
000001b0: 1e97 86bc 97b6 9ebc eec5 bbbc 4f69 0fbd
000001c0: a809 943b 32cb 48bc fc3a bd3c 7662 cf3c
000001d0: 302c d8bb 5e90 d33c a6b4 c63c e8fe a4bc
000001e0: baee 953c e435 2b3c 39e2 ee3c 7762 20bb
000001f0: 798b 82bc fade 39ba 7752 aabc d657 31bc
00000200: 0770 023d 5b29 13bd 9d5d 42bc 95a0 c6bc
00000210: 53d3 713c ad8c 0abd 0349 05bd 800e c039
00000220: 201f 813c 386c 2abc 621a 02bd 1237 44bc
00000230: a0c1 503c 1510 b0bc 9ed7 04bd db27 1abc
00000240: fb37 95bb 5eb3 a8bc 62e4 003c cee8 a3bc
00000250: b49c f3bc 1eeb 26bd c15a d6bb df20 53bc
00000260: ad65 c13c f1c8 00bc dff2 9c3c c32c df3c
00000270: 4650 09bd ff52 ac3c 3625 02bd 2054 353c
00000280: 3830 2a3c 7052 39bb 3900 0a3d 5898 ae3c
00000290: 4061 a1bb 27d3 89bc fa68 bfbc 5c63 a0bc
000002a0: e7a9 0abd 22ef c63c fe11 e03c 6d02 f9bc
000002b0: 11ae e93b f697 1c3c a83f d13c 8874 9bbc
000002c0: 69e7 5bba 85e8 933c 2598 90ba fd04 143c
000002d0: c392 04bd 8f6e 30bd cacd 4f3c 17c4 63bc
000002e0: 0f21 91bc 87b7 2ebd 77bf 813c ff5e acbc
000002f0: 2743 14bd 5042 08bd 1094 2fbc de28 99bc
00000300: 4224 11bd e495 0cbc a6a4 1bbc aa93 01bd
00000310: b0f4 043c 3a3d eb3c d759 8dbc 35be 903c
00000320: 5f0a a439 7a94 5abc ff66 04bd e84f 8fbc
00000330: c90b 483c 0d0c 403c 0bbf 4c3c ad9d 623c
00000340: c2e9 bf3c 7d44 d23a e8a7 91bc 193e b73c
00000350: ded9 a4bc 1cc1 63bc 136d 60bb 7407 a9bc
00000360: da91 adbc 403e 90bc 5870 b73b 98c0 0abb
00000370: e81e d23b 3055 c8bb c879 793c f72e 113d
00000380: 7033 b13b f5cd 05bd aeb2 f73c 6aa6 963c
00000390: d2b9 13bd dba9 0abd b7d4 00bc 3419 9a3c
000003a0: 6903 513c 74d4 febc 832b d7bc bc7c e8bc
000003b0: e13d 823b ec69 1ebd 24b9 f8bc 5555 cdbb
000003c0: 6db8 0bbc 0c31 6cbb 0a83 04bd b138 9fbb
000003d0: c3ee 993c 56c4 153d a40e 51ba 3b74 06bd
000003e0: 0a73 ff3c 00d5 f4b9 d5a4 b5bc 7426 2e3c
000003f0: 40ef 793c 7cc6 a43c 7e7a 00bd 38ff 79bc

fc1.1.bias f4 [64]
-0.02885706 0.25919256 0.14708821 0.04217678 0.5858691 -0.80214775 -0.20554985 0.3108545
-0.19217187 0.36173403 0.16637905 0.046798043 0.37486658 0.3280394 -0.23544152 -0.28746313
-0.06795142 -0.25353906 0.1415562 -0.02844213 -0.44554132 -0.11020472 0.022656063 0.4432614
0.17252924 -0.11843447 0.070252106 0.12881002 -0.28422496 0.11620737 0.0372162 -0.17263477
0.5106796 0.2964792 0.32490578 0.03248497 0.021218902 -0.20871434 0.018476384 -0.6634453
0.5049911 -0.44231823 0.18705572 0.1370371 -0.027009934 -0.14876159 -0.059189565 0.57749647
-0.19296734 -0.35449618 -0.13586703 -0.4786853 0.22154021 0.43636838 0.103819706 -0.14934002
-0.18645455 0.14971541 -0.06826309 0.25064287 0.0016788119 0.2966432 0.6778187 0.4637275
00000000: a465 ecbc e3b4 843e 4b9e 163e 8fc1 2c3d
00000010: 84fb 153f 8e59 4dbf a97b 52be 5228 9f3e
00000020: b4c8 44be 3435 b93e 455f 2a3e 4eaf 3f3d
00000030: 83ee bf3e c8f4 a73e 9517 71be 5e2e 93be
00000040: 1d2a 8bbd dfcf 81be 1cf4 103e 78ff e8bc
00000050: fe1d e4be 03b3 e1bd 3599 b93c 29f3 e23e
00000060: 81ab 303e c58d f2bd 56e0 8f3d c6e6 033e
00000070: ef85 91be 21fe ed3d 0470 183d 2bc7 30be
00000080: e6bb 023f 1fcc 973e 0d5a a63e f60e 053d
00000090: 43d3 ad3c 36b9 55be c95b 973c 8dd7 29bf
000000a0: 1947 013f 8977 e2be 898b 3f3e 7453 0c3e
000000b0: f043 ddbc f554 18be c270 72bd cfd6 133f
000000c0: 3b99 45be 8680 b5be ba20 0bbe 3d16 f5be
000000d0: 70db 623e ad6b df3e 6d9f d43d 97ec 18be
000000e0: f1ed 3ebe ff4e 193e 85cd 8bbd 4354 803e
000000f0: 940b dc3a 9ee1 973e 8785 2d3f b16d ed3e

fc2.0.weight f4 [10, 64]
-0.008559061 -1.0424718 -0.8314572 -0.9860446 0.3984551 0.10824719 -1.2581148 0.41196507
0.41109538 0.0827582 0.41111338 -0.09619525 -0.45856023 0.6309073 0.17519957 0.08772371
0.29210523 0.1310938 -0.014970678 -0.063921034 0.46397236 0.067984045 0.28044668 -1.114329
-0.07259816 -0.5173083 -0.120216995 -0.7469503 -0.8118421 0.31397676 0.2294803 0.28686595
0.3700375 -0.74178976 -0.16293916 -0.3768558 0.27195653 -0.58388555 -0.09808447 0.034492414
-1.3865964 0.3862834 0.09427506 -2.0485122 -0.032684352 0.36637062 0.63495827 0.08054178
-0.6892534 -0.17344093 -0.78053236 -0.5787225 -0.11418142 -1.0900851 -0.015740346 0.19131981
-0.05965598 0.13422164 0.14631659 0.3496896 0.36427715 -1.0205889 -0.5255081 0.3639331
-0.023471737 0.42559734 -0.15852539 0.39693883 -0.34235847 0.21990876 0.1114973 1.0740293
-0.33540642 0.11949085 -1.4262997 0.42455608 0.09119951 -0.77232194 -0.38809952 -0.5439631
-0.1605434 -0.46145996 0.4472874 -0.0373725 -1.1607592 0.093765974 -0.56638795 -0.39671558
-0.020629218 -0.6275357 0.41546535 -0.40836406 0.28387117 -1.0843565 0.58052486 0.14093864
-1.1827514 0.5817479 -0.79970753 0.16874503 -0.7637161 0.48286352 0.024258893 -1.2923808
0.11150715 0.20999368 0.24223481 0.26347515 -0.056150403 -1.2976731 0.35214105 0.29379627
-0.2708141 -0.91595256 0.07926111 0.24644794 -1.3085992 -1.0235327 -0.14122087 -0.7820211
0.23697188 0.87363786 -1.0386237 0.6591148 0.2909496 0.33849204 -0.35172954 0.16676536
-0.060711555 0.6361796 0.22626908 1.2534631 0.52961004 0.42763266 -0.7402173 0.11782759
0.30523708 -1.5316055 -0.18915474 0.14015846 0.6051237 0.034706723 -0.18368146 0.0041387966
0.16285972 0.114945374 -0.3105313 -0.01423969 0.20671573 0.17990272 0.1712775 -0.667534
-1.8379043 0.23747167 -1.0046328 -1.1492178 0.18270563 -0.0029444417 -0.46498185 0.12548584
0.3580723 0.61853766 -0.1463622 -1.3683918 0.4292722 0.050721496 0.053203676 -0.09587519
-0.24538688 0.12762874 -0.9776503 -1.0969834 0.075346135 0.51286685 0.49502248 0.42994785
-0.12591346 -0.05109493 0.15949892 0.20741254 0.32488352 0.06919528 -0.100849755 0.1529193
0.12622003 -0.66282934 -0.14756423 -0.08615271 0.50298804 0.20384857 -0.13104045 -1.1081811
0.11884591 0.070917815 -0.17133625 -0.04127676 0.05438787 0.043768372 0.041156895 -0.16305459
0.04233576 0.0613994 0.052928835 0.050092638 -0.048018422 -0.0019654138 -0.07065287 -0.07926466
-0.019158749 -0.07496603 -0.05486762 0.07956503 -0.0074676014 0.01472415 0.009010117 -0.124905564
-0.08743631 -0.023017889 -0.088862844 -0.03849979 -0.14992417 -0.099504426 -0.011265929 -0.09873805
-0.010357044 -0.08517029 -0.022278558 -0.10657737 -0.08615491 0.0146649685 0.016541801 -0.066160426
-0.0003304042 -0.057639405 -0.053889662 -0.007995449 -0.111745484 -0.014812682 -0.14282832 -0.042239506
0.036966555 -0.14877586 -0.054848973 -0.099261105 -0.019692007 -0.1278834 -0.061936475 -0.11996146
-0.18968326 -0.07955349 -0.09508099 -0.034010246 -0.11576201 -0.078897625 -0.12720478 0.0005382323
00000000: 4e3b 0cbc b76f 85bf 61da 54bf 6b6d 7cbf
00000010: 4f02 cc3e b4b0 dd3d e809 a1bf 16ed d23e
00000020: 187b d23e 227d a93d 747d d23e 0402 c5bd
00000030: 68c8 eabe 2483 213f 8467 333e 7da8 b33d
00000040: d18e 953e 743d 063e 9347 75bc 08e9 82bd
00000050: c98d ed3e 383b 8b3d b596 8f3e 55a2 8ebf
00000060: 58ae 94bd 516e 04bf 5434 f6bd 2338 3fbf
00000070: e2d4 4fbf 90c1 a03e e2fc 6a3e 18e0 923e
00000080: 8e75 bd3e efe5 3dbf 86d9 26be 3ef3 c0be
00000090: e33d 8b3e 8679 15bf 83e0 c8bd eb47 0d3d
000000a0: fe7b b1bf f0c6 c53e 4813 c13d d31a 03c0
000000b0: 07e0 05bd ee94 bb3e a08c 223f 17f3 a43d
000000c0: e972 30bf 809a 31be f8d0 47bf 2827 14bf
000000d0: f3d7 e9bd e987 8bbf e6f1 80bc 57e9 433e
000000e0: d459 74bd 6671 093e 04d4 153e 840a b33e
000000f0: 8982 ba3e a8a2 82bf b387 06bf 7055 ba3e
00000100: cd47 c0bc e5e7 d93e 7b54 22be 913b cb3e
00000110: 9c49 afbe c32f 613e b258 e43d cb79 893f
00000120: 64ba abbe 9eb7 f43d fd90 b6bf 6a5f d93e
00000130: cfc6 ba3d e4b6 45bf fbb4 c6be 2a41 0bbf
00000140: 7d65 24be 7b44 ecbe db02 e53e e813 19bd
00000150: c293 94bf 6008 c03d cdfe 10bf 4e1e cbbe
00000160: 9bfe a8bc 2ea6 20bf e0b7 d43e 1815 d1be
00000170: 9057 913e 32cc 8abf 479d 143f 3852 103e
00000180: 6664 97bf 6eed 143f a2b9 4cbf 7fcb 2c3e
00000190: e682 43bf e339 f73e 96ba c63c bc6c a5bf
000001a0: dc5d e43d 9508 573e 670c 783e 37e6 863e
000001b0: f7fd 65bd 271a a6bf d54b b43e 776c 963e
000001c0: 25a8 8abe de7b 6abf a653 a23d d95c 7c3e
000001d0: 2e80 a7bf 1f03 83bf 349c 10be 8932 48bf
000001e0: c2a8 723e bba6 5f3f 9ff1 84bf bfbb 283f
000001f0: 59f7 943e d44e ad3e e515 b4be 8ac4 2a3e
00000200: aeac 78bd abdc 223f 15b3 673e 7b71 a03f
00000210: 8694 073f abf2 da3e e27e 3dbf 974f f13d
00000220: 0948 9c3e a60b c4bf c8b1 41be b385 0f3e
00000230: 63e9 1a3f a328 0e3d fe16 3cbe be9e 873b
00000240: b3c4 263e 7b68 eb3d f5fd 9ebe 974d 69bc
00000250: 4aad 533e 6b38 383e 5e63 2f3e 82e3 2abf
00000260: 7340 ebbf c62b 733e cf97 80bf 9219 93bf
00000270: 2f17 3b3e 89f7 40bb 1a12 eebe 5c7f 003e
00000280: 4155 b73e 7c58 1e3f f9df 15be 7627 afbf
00000290: 91c9 db3e 58c1 4f3d 19ec 593d 365a c4bd
000002a0: b346 7bbe 1cb1 023e 4a47 7abf f469 8cbf
000002b0: 134f 9a3d 3e4b 033f 9673 fd3e 2022 dc3e
000002c0: 75ef 00be eb48 51bd af53 233e f463 543e
000002d0: 2257 a63e 41b6 8d3d 518a cebd e196 1c3e
000002e0: d33f 013e 2faf 29bf 141b 17be d570 b0bd
000002f0: d3c3 003f aebd 503e 782f 06be e1d8 8dbf
00000300: 7c65 f33d 5c3d 913d c572 2fbe d211 29bd
00000310: d1c5 5e3d 7746 333d 2294 283d c8f7 26be
00000320: 4368 2d3d f07d 7b3d e8cb 583d f02d 4d3d
00000330: f7ae 44bd 2cce 00bb 74b2 90bd 8355 a2bd
00000340: cff2 9cbc ca87 99bd dfbc 60bd fef2 a23d
00000350: c8b2 f4bb 903d 713c 2b9f 133c 7dce ffbd
00000360: cf11 b3bd 0390 bcbc b9fd b5bd f5b1 1dbd
00000370: b985 19be fac8 cbbd bb94 38bc 2d37 cabd
00000380: 97b0 29bc c36d aebd 8681 b6bc 3c45 dabd
00000390: fc71 b0bd 5645 703c ac82 873c 1e7f 87bd
000003a0: 1a3a adb9 4c17 6cbd 68bb 5cbd 58ff 02bc
000003b0: d1da e4bd e4b0 72bc 9641 12be 5503 2dbd
000003c0: 3e6a 173d b358 18be 51a9 60bd 6849 cbbd
000003d0: 2251 a1bc def3 02be 1ab1 7dbd 5bae f5bd
000003e0: 543c 42be f1ec a2bd d2b9 c2bd 544e 0bbd
000003f0: a214 edbd 1495 a1bd f841 02be 2918 0d3a

fc2.0.bias f4 [10]
-0.026307715 0.45404413 0.16300231 -0.18267165 0.49683893 0.49976403 0.2640083 0.13030891
0.47706667 0.32771003
00000000: 4783 d7bc 7978 e83e 14ea 263e 470e 3bbe
00000010: ac61 fe3e 12e1 ff3e 192c 873e b36f 053e
00000020: 1542 f43e 9cc9 a73e
