callbacks/05-22-2022_20-04-48/models/epoch_4.pt (torch, 205087 bytes, 4 tensors)

fc1.1.weight f4 [64, 784]
0	0xbc36e38a	-0.011162648
1	0x3c32ab58	0.010905109
2	0x3bee9f50	0.007282175
3	0xbcd1dff0	-0.025619477
4	0x3d01f897	0.031731214
5	0xbbc9f254	-0.006162921
6	0x3cfb2f06	0.030662071
7	0xbc7371e0	-0.014858693
8	0xbd04a8bf	-0.03238749
9	0x3cfcee12	0.03087524
10	0x3ca91b9c	0.020643048
11	0xbcd5b10e	-0.026085403
12	0xbbbb1430	-0.0057091936
13	0xbd00b463	-0.03142203
14	0x3d097f09	0.033568416
15	0x3c8a1c3c	0.016859166
16	0x3ce72ef6	0.028220635
17	0x3ca614ea	0.020273644
18	0x3d0333f7	0.03203198
19	0xb7b19000	-2.11671e-05
20	0x3c8069b2	0.0156754
21	0xbbb32a78	-0.005467709
22	0xbc960233	-0.018311596
23	0xbc9f03f0	-0.019411057
24	0xbcb6d89c	-0.022320084
25	0xbc564f6e	-0.013080461
26	0xbcaa27f3	-0.020771002
27	0xbcc86cda	-0.024465967
28	0x3cc475cc	0.023981951
29	0x3cd82e50	0.026389271
30	0xbc7038b8	-0.01466196
31	0x3d012589	0.031529937
32	0x3cbec51a	0.023287345
33	0xbcacafe5	-0.021079967
34	0x3d047ae3	0.032343756
35	0xba6bdac0	-0.0008997135
36	0xbb76b560	-0.003764473
37	0xbd01b424	-0.031665936
38	0x3c2ce428	0.010552444
39	0xbd0b88b4	-0.034065917
40	0xbc18a892	-0.009317534
41	0xbbc82478	-0.006107863
42	0x3cae6a2e	0.021290865
43	0x3c1b3098	0.009472035
44	0x3bd1cb30	0.0064023957
45	0x3b414780	0.002949208
46	0x3cbf6a0c	0.023365997
47	0xbc0028c4	-0.007822219
48	0xbc514f4e	-0.012775255
49	0xbc12c04a	-0.008956978
50	0x3cd486ee	0.025943246
51	0xbc9b78b3	-0.018978452
52	0xbc636a06	-0.013880258
53	0xbc321980	-0.0108703375
54	0x3ba188d0	0.0049296394
55	0x3b3f9990	0.0029235817
56	0xbc3de1ae	-0.011589451
57	0xbd0ec87f	-0.034859177
58	0x3d103b7d	0.035212982
59	0xbcd5bddc	-0.026091509
60	0x3c2dae04	0.010600571
61	0xbb9e081c	-0.004822744
62	0x3c5e7b20	0.01357916
63	0xbc1eb1ea	-0.009685973
64	0xbcccd508	-0.025003925
65	0xbc26072e	-0.010133548
66	0xbcfb9e0e	-0.030715015
67	0x3c9fb810	0.019496948
68	0x3d044f6f	0.032302316
69	0xbcae63e5	-0.021287868
70	0x3d0a18b1	0.033714954
71	0x3aca3c60	0.001542937
72	0xbbad7e08	-0.005294565
73	0x3c193584	0.009351138
74	0xbc58aeca	-0.013225267
75	0xbd00724a	-0.031358995
76	0x3cfb8e2a	0.030707438
77	0x3c9ed218	0.01938729
78	0xbd0b6688	-0.03403333
79	0x3a1e58c0	0.00060404465
80	0xbc86cafa	-0.016454209
81	0x3c803f6c	0.015655242
82	0xbc2ea8f2	-0.010660397
83	0xbc87e010	-0.016586334
84	0x3c585a14	0.01320507
85	0x3c05b498	0.008160733
86	0x3cd2c580	0.025728941
87	0xbc987fb0	-0.018615574
88	0x3c944a98	0.018101975
89	0xbcab3c03	-0.02090264
90	0xbbd5a5a4	-0.00651999
91	0xbcb58730	-0.022159189
92	0x3cea8942	0.028629903
93	0x3d11d249	0.035600934
94	0xbcc0cc4e	-0.02353492
95	0xbcf216fe	-0.02955198
96	0x3cfa9bc2	0.03059185
97	0xbc06c4c4	-0.0082256235
98	0x3c9ea156	0.01936404
99	0x3d0a70b1	0.033798877
100	0x3d0771bd	0.033067454
101	0x3c316bd4	0.010828931
102	0xbd05f4fd	-0.032704342
103	0x3cfe6712	0.031055007
104	0xbc150f32	-0.009097861
105	0x3cd4dc10	0.02598384
106	0xbd006a62	-0.031351455
107	0x3b3f5fb0	0.0029201321
108	0xbc86971e	-0.01642948
109	0xbc9eb697	-0.019374175
110	0xbcbbc5ee	-0.022921529
111	0xbd0f694f	-0.03501254
112	0x3b9409a8	0.0045177527
113	0xbc48cb32	-0.012255477
114	0x3cbd3afc	0.023099415
115	0x3ccf6276	0.025315505
116	0xbbd82c30	-0.0065970644
117	0x3cd3905e	0.025825676
118	0x3cc6b4a6	0.024256062
119	0xbca4fee8	-0.02014108
120	0x3c95eeba	0.01830231
121	0x3c2b35e4	0.01044986
122	0x3ceee239	0.029160606
123	0xbb206277	-0.0024472752
124	0xbc828b79	-0.015935646
125	0xba39defa	-0.0007090416
126	0xbcaa5277	-0.020791275
127	0xbc3157d6	-0.010824164
128	0x3d027007	0.03184512
129	0xbd13295b	-0.03592811
130	0xbc425d9d	-0.011863139
131	0xbcc6a095	-0.024246493
132	0x3c71d353	0.014759856
133	0xbd0a8cad	-0.033825565
134	0xbd054903	-0.032540333
135	0x39c00e80	0.00036631897
136	0x3c811f20	0.015761912
137	0xbc2a6c38	-0.010401778
138	0xbd021a62	-0.03176344
139	0xbc443712	-0.01197602
140	0x3c50c1a0	0.012741476
141	0xbcb01015	-0.021492044
142	0xbd04d79e	-0.03243219
143	0xbc1a27db	-0.009408916
144	0xbb9537fb	-0.0045537925
145	0xbca8b35e	-0.020593341
146	0x3c00e462	0.007866951
147	0xbca3e8ce	-0.02000847
148	0xbcf39cb4	-0.029737808
149	0xbd26eb1e	-0.04075157
150	0xbbd65ac1	-0.0065415804
151	0xbc5320df	-0.012886255
152	0x3cc165ad	0.023608053
153	0xbc00c8f1	-0.007860408
154	0x3c9cf2df	0.019158779
155	0x3cdf2cc3	0.027243024
156	0xbd095046	-0.03352382
157	0x3cac52ff	0.02103567
158	0xbd022536	-0.03177377
159	0x3c355420	0.01106742
160	0x3c2a3038	0.010387473
161	0xbb395270	-0.0028277896
162	0x3d0a0039	0.03369162
163	0x3cae9858	0.021312878
164	0xbba16140	-0.004924923
165	0xbc89d327	-0.016824318
166	0xbcbf68fa	-0.023365486
167	0xbca0635c	-0.019578628
168	0xbd0aa9e7	-0.033853438
169	0x3cc6ef22	0.02428395
170	0x3ce011fe	0.02735233
171	0xbcf9026d	-0.030396665
172	0x3be9ae11	0.007131346
173	0x3c1c97f6	0.009557715
174	0x3cd13fa8	0.025543049
175	0xbc9b7488	-0.018976465
176	0xba5be769	-0.000838867
177	0x3c93e885	0.01805521
178	0xba909825	-0.0011031671
179	0x3c1404fd	0.009034392
180	0xbd0492c3	-0.032366525
181	0xbd306e8f	-0.043074187
182	0x3c4fcdca	0.012683341
183	0xbc63c417	-0.013901732
184	0xbc91210f	-0.017715959
185	0xbd2eb787	-0.042655494
186	0x3c81bf77	0.015838368
187	0xbcac5eff	-0.021041391
188	0xbd144327	-0.036196854
189	0xbd084250	-0.033266366
190	0xbc2f9410	-0.010716453
191	0xbc9928de	-0.018696245
192	0xbd112442	-0.03543497
193	0xbc0c95e4	-0.008580659
194	0xbc1ba4a6	-0.009499704
195	0xbd0193aa	-0.031634964
196	0x3c04f4b0	0.008114979
197	0x3ceb3d3a	0.028715719
198	0xbc8d59d7	-0.017254753
199	0x3c90be35	0.017668823
200	0x39a40a5f	0.00031288245
201	0xbc5a947a	-0.013341064
202	0xbd0466ff	-0.032324787
203	0xbc8f4fe8	-0.017494157
204	0x3c480bc9	0.012209841
205	0x3c400c0d	0.011721623
206	0x3c4cbf0b	0.01249672
207	0x3c629dad	0.013831538
208	0x3cbfe9c2	0.023426894
209	0x3ad2447d	0.001604214
210	0xbc91a7e8	-0.01778026
211	0x3cb73e19	0.022368478
212	0xbca4d9de	-0.020123418
213	0xbc63c11c	-0.013901021
214	0xbb606d13	-0.00342447
215	0xbca90774	-0.020633437
216	0xbcad91da	-0.021187712
217	0xbc903e40	-0.017607808
218	0x3bb77058	0.005598109
219	0xbb0ac098	-0.0021171924
220	0x3bd21ee8	0.0064123757
221	0xbbc85530	-0.0061136708
222	0x3c7979c8	0.015226789
223	0x3d112ef7	0.03544518
224	0x3bb13370	0.005407743
225	0xbd05cdf5	-0.03266712
226	0x3cf7b2ae	0.030236568
227	0x3c96a66a	0.0183899
228	0xbd13b9d2	-0.036065884
229	0xbd0aa9db	-0.033853393
230	0xbc00d4b7	-0.007863215
231	0x3c9a1934	0.018810846
232	0x3c510369	0.012757161
233	0xbcfed474	-0.031107165
234	0xbcd72b83	-0.026265865
235	0xbce87cbc	-0.02837979
236	0x3b823de1	0.0039746617
237	0xbd1e69ec	-0.038675234
238	0xbcf8b924	-0.03036172
239	0xbbcd5555	-0.006266276
240	0xbc0bb86d	-0.008527857
241	0xbb6c310c	-0.0036039976
242	0xbd04830a	-0.03235153
243	0xbb9f38b1	-0.004859053
244	0x3c99eec3	0.018790608
245	0x3d15c456	0.036564194
246	0xba510ea4	-0.0007974899
247	0xbd06743b	-0.03282569
248	0x3cff730a	0.031182785
249	0xb9f4d500	-0.00046698004
250	0xbcb5a4d5	-0.022173325
251	0x3c2e2674	0.010629285
252	0x3c79ef40	0.015254796
253	0x3ca4c67c	0.020114176
254	0xbd007a7e	-0.031366818
255	0xbc79ff38	-0.015258603

fc1.1.bias f4 [64]
0	0xbcec65a4	-0.02885706
1	0x3e8c038a	0.2734645
2	0x3e1a011f	0.1503949
3	0x3ce03df6	0.027373295
4	0x3f12db76	0.5736612
5	0xbf583f0f	-0.8447122
6	0xbe3a0dd2	-0.18169335
7	0x3eaa4fcb	0.33264002
8	0xbe64ce59	-0.2234434
9	0x3ebe68c0	0.37189293
10	0x3e2a564c	0.16634482
11	0x3ca976fc	0.020686619
12	0x3edd5c43	0.43234453
13	0x3ec6822d	0.3877119
14	0xbe97ab00	-0.2962265
15	0xbeac8b8e	-0.33700222
16	0xbd8992dc	-0.06717464
17	0xbe8d53bd	-0.2760295
18	0x3e07816a	0.13232961
19	0xbce8ff78	-0.02844213
20	0xbf0474ac	-0.5174053
21	0xbe0f7dc7	-0.14012824
22	0x3ce30ae7	0.02771516
23	0x3ed667e0	0.41876125
24	0x3e327a43	0.17429452
25	0xbdeb8ff6	-0.11502068
26	0x3d85ee73	0.06539621
27	0x3dcdeb81	0.100546844
28	0xbea05cd5	-0.31320825
29	0x3deccfc0	0.11563063
30	0x3da44309	0.080205984
31	0xbe2ef6e8	-0.17086375
32	0x3f0bd737	0.54625267
33	0x3ea4c9e0	0.32185268
34	0x3ea481b4	0.32130206
35	0x3a0a5b52	0.000527789
36	0x3c902918	0.01759772
37	0xbe65596d	-0.22397394
38	0x3c975bc9	0.018476384
39	0xbf34abeb	-0.70574826
40	0x3f029097	0.51001877
41	0xbefa4f32	-0.48888546
42	0x3e395aaa	0.18100992
43	0x3e042c09	0.12907423
44	0xbcdd43f0	-0.027009934
45	0xbe0647f2	-0.13113382
46	0xbd8e1852	-0.069382325
47	0x3f214585	0.62996703
48	0xbe596a02	-0.21231845
49	0xbec306f5	-0.38091245
50	0xbe29e5e9	-0.1659161
51	0xbefee4ae	-0.49783844
52	0x3e81141a	0.2521065
53	0x3ef8c6f3	0.48589286
54	0x3e0b92ba	0.1363019
55	0xbe3dd85a	-0.18539563
56	0xbe41898c	-0.18900126
57	0x3e20451d	0.15651365
58	0xbdbcb4ad	-0.09214149
59	0x3e9c6199	0.3054321
60	0xbcf0c6b7	-0.02939163
61	0x3e8e3a36	0.27778786
62	0x3f3b6976	0.73207796
63	0x3ee91a50	0.45527887

fc2.0.weight f4 [10, 64]
0	0xbc0c3b4e	-0.008559061
1	0xbf893c28	-1.0721483
2	0xbf600d02	-0.8751985
3	0xbf8c3c8d	-1.0955979
4	0x3ed01ec6	0.40648478
5	0x3dc4ccfa	0.09609409
6	0xbfb67777	-1.4255208
7	0x3eb2f2b7	0.34950802
8	0x3ee35d27	0.44407007
9	0x3d4bdf82	0.0497737
10	0x3eebd140	0.46058083
11	0xbe000153	-0.12500505
12	0xbef178b3	-0.471624
13	0x3f2be7f0	0.67150784
14	0x3e32724e	0.17426416
15	0x3dc24890	0.094864964
16	0x3e89308e	0.26794857
17	0x3d855b3e	0.06511544
18	0x3c721fb7	0.014778069
19	0xbd82e908	-0.063921034
20	0x3ef12748	0.47100282
21	0x3dc1a730	0.094557166
22	0x3e93c0c5	0.2885801
23	0xbf91c037	-1.1386784
24	0xbdea576c	-0.11442456
25	0xbf1598f4	-0.5843651
26	0xbe0613a2	-0.13093427
27	0xbf4fd78a	-0.8118826
28	0xbf544fcf	-0.8293428
29	0x3eac3f2c	0.33641946
30	0x3e4a9ae9	0.19785656
31	0x3e877832	0.2645889
32	0x3ed1aa99	0.40950468
33	0xbf3df09a	-0.74195254
34	0xbe08900a	-0.13336197
35	0xbed62534	-0.4182526
36	0x3ea51de5	0.3224937
37	0xbf21f12e	-0.63258636
38	0xbdc8e083	-0.09808447
39	0x3cc137d9	0.0235862
40	0xbfc38893	-1.5276054
41	0x3ee7be08	0.4526217
42	0x3e1e6de0	0.15471601
43	0xc00fef5f	-2.248985
44	0xbd05e007	-0.032684352
45	0x3eb0c352	0.34524018
46	0x3f1f7148	0.6228223
47	0x3df16f67	0.117888264
48	0xbf37ee17	-0.7184767
49	0xbe5d4053	-0.21606569
50	0xbf6a3c27	-0.91498035
51	0xbf265162	-0.6496793
52	0xbd9c5af1	-0.07634533
53	0xbf9c26c0	-1.2199326
54	0x3cb467ce	0.022022154
55	0x3e8ab3b1	0.2709022
56	0xbd447c56	-0.04797014
57	0x3de095b6	0.10966055
58	0x3e5663f2	0.20936564
59	0x3ec65ccb	0.3874267
60	0x3ed5baab	0.4174398
61	0xbf88cc84	-1.0687413
62	0xbeef7771	-0.46770814
63	0x3ee1a433	0.44070587
64	0xbcc047cd	-0.023471737
65	0x3ed98ae5	0.4248878
66	0xbde57aab	-0.11205038
67	0x3eef9231	0.46791223
68	0xbec32cad	-0.38120022
69	0x3e8be2aa	0.27321368
70	0x3dfeded6	0.12444846
71	0x3f8d2adf	1.1028708
72	0xbeebb86d	-0.46039143
73	0x3e17804f	0.1479504
74	0xbfc6044a	-1.5470059
75	0x3eb1d439	0.34732226
76	0x3e04a9b7	0.12955366
77	0xbf534c58	-0.82538366
78	0xbedf1a5f	-0.43574807
79	0xbf0e16dd	-0.55503637
80	0xbdd7a0a9	-0.1052869
81	0xbed6a696	-0.4192397
82	0x3efaadec	0.48960817
83	0xbd1913e8	-0.0373725
84	0xbf9dde31	-1.2333432
85	0x3ddda3aa	0.10822232
86	0xbf2b702b	-0.6696803
87	0xbee94936	-0.45563668
88	0xbbe97a41	-0.0071251695
89	0xbf1cceff	-0.6125335
90	0x3eeb7f4f	0.45995566
91	0xbeeb706c	-0.4598421
92	0x3e993f32	0.29931027
93	0xbf9dcf89	-1.232896
94	0x3f318e3a	0.69357646
95	0x3e1445ae	0.14479706
96	0xbf9fd653	-1.2487282
97	0x3f29f40d	0.66388017
98	0xbf51d09e	-0.8195895
99	0x3e006725	0.12539347
100	0xbf3e3509	-0.74299675
101	0x3f00b119	0.5027023
102	0x3cc6ba96	0.024258893
103	0xbfb635a2	-1.4235117
104	0x3ddf7f2c	0.10912928
105	0x3e5b6edd	0.2142901
106	0x3e745d63	0.23863749
107	0x3e967f9e	0.2939424
108	0xbd65fdf7	-0.056150403
109	0xbfb4076e	-1.4064767
110	0x3eb9fd71	0.36326173
111	0x3eafd1ee	0.3433985
112	0xbea57335	-0.32314458
113	0xbf797b57	-0.97453827
114	0x3d754222	0.059877522
115	0x3e6d94c3	0.2320128
116	0xbfac9b39	-1.348487
117	0xbf8f6a10	-1.1204243
118	0xbe6ff076	-0.23431572
119	0xbf50f5fe	-0.81625354
120	0x3e33f1fe	0.17572781
121	0x3f5ed88f	0.8704919
122	0xbf8dd9f0	-1.1082134
123	0x3f2e38fb	0.68055695
124	0x3eb2076e	0.34771293
125	0x3ebad5e9	0.36491325
126	0xbec820d9	-0.3908756
127	0x3e609ced	0.21934862
128	0xbd78acae	-0.060711555
129	0x3f3584ea	0.70905936
130	0x3e192a39	0.14957513
131	0x3fa8f787	1.3200539
132	0x3f0778b5	0.5291856
133	0x3ee1f5ef	0.44132945
134	0xbf43d41d	-0.76495534
135	0x3e3c36a6	0.18380222
136	0x3eb5b7b2	0.3549171
137	0xbfd44e96	-1.6586483
138	0xbe2d0620	-0.16896868
139	0x3e1e1b34	0.15440065
140	0x3f1b8f90	0.60765934
141	0x3d86f8e9	0.065904446
142	0xbe1c1bb5	-0.15244944
143	0x3ae418f4	0.0017402456
144	0x3e2bcadd	0.16776605
145	0x3e0cc054	0.13745242
146	0xbeced9f1	-0.4040065
147	0xbc694d97	-0.01423969
148	0x3e8a387d	0.26996222
149	0x3e198284	0.14991194
150	0x3e281396	0.16413721
151	0xbf39a634	-0.7251923
152	0xbff6f41f	-1.929325
153	0x3ea81435	0.32827917
154	0xbf8b0bc0	-1.0862961
155	0xbf9190ce	-1.1372316
156	0x3e0a0b71	0.13480927
157	0x3be26d57	0.006910007
158	0xbee65dee	-0.44993538
159	0x3e157076	0.14593682
160	0x3eba7bd8	0.3642261
161	0x3f114852	0.5675098
162	0xbdead58f	-0.11466514
163	0xbfbe2afd	-1.4856869
164	0x3ef0a0a9	0.46997574
165	0x3da7265c	0.08161613
166	0x3d59ec19	0.053203676
167	0xbddd195f	-0.10795855
168	0xbe9cc724	-0.30620682
169	0x3e377d6e	0.17918941
170	0xbf8e3a51	-1.1111547
171	0xbf944ed3	-1.1586555
172	0x3d9a4f13	0.075346135
173	0x3f135105	0.575455
174	0x3f03c602	0.5147401
175	0x3ee7fea8	0.45311475
176	0xbdc2b715	-0.095075764
177	0xbc8e6e62	-0.017386619
178	0x3e388752	0.1802037
179	0x3e5e6e5d	0.21721788
180	0x3e8a4fe2	0.2701407
181	0x3dd0ef6c	0.10201916
182	0xbe10cc74	-0.14140493
183	0x3e05d808	0.1307069
184	0x3e267471	0.16255356
185	0xbf4c077a	-0.7969891
186	0xbe11042c	-0.14161748
187	0xbcd33ca7	-0.025785757
188	0x3f01a214	0.50637937
189	0x3e1eecae	0.15519974
190	0xbe34e45d	-0.17665239
191	0xbf94ac65	-1.1615111
192	0x3df3657c	0.11884591
193	0x3d913d5c	0.070917815
194	0xbe2f72c5	-0.17133625
195	0xbd2911d2	-0.04127676
196	0x3d5ec5d1	0.05438787
197	0x3d334677	0.043768372
198	0x3d289422	0.041156895
199	0xbe26f7c8	-0.16305459
200	0x3d2d6843	0.04233576
201	0x3d7b7df0	0.0613994
202	0x3d58cbe8	0.052928835
203	0x3d4d2df0	0.050092638
204	0xbd44aef7	-0.048018422
205	0xbb00ce2c	-0.0019654138
206	0xbd90b274	-0.07065287
207	0xbda25583	-0.07926466
208	0xbc9cf2cf	-0.019158749
209	0xbd9987ca	-0.07496603
210	0xbd60bcdf	-0.05486762
211	0x3da2f2fe	0.07956503
212	0xbbf4b2c8	-0.0074676014
213	0x3c713d90	0.01472415
214	0x3c139f2b	0.009010117
215	0xbdffce7d	-0.124905564
216	0xbdb311cf	-0.08743631
217	0xbcbc9003	-0.023017889
218	0xbdb5fdb9	-0.088862844
219	0xbd1db1f5	-0.03849979
220	0xbe1985b9	-0.14992417
221	0xbdcbc8fa	-0.099504426
222	0xbc3894bb	-0.011265929
223	0xbdca372d	-0.09873805
224	0xbc29b097	-0.010357044
225	0xbdae6dc3	-0.08517029
226	0xbcb68186	-0.022278558
227	0xbdda453c	-0.10657737
228	0xbdb071fc	-0.08615491
229	0x3c704556	0.0146649685
230	0x3c8782ac	0.016541801
231	0xbd877f1e	-0.066160426
232	0xb9ad3a1a	-0.0003304042
233	0xbd6c174c	-0.057639405
234	0xbd5cbb68	-0.053889662
235	0xbc02ff58	-0.007995449
236	0xbde4dad1	-0.111745484
237	0xbc72b0e4	-0.014812682
238	0xbe124196	-0.14282832
239	0xbd2d0355	-0.042239506
240	0x3d176a3e	0.036966555
241	0xbe1858b3	-0.14877586
242	0xbd60a951	-0.054848973
243	0xbdcb4968	-0.099261105
244	0xbca15122	-0.019692007
245	0xbe02f3de	-0.1278834
246	0xbd7db11a	-0.061936475
247	0xbdf5ae5b	-0.11996146
248	0xbe423c54	-0.18968326
249	0xbda2ecf1	-0.07955349
250	0xbdc2b9d2	-0.09508099
251	0xbd0b4e54	-0.034010246
252	0xbded14a2	-0.11576201
253	0xbda19514	-0.078897625
254	0xbe0241f8	-0.12720478
255	0x3a0d1829	0.0005382323

fc2.0.bias f4 [10]
0	0xbd99e8fc	-0.07515141
1	0x3ef1d294	0.4723097
2	0x3e16f9c8	0.14743721
3	0xbe3b0e47	-0.18267165
4	0x3f0f055e	0.55867565
5	0x3f02bc4c	0.5106857
6	0x3e959c06	0.292206
7	0x3dc45153	0.09585824
8	0x3f0c89b8	0.5489764
9	0x3eaaa013	0.33325252
