pretrained_model/05-22-2022_19-23-04/model/epoch_3.pt (torch, 205087 bytes, 4 tensors)

fc1.1.weight f4 [64, 784]
-0.02081266 -0.008103989 0.01310255 -0.008613305 0.01651679 0.02163129 -0.02153424 -0.010566227
0.023319297 -0.03493621 0.030385565 -0.0022615418 -0.009037402 -0.04794407 0.04907725 0.024846772
-0.01837587 0.030373458 0.017525122 -0.03563536 -0.020248279 0.031445865 -0.018751226 0.01870418
0.024315532 -0.035112757 -0.009148406 -0.024575805 0.004953515 0.017817907 -0.03390497 0.0052368827
-0.0008484066 -0.053798404 -0.06729066 -0.07176906 -0.15363553 -0.07497046 -0.10647213 -0.14945726
-0.23895727 -0.18602999 -0.16763532 -0.035099328 -0.0018395984 -0.0727023 -0.12582305 -0.15629105
-0.18581995 -0.05313276 -0.04861101 -0.027610788 -0.0053092465 0.032622103 0.015482321 -0.022895273
-0.0016632043 -0.027248954 0.0051764697 -0.0054602027 -0.054221533 -0.12428093 -0.16405159 -0.13589257
-0.14386904 -0.088919125 -0.12935382 -0.070250794 -0.055359542 -0.03179089 0.005965136 -0.044661213
-0.049359594 -0.069144435 -0.07929674 -0.1137675 -0.05677311 -0.073588364 -0.057671487 -0.028674906
0.024729855 -0.0029420143 0.0012337938 -0.0037505142 0.031861696 0.011172507 0.03766198 -0.08166938
-0.09665662 -0.0070357937 -0.0057219374 0.01954224 0.016824206 0.06971502 0.07723081 0.108877845
0.043454725 0.117242135 0.07362294 -0.010624881 -0.038831033 -0.1256202 -0.07055557 -0.008873206
0.021200866 -0.13288856 -0.12190396 0.055851597 0.0644171 -0.014923431 -0.089772835 -0.018910617
0.022981722 -0.006130814 0.009690039 0.07505065 0.047129445 0.052729554 0.11629542 0.08499675
0.13906801 0.14448752 0.13036668 0.09847068 0.10967918 0.2025032 0.16499445 0.060815718
0.01717995 -0.06554231 -0.07006794 -0.01567877 -0.03398938 -0.118703656 -0.14074503 -0.16091065
-0.16202602 -0.013912163 0.16258363 0.046291675 0.0066156015 0.033901084 0.025386386 0.06745013
0.15818098 0.10533939 0.0690684 0.04036603 0.0052565997 -0.0005270834 -0.08789503 -0.038396925
0.10801392 0.16478266 0.12883468 0.15695488 0.09561763 0.03404037 -0.006812571 -0.024307141
-0.06011989 -0.038853526 -0.10609109 -0.14027798 -0.11687053 0.05070446 0.05546554 -0.0060078567
-0.035206128 -0.030659692 -0.036522236 0.10314952 0.11241939 0.09332355 -0.050144617 -0.055631194
-0.03185625 -0.07786522 -0.11276774 -0.00074929063 0.04396106 0.035605732 0.10683402 0.11854303
0.14289166 0.12497224 0.07728155 -0.04135004 -0.085269175 -0.05038516 -0.1482557 -0.17027721
-0.23303695 -0.023373036 0.008783509 0.01584171 -0.031492785 -0.10447926 -0.034017567 0.07499057
0.35519797 0.11371423 -0.022267092 -0.047269635 -0.12296463 -0.10637015 -0.057880823 -0.11620459
-0.06546871 0.029332116 0.078755595 0.0839895 0.11333836 0.0480933 0.013978639 0.013844737
-0.080969855 -0.13099314 -0.1367918 -0.18415558 -0.21615164 -0.1761658 -0.112514175 0.028519336
-0.031260576 -0.030952698 -0.048934538 -0.016410874 0.31977493 0.15011644 0.041966453 0.01775822
-0.050057717 -0.007760544 -0.046671785 -0.051443424 -0.027101988 0.00023030223 0.02775982 0.1368932
0.1549296 0.105925255 0.08774086 0.066385835 0.0026102085 -0.0882889 -0.1757384 -0.36797053
-0.384945 -0.19133775 -0.037860293 0.07654281 -0.04221318 -0.12265972 -0.067666 0.0856592
00000000: 507f aabc 98c6 04bc 14ac 563c d21e 0dbc
00000010: 384e 873c 1a34 b13c 9368 b0bc f81d 2dbc
00000020: 1c08 bf3c 4519 0fbd 26eb f83c 6036 14bb
00000030: 9d11 14bc 0061 44bd 3a05 493d 758b cb3c
00000040: fe88 96bc c2d1 f83c d890 8f3c 62f6 11bd
00000050: b8df a5bc 61cd 003d 2c9c 99bc 8239 993c
00000060: 5e31 c73c 65d2 0fbd 32e3 15bc 3353 c9bc
00000070: 1851 a23b dcf6 913c f0df 0abd 289a ab3b
00000080: 9a67 5eba b75b 5cbd b0cf 89bd a8fb 92bd
00000090: a252 1dbe 1d8a 99bd 0f0e dabd 530b 19be
000000a0: 37b1 74be a57e 3ebe 98a8 2bbe 50c4 0fbd
000000b0: ae1e f1ba f2e4 94bd c2d7 00be c30a 20be
000000c0: 9647 3ebe bda1 59bd 571c 47bd 0530 e2bc
000000d0: 30f9 adbb c19e 053d 90a9 7d3c de8e bbbc
000000e0: e0ff d9ba 3339 dfbc 609f a93b 80eb b2bb
000000f0: 6617 5ebd 0087 febd 24fd 27be 6c27 0bbe
00000100: 6852 13be 3b1b b6bd 5475 04be a6df 8fbd
00000110: b0c0 62bd 2a37 02bd 3077 c33b adee 36bd
00000120: 492d 4abd 999b 8dbd 5466 a2bd effe e8bd
00000130: ec8a 68bd 7fb5 96bd f038 6cbd a3e7 eabc
00000140: 4496 ca3c cfce 40bb 40b7 a13a 30cb 75bb
00000150: 6981 023d e40c 373c 7343 1a3d 4742 a7bd
00000160: e8f3 c5bd 848c e6bb 177f bbbb 0c17 a03c
00000170: ebd2 893c c0c6 8e3d 302b 9e3d 59fb de3d
00000180: 95fd 313d a51c f03d a0c7 963d fb13 2ebc
00000190: 4a0d 1fbd 95a2 00be 707f 90bd ec60 11bc
000001a0: 70ad ad3c f013 08be c9a8 f9bd a5c4 643d
000001b0: 1ded 833d 6881 74bc d2da b7bd 70ea 9abc
000001c0: 2a44 bc3c ffe4 c8bb f8c2 1e3c 28b4 993d
000001d0: ce0a 413d f2fa 573d 4b2c ee3d c712 ae3d
000001e0: d867 0e3e 89f4 133e d87e 053e ffaa c93d
000001f0: 7a9f e03d 005d 4f3e 4ef4 283e e719 793d
00000200: f7bc 8c3c 0c3b 86bd c87f 8fbd c470 80bc
00000210: 7338 0bbd e71a f3bd 771f 10be c3c5 24be
00000220: 26ea 25be d7ef 63bc 537c 263e 579c 3d3d
00000230: b0c7 d83b dddb 0a3d 1cf7 cf3c 4b23 8a3d
00000240: 32fa 213e 2ebc d73d bc73 8d3d da56 253d
00000250: 8e3f ac3b f82b 0aba 4f02 b4bd 1846 1dbd
00000260: 6736 dd3d c9bc 283e 3ded 033e c8b8 203e
00000270: 2dd3 c33d ea6d 0b3d fd3b dfbb c51f c7bc
00000280: 4640 76bd e024 1fbd 4946 d9bd 08a5 0fbe
00000290: d159 efbd 7baf 4f3d d62f 633d 8edd c4bb
000002a0: 4d34 10bd 092a fbbc 5798 15bd 0e40 d33d
000002b0: 233c e63d 6b20 bf3d 7164 4dbd 89dd 63bd
000002c0: b37b 02bd cd77 9fbd c6f2 e6bd 0b6c 44ba
000002d0: 8310 343d 51d7 113d cbcb da3d b0c6 f23d
000002e0: 3152 123e 72f1 ff3d ca45 9e3d a95e 29bd
000002f0: 9ba1 aebd ab60 4ebd 58d0 17be 265d 2ebe
00000300: 3da1 6ebe cf78 bfbc b5e8 0f3c 79c6 813c
00000310: 94fe 00bd 39f9 d5bd 0156 0bbd a894 993d
00000320: 82dc b53e 02e3 e83d 7a69 b6bc ce9d 41bd
00000330: e1d4 fbbd 98d8 d9bd 7114 6dbd acfc edbd
00000340: 7614 86bd e849 f03c 9d4a a13d b002 ac3d
00000350: f11d e83d 7bfd 443d a906 653c 09d5 623c
00000360: 86d3 a5bd 1123 06be 2613 0cbe 4893 3cbe
00000370: db56 5dbe cf64 34be d56d e6bd 62a1 e93c
00000380: 170b 00bd 8390 fdbc 956f 48bd 1970 86bc
00000390: 8ab9 a33e 20b8 193e 04e5 2b3d b079 913c
000003a0: 5209 4dbd 294c febb ea2a 3fbd 57b6 52bd
000003b0: fd04 debc 497d 7139 9068 e33c bb2d 0c3e
000003c0: dda5 1e3e 57ef d83d 7bb1 b33d 4cf5 873d
000003d0: 0810 2b3b d0d0 b4bd c4f4 33be a266 bcbe
000003e0: 8317 c5be 0bee 43be 6513 1bbd 7ac2 9c3d
000003f0: bae7 2cbd 0535 fbbd 7994 8abd 176e af3d

fc1.1.bias f4 [64]
-0.22833139 0.17510982 -0.034956302 0.39001152 0.107547894 0.046051234 0.056509603 0.10755625
-0.15644857 0.29691377 0.1257968 0.18003716 0.10841046 -0.1622324 0.1284437 -0.006262314
0.10083004 0.05265796 0.0432436 -0.067389324 -0.20495757 0.14296347 0.12868102 0.15679519
-0.09759256 -0.13132167 -0.001974641 0.07211268 0.12160813 -0.06938519 0.17089795 -0.2678174
-0.014391123 -0.21218172 0.0050303116 0.06618659 -0.24311164 -0.033618715 -0.10010946 0.055462796
-0.04419931 0.10295146 0.19272242 0.093370244 -0.16375172 -0.0038343945 0.095723666 0.1622056
-0.053426426 -0.13903004 0.16509436 0.14149824 -0.17183945 0.17631719 0.14071433 -0.020354202
0.0069411346 -0.21071802 -0.24757463 -0.031804044 0.20597616 0.15569052 -0.064638235 -0.039740954
00000000: b4cf 69be fd4f 333e 572e 0fbd 97af c73e
00000010: 1242 dc3d 38a0 3c3d 9d76 673d 7446 dc3d
00000020: 0e34 20be 1505 983e e0d0 003e a95b 383e
00000030: 4e06 de3d 4020 26be bf86 033e 1934 cdbb
00000040: fb7f ce3d e0af 573d 3320 313d 6a03 8abd
00000050: 66e0 51be 0465 123e f5c4 033e eb8e 203e
00000060: 9cde c7bd 3079 06be fb68 01bb d0af 933d
00000070: af0d f93d d319 8ebd dfff 2e3e 5d1f 89be
00000080: bfc8 6bbc 2a46 59be 50d5 a43b d68c 873d
00000090: 42f2 78be c7b3 09bd 3006 cdbd f52c 633d
000000a0: 560a 35bd 37d8 d23d 0759 453e e638 bf3d
000000b0: 88ae 27be 774a 7bbb c50a c43d 3a19 263e
000000c0: abd5 5abd e45d 0ebe 7f0e 293e eae4 103e
000000d0: aef6 2fbe 7e8c 343e 6b17 103e dbbd a6bc
000000e0: 7572 e33b 77c6 57be 3484 7dbe f544 02bd
000000f0: 6aeb 523e 566d 1f3e 0d61 84bd 69c7 22bd

fc2.0.weight f4 [10, 64]
0.12964194 0.35734126 -0.06425534 -0.4142836 0.23584771 0.14249517 -0.37536877 0.10663537
-0.49910963 0.27720457 -0.61544895 -0.27221197 0.26403737 -0.47730425 0.31431407 0.0075754602
0.26546672 0.20060311 -0.15305898 -0.43281797 -0.19656922 -0.049873687 -0.27095762 0.16532543
-0.16230251 -0.39688963 -0.30157363 -0.22996391 -0.22815076 -0.07793342 0.26557016 0.17999817
-0.64786965 0.17276631 0.011613618 0.2582253 0.17747732 -0.5987762 0.1228207 0.07671664
-0.06720598 -0.53820807 0.11860459 -0.21050024 0.2161951 -0.08249558 -0.43558577 0.24026246
-0.05011919 -0.43752393 -0.65396035 0.09006579 0.1303905 -0.22413032 0.1940935 0.20644675
-0.50476086 0.053568583 0.21689025 0.22382039 0.14725035 -0.40444386 0.043883584 -0.43531516
0.038530663 -0.06485328 0.023063153 -0.084427245 -0.022071768 -0.162151 -0.073042475 -0.13788037
-0.07749403 0.06714329 -0.1196229 -0.06983224 -0.032204807 -0.038455527 -0.093270235 -0.08328284
-0.06327165 -0.07661352 -0.07174536 0.00575209 -0.13246201 -0.110585235 0.07690884 0.041051537
-0.16859578 -0.00013824528 0.061752975 0.07608127 -0.08253197 -0.08194142 -0.076780476 -0.10757884
-0.19573008 0.02990202 0.06540333 -0.12470247 0.039514095 0.06560317 0.017064149 0.057194244
0.019839361 -0.008043872 -0.15482935 0.07667988 -0.08539354 0.049047697 -0.11474408 0.05528798
-0.12775499 0.077700764 0.012781228 -0.10585969 0.0028303151 -0.008351142 0.00329345 0.018538736
-0.10456867 0.0056694723 0.07505377 0.0026120353 0.023037871 -0.1259946 -0.13040495 0.009423585
0.18644105 -0.2374519 0.049404815 -0.6323052 -0.29566714 0.15149866 -0.30309585 0.034430895
0.10339524 -0.022675946 0.28931475 0.30509531 -0.079421036 -0.59502155 0.10146192 0.18149897
0.101989016 0.09567524 -0.26375997 0.29303208 0.15327737 -0.22107886 -0.8065868 -0.050092723
-0.7180167 -0.23705435 -0.24235001 0.25951105 -0.6187448 0.1738201 0.2697736 0.1807346
0.16426468 -0.09912203 -0.10279344 0.22783771 0.15808517 -0.44129643 -0.22073843 -0.62108016
0.2517947 0.2965468 0.16818614 0.58377606 0.14656474 -0.09084267 -0.24264781 0.28432712
-0.0023273192 0.21810114 0.31126365 0.24943419 0.16045287 0.24269621 -0.18630432 -0.02756809
-0.53440785 -0.7291508 0.020533923 0.16396993 -0.0031872336 0.20143746 0.19313313 0.08445642
0.09750457 0.14390571 0.115318865 -0.34954366 0.16966891 -0.40797403 -0.69593835 -0.4980874
0.25773582 0.02705171 0.18396008 -0.13755877 -0.5612955 0.26335263 0.05050114 0.10551484
0.08269821 0.26229125 0.14837165 0.022564627 -0.06917663 -0.3131928 0.08067215 0.1452661
-0.7016123 0.21235017 -0.24705777 -0.55395526 0.24408022 0.19380696 0.060268052 0.14907378
-0.04798937 -0.09169839 0.104693875 -0.17776279 0.115924746 0.071650036 0.1380663 -0.3783081
0.16176012 0.021524047 -0.4787774 -0.38152736 -0.2539092 -0.06406867 0.3418966 0.19505417
0.068717636 -0.3165027 0.16759731 -0.1811046 0.057589274 0.035991553 -0.5533715 0.06738223
0.14484943 -0.13868712 0.1435074 0.2585732 -0.07273778 0.2226883 0.21864952 0.30286866
00000000: dbc0 043e 6ff5 b63e 4e98 83bd fb1c d4be
00000010: 1082 713e 41ea 113e 5630 c0be a563 da3d
00000020: 4c8b ffbe c2ed 8d3e 108e 1dbf 5e5f 8bbe
00000030: e82f 873e 3961 f4be c6ed a03e 913b f83b
00000040: 41eb 873e e76a 4d3e 7ebb 1cbe 519a ddbe
00000050: 7149 49be 5a48 4cbd f5ba 8abe 124b 293e
00000060: a132 26be 1e35 cbbe dc67 9abe a97b 6bbe
00000070: 5aa0 69be 8f9b 9fbd d0f8 873e 7151 383e
00000080: c9da 25bf a7e9 303e 0b47 3e3c 1b36 843e
00000090: 9dbc 353e 6649 19bf 6b89 fb3d 9d1d 9d3d
000000a0: 4aa3 89bd 01c8 09bf f7e6 f23d 608d 57be
000000b0: 4062 5d3e 71f3 a8bd 1905 dfbe 5d07 763e
000000c0: c849 4dbd 2303 e0be f269 27bf 6a74 b83d
000000d0: 1685 053e 6b82 65be 72c0 463e c766 533e
000000e0: 0238 01bf bb6a 5b3d 7a18 5e3e 2c31 653e
000000f0: ccc8 163e 4413 cfbe 46bf 333d a1e1 debe
00000100: 54d2 1d3d ccd1 84bd f0ee bc3c 31e8 acbd
00000110: dacf b4bc e90a 26be 4b97 95bd 8330 0dbe
00000120: 31b5 9ebd 6c82 893d dafc f4bd 3504 8fbd
00000130: 30e9 03bd 8b83 1dbd 7704 bfbd 3290 aabd
00000140: 9194 81bd 8de7 9cbd 3bef 92bd 077c bc3b
00000150: 1fa4 07be 837a e2bd 6282 9d3d a825 283d
00000160: 5fa4 2cbe eff5 10b9 b0f0 7c3d 7fd0 9b3d
00000170: 8606 a9bd e7d0 a7bd 153f 9dbd 4b52 dcbd
00000180: 776d 48be 15f5 f43c 2ef2 853d 0264 ffbd
00000190: 88d9 213d f45a 863d 1dca 8b3c 8344 6a3d
000001a0: 2886 a23c 72ca 03bc 968b 1ebe 570a 9d3d
000001b0: cfe2 aebd 3de6 483d f2fe eabd a675 623d
000001c0: 34d2 02be 9421 9f3d 5b68 513c f7cc d8bd
000001d0: cf7c 393b 3ad3 08bc ecd6 573b 8cde 973c
000001e0: 1928 d6bd fbc6 b93b cab5 993d ae2e 2b3b
000001f0: ebb9 bc3c ba04 01be e088 05be 6165 1a3c
00000200: 67ea 3e3e 9726 73be b45c 4a3d c1de 21bf
00000210: af61 97be 7722 1b3e 612f 9bbe 6907 0d3d
00000220: e2c0 d33d e8c2 b9bc 1021 943e 7435 9c3e
00000230: 7fa7 a2bd 5553 18bf 44cb cf3d deda 393e
00000240: 9edf d03d 61f1 c33d 8c0b 87be 4d08 963e
00000250: bef4 1c3e 7f62 62be 797c 4ebf 072e 4dbd
00000260: f1cf 37bf 60be 72be 9a2a 78be a2de 843e
00000270: 0f66 1ebf e5fd 313e c41f 8a3e 7e12 393e
00000280: 0035 283e 7e00 cbbd 5e85 d2bd 4a4e 693e
00000290: 14e1 213e 9bf1 e1be 4109 62be 1cff 1ebf
000002a0: 3ceb 803e fbd4 973e fd38 2c3e 5972 153f
000002b0: 1115 163e b90b babd ab78 78be 5393 913e
000002c0: f085 18bb e855 5f3e f35d 9f3e ad6b 7f3e
000002d0: c24d 243e 5b85 783e 8fc6 3ebe 7ad6 e1bc
000002e0: f4ce 08bf a0a9 3abf c236 a83c bce7 273e
000002f0: e8e0 50bb 9f45 4e3e b1c4 453e 7df7 ac3d
00000300: 7ab0 c73d 055c 133e 4c2c ec3d 63f7 b2be
00000310: b0bd 2d3e f9e1 d0be 0429 32bf 5005 ffbe
00000320: f3f5 833e 8c9b dd3c 0860 3c3e 35dc 0cbe
00000330: 10b1 0fbf 28d6 863e 49da 4e3d 2a18 d83d
00000340: ae5d a93d 0a4b 863e bdee 173e 74d9 b83c
00000350: 7aac 8dbd cf5a a0be 7137 a53d a3c0 143e
00000360: dd9c 33bf 5372 593e b6fc 7cbe 03d0 0dbf
00000370: 2af0 793e 5575 463e a2db 763d cca6 183e
00000380: 8090 44bd 5ecc bbbd be69 d63d 7307 36be
00000390: f469 ed3d 41bd 923d 4161 0d3e 99b1 c1be
000003a0: 72a4 253e 3353 b03c 5022 f5be 8e57 c3be
000003b0: 6300 82be 6f36 83bd 120d af3e 48bc 473e
000003c0: d5bb 8c3d a40c a2be a19e 2b3e 7c73 39be
000003d0: bbe2 6b3d e16b 133d c1a9 0dbf b2ff 893d
000003e0: 6953 143e ff03 0ebe 9bf3 123e b563 843e
000003f0: 8cf7 94bd 6708 643e a9e5 5f3e 9a11 9b3e

fc2.0.bias f4 [10]
0.011604773 -0.13658817 -0.0049373046 0.0626945 0.038736526 0.2756546 0.035148177 0.15139183
-0.33619505 0.17318004
00000000: f221 3e3c c5dd 0bbe 1dc9 a1bb f965 803d
00000010: 31aa 1e3d 9a22 8d3e 89f7 0f3d 7606 1b3e
00000020: c221 acbe 1c56 313e
