callbacks/05-23-2022_08-58-09/models/epoch_9.pt (torch, 205087 bytes, 4 tensors)

fc1.0.weight f4 [64, 784]
0.0228392 0.023710147 -0.0014537834 -0.020858228 -0.033547916 0.027927455 -0.03498562 -0.01222723
0.01512067 -0.008216951 -0.004111629 0.012545064 -0.09731873 -0.096414514 0.022867247 0.012197217
0.010837965 -0.032597475 0.018942293 -0.01881503 -0.034885712 0.014387198 -0.0055947173 -0.0005539581
0.025004994 0.035536703 0.031203117 -0.0014341101 -0.029998695 0.03548945 0.02253192 0.013649013
-0.054856375 -0.043639075 -0.11045465 -0.096179835 -0.09273144 -0.14133897 -0.13488774 -0.3572497
-0.39197618 -0.3347177 -0.17192823 -0.10468195 0.02881403 -0.066681586 -0.4294841 -0.3658629
-0.3197441 -0.19355483 -0.16227774 -0.13098864 0.018392768 0.02645849 0.024030447 0.007961012
0.00010114163 0.01898643 -0.004506344 -0.16980378 -0.22384709 -0.005150205 -0.16154079 -0.23375906
-0.117092706 -0.058780342 -0.0823369 -0.07041601 -0.2295544 -0.21883687 -0.28295314 -0.19816312
-0.050972432 0.089477554 -0.18058805 -0.33485687 -0.26427624 -0.12432248 -0.0133089125 0.09165666
0.12626204 0.08353931 -0.0064316913 -0.02296492 0.0009302236 -0.008381933 -0.06311338 -0.16889693
0.02139722 0.11718247 -0.101156145 -0.10215719 -0.05547544 -0.0713902 0.14843655 0.26558948
-0.055035755 -0.1294795 0.120102346 0.13593785 0.06787493 -0.09277062 -0.17209625 -0.013424804
-0.03167879 0.22289583 0.42078292 0.2141765 0.26763123 0.25928313 0.18611905 0.03171969
0.020435285 0.0051499535 -0.04710206 -0.048462 0.121940896 0.13042484 0.19108374 0.2546676
0.23197657 0.119601265 -0.02085867 0.14191946 0.13657592 0.12396532 0.096319355 -0.00033559158
-0.12421448 -0.16331613 -0.22120997 -0.18619128 -0.067425035 -0.042942055 0.13471325 0.24329293
0.23589626 0.085599475 -0.1511831 -0.07779104 -0.019389281 0.025548521 -0.03951492 0.013827772
-0.013641954 0.1625981 0.2723025 0.42033952 0.48411718 0.29088813 0.1757157 -0.020214306
-0.07356416 -0.0693334 -0.0052599325 0.0415022 -0.06415284 -0.22806133 -0.35084236 -0.47540998
-0.18205763 -0.15017012 -0.19366033 0.055288922 -0.0040235063 0.009091389 -0.1569315 -0.048551448
-0.017787296 -0.06774247 -0.11601193 0.084098354 -0.036535043 0.13714916 0.20461984 0.35001904
0.25016433 0.21869977 0.05229258 -0.043012682 -0.07002041 -0.11543397 -0.15954733 -0.0364805
-0.005316627 -0.097988084 -0.19516447 -0.3363296 -0.28972676 -0.16268028 -0.3197603 -0.39607444
-0.26632282 -0.06431423 -0.08484422 -0.16742018 -0.01573234 0.03716882 0.027120164 0.022580458
0.028532209 0.14250752 0.16455689 0.11914147 0.07906969 0.09813544 -0.009453455 0.003781863
-0.06367497 -0.120398834 -0.1873347 -0.18285659 -0.053382907 -0.05401213 -0.1123535 -0.21277273
-0.13330407 -0.10484592 -0.0561664 -0.37569532 -0.1512377 0.07282295 0.15390743 -0.11115392
-0.11186253 0.12626366 -0.0030608918 -0.13546602 0.0914346 0.17690608 0.101678 -0.030246092
-0.018374227 0.054756843 0.015867608 -0.0047364593 -0.045780595 -0.12436004 -0.14626072 -0.2089582
-0.2591191 -0.17563675 -0.10845477 -0.19751976 -0.12373034 -0.13440832 -0.18101114 0.016947726
-0.1656621 -0.06372935 -0.09992105 -0.10243879 0.044823032 0.18292582 -0.050323803 -0.25880262
00000000: 4619 bb3c c83b c23c e08c beba e0de aabc
00000010: 8a69 09bd 1ec8 e43c 154d 0fbd b854 48bc
00000020: b0bc 773c 64a0 06bc d8ba 86bb d089 4d3c
00000030: 0b4f c7bd f974 c5bd 1854 bb3c d6d6 473c
00000040: b891 313c ee84 05bd de2c 9b3c fa21 9abc
00000050: 52e4 0ebd 48b8 6b3c e453 b7bb 8037 11ba
00000060: 46d7 cc3c ef8e 113d ae9d ff3c c0f8 bbba
00000070: d3bf f5bc 635d 113d dc94 b83c 1ca0 5f3c
00000080: 14b1 60bd e3be 32bd 0c36 e2bd eff9 c4bd
00000090: fbe9 bdbd 2abb 10be 0320 0abe 6fe9 b6be
000000a0: 1ab1 c8be 1e60 abbe f40d 30be 7d63 d6bd
000000b0: 670b ec3c 5b90 88bd 57e5 dbbe 6252 bbbe
000000c0: 80b5 a3be 3d33 46be 232c 26be e321 06be
000000d0: 6eac 963c 7abf d83c 80db c43c e86e 023c
000000e0: 001c d438 6e89 9b3c f4a9 93bb 0be1 2dbe
000000f0: 2c38 65be 0dc3 a8bb f36a 25be 895e 6fbe
00000100: 4dce efbd a8c3 70bd 40a0 a8bd 4536 90bd
00000110: 4f10 6bbe c616 60be 3cdf 90be 46eb 4abe
00000120: 78c8 50bd 0240 b73d 13ec 38be 5c72 abbe
00000130: 374f 87be c99c febd a00d 5abc 7db6 bb3d
00000140: d64a 013e a816 ab3d f0c0 d2bb ee20 bcbc
00000150: 40da 733a 6054 09bc 9641 81bd 51f3 2cbe
00000160: 3949 af3c 5dfd ef3d f42a cfbd ca37 d1bd
00000170: 373a 63bd 0635 92bd c0ff 173e 58fb 873e
00000180: 2c6d 61bd 4696 04be 38f8 f53d 4b33 0b3e
00000190: 0302 8b3d 86fe bdbd 003a 30be b6f3 5bbc
000001a0: 9ec1 01bd ce3e 643e dc70 d73e 1651 5b3e
000001b0: f606 893e c2c0 843e fe95 3e3e 81ec 013d
000001c0: e667 a73c f1c0 a83b 17ee 40bd 1780 46bd
000001d0: 26bc f93d 178e 053e 75ab 433e cb63 823e
000001e0: 448b 6d3e 82f1 f43d cddf aabc 5653 113e
000001f0: 8fda 0b3e 88e1 fd3d 1543 c53d 57f2 afb9
00000200: 2964 febd 583c 27be de84 62be eda8 3ebe
00000210: 2316 8abd 02e4 2fbd 45f2 093e c821 793e
00000220: ca8e 713e c74e af3d becf 1abe e950 9fbd
00000230: 45d6 9ebc 224b d13c 66da 21bd e18d 623c
00000240: 8182 5fbc 1e80 263e 3c6b 8b3e be36 d73e
00000250: 35de f73e 4aef 943e d1ee 333e 7998 a5bc
00000260: cea8 96bd abfe 8dbd 835b acbb 36fe 293d
00000270: 9062 83bd e988 69be 9ca1 b3be f068 f3be
00000280: 516d 3abe 32c6 19be e54e 46be a376 623d
00000290: 9ed7 83bb 0df4 143c a7b2 20be e2dd 46bd
000002a0: aab6 91bc 90bc 8abd aa97 edbd c23b ac3d
000002b0: c5a5 15bd d470 0c3e dd87 513e b235 b33e
000002c0: 8a15 803e d5f2 5f3e bf30 563d 112e 30bd
000002d0: dc66 8fbd a568 ecbd 6060 23be 946c 15bd
000002e0: 1a37 aebb faad c8bd 32d9 47be 6533 acbe
000002f0: 1157 94be a995 26be 9fb7 a3be 45ca cabe
00000300: 775b 88be 2eb7 83bd cec2 adbd 3270 2bbe
00000310: 1ce1 80bc 553e 183d 1b2b de3c a7fa b83c
00000320: 61bc e93c 7eed 113e 9a81 283e 7100 f43d
00000330: 4aef a13d 3cfb c83d aae2 1abc 22d9 773b
00000340: 0668 82bd aa93 f6bd abd4 3fbe c23e 3bbe
00000350: 09a8 5abd d33b 5dbd 9819 e6bd 18e1 59be
00000360: dd80 08be 75b9 d6bd bd0e 66bd 235b c0be
00000370: 0ede 1abe 3324 953d e999 1d3e aba4 e3bd
00000380: 2f18 e5bd 434b 013e 3e99 48bb 9bb7 0abe
00000390: 1042 bb3d de26 353e 8e3c d03d a7c6 f7bc
000003a0: 8c85 96bc b648 603d c9fc 813c 4d34 9bbb
000003b0: 6f84 3bbd 7ab0 febd 5fc5 15be 23f9 55be
000003c0: 42ab 84be 1fda 33be 891d debd 9f42 4abe
000003d0: 5566 fdbd 56a2 09be fc5a 39be f5d5 8a3c
000003e0: 53a3 29be 8984 82bd 68a3 ccbd 6ecb d1bd
000003f0: 5b98 373d e850 3b3e 5520 4ebd c781 84be

fc1.0.bias f4 [64]
0.40806368 -0.11239885 -0.04121845 -0.21639642 0.19284041 -0.20121664 -0.04499271 -0.2418501
-0.4729217 -0.19181338 -0.052803222 0.3933408 0.44268444 0.07417077 0.2563597 0.025571011
0.41939193 0.019903665 -0.045021333 -0.13046947 0.1911764 0.07787331 -0.19829895 -0.24760664
-0.058063053 -0.0022301497 -0.1740366 0.14075397 -0.048584882 -0.044590894 0.1748322 -0.07509205
-0.11380881 0.22962418 -0.009679046 0.28198814 -0.006745654 0.06486876 -0.41070443 0.09105438
0.2518853 0.63677406 0.25651705 -0.07293839 0.26511037 0.2353418 -0.17690158 -0.092914335
0.28183362 -0.34826955 -0.071955726 0.30272892 -0.24360652 -0.21612495 -0.11250046 0.119121246
0.121437 0.38701832 0.05086286 -0.11552491 -0.3590835 -0.09871618 0.34817532 0.33202124
00000000: b9ed d03e 5e31 e6bd add4 28bd 0697 5dbe
00000010: f577 453e bc0b 4ebe 474a 38bd 8da7 77be
00000020: cb22 f2be ba6a 44be 3148 58bd f763 c93e
00000030: 89a7 e23e d8e6 973d 9441 833e 4c7a d13c
00000040: 8aba d63e 030d a33c 4a68 38bd ca99 05be
00000050: bfc3 433e 0b7c 9f3d e10e 4bbe 988c 7dbe
00000060: 86d3 6dbd b427 12bb a736 32be cf21 103e
00000070: f100 47bd f1a4 36bd 3607 333e dcc9 99bd
00000080: 9814 e9bd 9a22 6b3e dd94 1ebc c060 903e
00000090: a60a ddbb ead9 843d da47 d2be b87a ba3d
000000a0: 1cf7 803e a003 233f 3456 833e b960 95bd
000000b0: 8cbc 873e 71fd 703e b025 35be df49 bebd
000000c0: 7f4c 903e 6350 b2be 865d 93bd 49ff 9a3e
000000d0: fd73 79be dc4f 5dbe a466 e6bd d7f5 f33d
000000e0: f6b3 f83d 4427 c63e 9355 503d 5398 ecbd
000000f0: cbd9 b7be b52b cabd 0944 b23e b0fe a93e

fc2.0.weight f4 [10, 64]
-0.0954509 -0.63587135 0.35523447 0.2679204 -0.6305529 0.15600087 0.04107416 0.49515218
0.22661176 0.27294007 0.21308301 0.42638433 -0.59594375 0.29186276 -0.38979048 0.10258766
-0.7605183 -0.69792247 -0.22881387 0.07408052 0.18794772 0.19411336 0.1094069 -0.48457006
-0.32440788 0.033580266 -0.9124115 0.17028499 0.17771804 -0.17952766 -0.1738499 0.10901323
-0.21764565 -0.06577039 -0.7403795 0.23403911 -0.95883465 -0.64956033 0.26111832 0.11951971
0.11588564 0.36469808 -1.1810614 0.43418142 0.2868607 0.14257523 -1.1670561 0.03035924
0.6018129 -0.53111535 -0.946482 0.20787242 -0.3170186 -0.43987077 -0.36419564 0.24192491
0.34453878 -0.57221246 -0.048120737 0.30066118 0.0826407 0.33977845 -0.58758235 0.33442432
-0.88862145 0.81534225 -0.7373809 -0.02498595 -0.6283549 -0.6465324 0.23408064 0.17428432
0.37830067 0.12788464 0.10067154 -0.24050084 0.14448677 -0.28713152 0.1670391 -0.12580356
0.22504301 0.22399053 0.2857379 0.18202376 -0.6805956 0.21530357 -0.0014919735 0.51957726
-0.29402894 0.07545286 0.10036795 0.2462204 -0.91514075 -0.48867851 0.026567124 -0.9205197
-0.7005056 0.4131762 0.21989834 0.6193539 -0.003281004 0.1362729 -0.36401477 0.16297688
0.22322038 -0.97615993 0.14204077 -0.78525484 0.29561836 -0.47963765 0.19718927 0.22768688
0.5511334 0.20587519 0.16048895 0.08386861 0.28723413 -0.049283247 -0.45294172 -0.78249836
-0.026089717 0.25090045 0.30564925 -1.0316136 -0.20246644 -0.02029297 0.2648978 0.43117198
0.44575933 -0.24618721 -0.012640636 0.27077508 -0.28981894 0.2612295 -0.25904116 0.28015056
0.2189901 -0.5591445 0.20906624 -0.55565155 -1.2627004 0.23922992 0.14630347 -0.044988267
0.22534658 0.33128855 0.08567265 0.26922426 0.3517876 0.21847762 -0.6042734 0.41034597
0.26239923 0.07156636 -0.92615616 0.19417325 0.035224326 -0.8312832 0.27119654 0.14544867
0.26429272 -1.0047913 0.633254 0.2656755 -0.26667976 -0.88619137 0.079974845 0.11811319
0.5338296 0.23290396 0.1719004 -0.105586685 0.10212194 -0.45488855 -0.6978671 0.07005919
0.014824608 0.1567523 0.22947866 0.3031898 0.22761072 0.1145415 -0.90364176 -0.11997711
0.18752068 -0.38208276 -0.5913293 0.028676024 0.047551703 -0.14070357 -0.6878114 0.21408577
-0.45296398 0.16644478 -0.54305154 0.25382093 0.034784295 0.17782602 -0.8940598 -0.008072998
0.055634014 0.15879676 -0.5189817 -0.64408004 -0.75770634 0.13800596 -0.048287842 0.015695408
-0.5263398 0.49616963 0.26892945 0.24766263 0.2650582 0.18932189 0.1072494 -0.8837693
0.18518421 -0.0027653505 0.36880094 -0.52888024 0.15958932 -0.61578155 0.26851505 -0.4381491
-0.50491667 -0.36829937 -0.2045884 -0.17589188 0.52862614 0.26781458 0.15286203 0.18801744
0.2524002 0.04297196 0.26538017 -0.11595392 -0.24877013 0.35874355 0.36455753 0.31606114
-0.74806696 0.3171836 0.20668052 0.14360075 0.27708673 0.22891453 -0.022289963 -0.29710683
-0.31139272 0.23832901 0.2693268 -0.097589575 0.16963498 0.23161429 -0.008230222 0.3612421
00000000: c37b c3bd 77c8 22bf 4be1 b53e dd2c 893e
00000010: ea6b 21bf b1be 1f3e 613d 283d 9684 fd3e
00000020: ea0c 683e cdbe 8b3e 6f32 5a3e 0c4f da3e
00000030: c58f 18bf 096f 953e 9e92 c7be 7b19 d23d
00000040: 54b1 42bf 0cab 32bf 2f4e 6abe 87b7 973d
00000050: 5e75 403e a7c5 463e ba10 e03d 9119 f8be
00000060: ca18 a6be 768b 093d cd93 69bf 305f 2e3e
00000070: b8fb 353e 19d6 37be b505 32be 5442 df3d
00000080: 80de 5ebe a0b2 86bd 8389 3dbf f3a7 6f3e
00000090: 3076 75bf 9649 26bf 4db1 853e c0c6 f43d
000000a0: 7355 ed3d b5b9 ba3e 052d 97bf 074d de3e
000000b0: 68df 923e 3eff 113e 1862 95bf f1b3 f83c
000000c0: 6910 1a3f 2df7 07bf a54c 72bf 82dc 543e
000000d0: 4350 a2be be36 e1be da77 babe 2abb 773e
000000e0: 6367 b03e 847c 12bf 401a 45bd 43f0 993e
000000f0: 873f a93d 71f7 ad3e cc6b 16bf aa39 ab3e
00000100: b27c 63bf 45ba 503f ffc4 3cbf 56af ccbc
00000110: dedb 20bf 2683 25bf d6b2 6f3e 9777 323e
00000120: a0b0 c13e 31f4 023e e12c ce3d da45 76be
00000130: 57f4 133e e702 93be 4c0c 2b3e a6d2 00be
00000140: ad71 663e c65d 653e 3d4c 923e 7064 3a3e
00000150: 833b 2ebf 8a78 5c3e 538e c3ba 0403 053f
00000160: f68a 96be 0787 9a3d b68d cd3d 3321 7c3e
00000170: aa46 6abf 1234 fabe 4ca3 d93c 2ea7 6bbf
00000180: 5654 33bf d58b d33e 082d 613e fa8d 1e3f
00000190: 1d06 57bb 208b 0b3e 2560 babe 69e3 263e
000001a0: e293 643e 9ee5 79bf 2373 113e 7606 49bf
000001b0: 4a5b 973e 1193 f5be fceb 493e c026 693e
000001c0: 1417 0d3f f2d0 523e 3757 243e 4ec3 ab3d
000001d0: 5a10 933e 3bdd 49bd fae7 e7be d051 48bf
000001e0: 1aba d5bc 0676 803e 0f7e 9c3e ea0b 84bf
000001f0: 5d53 4fbe 713d a6bc afa0 873e 93c2 dc3e
00000200: 913a e43e 8018 7cbe ac1a 4fbc 08a3 8a3e
00000210: 2663 94be dfbf 853e 0ba1 84be e56f 8f3e
00000220: f13e 603e 1824 0fbf 7615 563e 2e3f 0ebf
00000230: 2ba0 a1bf b0f8 743e 94d0 153e 9e45 38bd
00000240: 41c1 663e a79e a93e 2475 af3d c3d7 893e
00000250: 811d b43e 99b8 5f3e a9b1 1abf de18 d23e
00000260: 3159 863e 6291 923d 9218 6dbf 5ad5 463e
00000270: 6247 103d face 54bf 46da 8a3e 7ff0 143e
00000280: 6051 873e 009d 80bf ef1c 223f 9e06 883e
00000290: 408a 88be 70dd 62bf dac9 a33d 54e5 f13d
000002a0: 0fa9 083f 607e 6e3e a906 303e d53d d8bd
000002b0: 4f25 d13d 27e7 e8be 6ba7 32bf 317b 8f3d
000002c0: eae2 723c ad83 203e 74fc 6a3e b23b 9b3e
000002d0: c912 693e bc94 ea3d 1155 67bf 8fb6 f5bd
000002e0: 6c05 403e 5aa0 c3be 5b61 17bf fbe9 ea3c
000002f0: 93c5 423d 9914 10be 6814 30bf 4d39 5b3e
00000300: e5ea e7be 8070 2a3e 6d05 0bbf d1f4 813e
00000310: fa79 0e3d 0618 363e 1ae1 64bf 9c44 04bc
00000320: 7ee0 633d 9e9b 223e fcdb 04bf 6ee2 24bf
00000330: 0bf9 41bf 6f51 0d3e 79c9 45bd a893 803c
00000340: 35be 06bf f209 fe3e 1fb1 893e 469b 7d3e
00000350: b5b5 873e 99dd 413e 93a5 db3d b43e 62bf
00000360: eea0 3d3e e23a 35bb 7ad3 bc3e b264 07bf
00000370: 626b 233e dca3 1dbf ce7a 893e 1455 e0be
00000380: 3842 01bf bc91 bcbe 9f7f 51be 001d 34be
00000390: 0b54 073f fe1e 893e dd87 1c3e a587 403e
000003a0: 993a 813e 5e03 303d e9df 873e 4079 edbd
000003b0: 99bd 7ebe 3cad b73e 49a7 ba3e c4d2 a13e
000003c0: 5181 3fbf e465 a23e 0fa4 533e 130c 133e
000003d0: 50de 8d3e 9268 6a3e 7199 b6bc 631e 98be
000003e0: de6e 9fbe 850c 743e 34e5 893e 0bdd c7bd
000003f0: cbb4 2d3e 4c2c 6d3e 0ed8 06bc b9f4 b83e

fc2.0.bias f4 [10]
-0.06646899 0.11201767 0.055322412 -0.17491363 0.40544564 0.4075813 0.15472369 0.34050632
-0.0741754 -0.09705597
00000000: e520 88bd 8569 e53d c199 623d 8f1c 33be
00000010: 9296 cf3e 7fae d03e e36f 1e3e d856 ae3e
00000020: 46e9 97bd 48c5 c6bd
