callbacks/05-23-2022_08-58-09/models/epoch_3.pt (torch, 205087 bytes, 4 tensors)

fc1.0.weight f4 [64, 784]
000000 46 19 bb 3c c8 3b c2 3c e0 8c be ba e0 de aa bc
       0.0228392 0.023710147 -0.0014537834 -0.020858228
000010 8a 69 09 bd 1e c8 e4 3c 15 4d 0f bd b8 54 48 bc
       -0.033547916 0.027927455 -0.03498562 -0.01222723
000020 b0 bc 77 3c 64 a0 06 bc d8 ba 86 bb d0 89 4d 3c
       0.01512067 -0.008216951 -0.004111629 0.012545064
000030 c0 5b 51 bc 64 ac 3e bc 44 48 76 3c 7c aa 3b 3c
       -0.012778223 -0.011637781 0.015031878 0.011454221
000040 b8 91 31 3c ee 84 05 bd de 2c 9b 3c fa 21 9a bc
       0.010837965 -0.032597475 0.018942293 -0.01881503
000050 52 e4 0e bd 48 b8 6b 3c e4 53 b7 bb 80 37 11 ba
       -0.034885712 0.014387198 -0.0055947173 -0.0005539581
000060 46 d7 cc 3c ef 8e 11 3d ae 9d ff 3c c0 f8 bb ba
       0.025004994 0.035536703 0.031203117 -0.0014341101
000070 d3 bf f5 bc 63 5d 11 3d dc 94 b8 3c 1c a0 5f 3c
       -0.029998695 0.03548945 0.02253192 0.013649013
000080 2d db 60 bd a6 08 24 bd 22 ec cf bc 43 80 a0 bb
       -0.054896522 -0.04004731 -0.025381152 -0.0048981025
000090 2c 3a 56 bd d6 21 00 be 67 b1 c2 bd 7f 1e 70 be
       -0.05230157 -0.12512907 -0.09506493 -0.23449133
0000a0 78 77 47 be 47 d0 1a be ce 6a f5 bd d1 af 37 bd
       -0.19479167 -0.15118514 -0.11983262 -0.044845406
0000b0 78 2b 32 3d 87 00 de 3c 98 cc 8c be e2 4b 1f be
       0.043498486 0.02709986 -0.27499843 -0.15556291
0000c0 8b dd 35 be 16 96 03 be 77 19 91 bd 19 57 fa bc
       -0.17760293 -0.12850222 -0.07084935 -0.03055911
0000d0 6e ac 96 3c 7a bf d8 3c 80 db c4 3c e8 6e 02 3c
       0.018392768 0.02645849 0.024030447 0.007961012
0000e0 00 1c d4 38 6e 89 9b 3c 2a 54 93 bb 26 bc 83 bd
       0.00010114163 0.01898643 -0.004496117 -0.06432371
0000f0 4c 81 ac bd 4f 2d 97 3c cd ba 58 bd 34 3d 06 be
       -0.08423099 0.018454222 -0.052912522 -0.13109285
000100 81 0a 1c be 5d da 37 be fa 98 11 be 8d 2d 4d bd
       -0.15238382 -0.17954393 -0.14218512 -0.05009227
000110 1a 09 0d be e9 5a d9 bd 6b e9 17 be e9 57 da bd
       -0.13773003 -0.10613043 -0.14835136 -0.10661299
000120 2a 7a 55 bd 99 48 e7 3c d3 46 dc bd 26 6d 59 be
       -0.052118458 0.02823286 -0.10755696 -0.21233043
000130 b6 43 a4 bd 8a 9f 84 bd 7a 24 8c 3c 47 3c 0b 3e
       -0.08020727 -0.06475742 0.017107237 0.13597213
000140 a6 0d 76 3d e9 1e 66 3c f0 c0 d2 bb ee 20 bc bc
       0.06007161 0.0140454555 -0.0064316913 -0.02296492
000150 40 da 73 3a 60 54 09 bc da 35 81 bd 9b 7b 2c bd
       0.0009302236 -0.008381933 -0.063090995 -0.042110067
000160 6c a3 15 3b 7a a8 95 3d 5d 04 26 3d d0 e0 7d 3c
       0.0022833003 0.07307525 0.040531505 0.015495494
000170 71 1a 98 bc eb c3 b5 bc b4 13 8b 3b 90 99 85 3c
       -0.018567296 -0.022188148 0.004244292 0.016308576
000180 87 8c af bd f7 f0 87 bd c9 2e e7 3c 1e 8f 18 bc
       -0.08571725 -0.06637757 0.028220551 -0.009311466
000190 7c ef 69 bb 80 6e 66 bc ae fc 82 bb e8 db 65 3b
       -0.0035695722 -0.014064431 -0.003997407 0.0035073701
0001a0 70 03 61 3b 71 01 26 3e 3d 51 a4 3e 7b e9 24 3e
       0.0034334324 0.16211487 0.3209323 0.1610469
0001b0 49 a2 0b 3e 44 64 99 3d 6d 21 52 3d 81 ec 01 3d
       0.13636126 0.07489827 0.05130141 0.03171969
0001c0 e6 67 a7 3c 78 53 ae 3b 8c 91 39 bd 37 e5 0b bd
       0.020435285 0.005320009 -0.04530482 -0.034154143
0001d0 58 74 90 3d b4 e8 08 3e 81 b9 25 3e 47 8f 36 3e
       0.07053441 0.13370019 0.16184045 0.17828093
0001e0 7e 64 03 3e 78 70 b7 3d 6b 6b 62 bd 6b 73 d1 3c
       0.12831303 0.089569986 -0.055278223 0.02556773
0001f0 04 60 10 3c 61 76 f6 ba 11 b9 45 bd 1f 81 df bd
       0.008811954 -0.001880359 -0.048272196 -0.109133
000200 66 04 18 be 4a dd 4a bd 3d 54 16 bd ad 3a 26 bc
       -0.14845428 -0.049527444 -0.03670143 -0.010145825
000210 6a 53 24 3c ef 3d d5 3d a8 0a 46 3e 75 9b 3a 3e
       0.010029653 0.104122035 0.19340003 0.18223365
000220 28 f1 08 3e c1 71 8d 3c 01 94 cd bd ce 46 20 bd
       0.13373244 0.017266156 -0.10037995 -0.039130025
000230 45 d6 9e bc 22 4b d1 3c 4e e4 80 bb 96 5c 99 bd
       -0.019389281 0.025548521 -0.003933466 -0.074883625
000240 97 f9 fa bc a8 bb ee 3d 8e 03 78 3e b5 4d 94 3e
       -0.030636592 0.11656886 0.24220106 0.28965536
000250 3d 18 8a 3e 3b e8 10 3e 03 ae 5a 3d 2a 18 67 bd
       0.26971617 0.14151089 0.053388607 -0.05641953
000260 ed 85 b3 bd f5 18 0c be 05 d7 2d be 90 9c 1f be
       -0.08765779 -0.13681395 -0.16976555 -0.15587068
000270 00 82 2c be d3 41 52 be 3a fd 2b be a8 84 23 be
       -0.16846466 -0.20532922 -0.16795817 -0.15968573
000280 d8 1e 51 bc 02 4c ec b8 c7 46 2c 3d e2 d6 38 3e
       -0.012763701 -0.000112675145 0.042059686 0.18050721
000290 1d fe 77 3d e2 10 df bc 61 9d b2 bd de dd 46 bd
       0.060545076 -0.02722973 -0.08721424 -0.048551433
0002a0 aa b6 91 bc 1a a6 62 bd 20 66 5e bd 1c ca 64 bc
       -0.017787296 -0.055334188 -0.054296613 -0.013964202
0002b0 48 74 23 bd ca 1a 30 3e f2 de 70 3e d2 e6 84 3e
       -0.039905816 0.17197719 0.23522547 0.25957352
0002c0 8c 60 29 3e 8e 25 2c 3e ac 5b 6d 3d 4f b7 a3 bd
       0.16540736 0.16811201 0.057948753 -0.07993948
0002d0 d3 47 e5 bd b0 ce 10 be 33 a3 2f be 16 97 bd bd
       -0.1119534 -0.14141345 -0.171521 -0.09257333
0002e0 62 f5 d7 bd 64 7b 2d be 93 21 4a be 0b 6c 44 be
       -0.1054485 -0.16941601 -0.1973937 -0.1918184
0002f0 28 2c 1f be 57 ab bb bd c5 a8 c2 bd aa e7 00 be
       -0.15544188 -0.0916354 -0.095048465 -0.12588373
000300 f2 f5 92 bd a5 e9 55 bd 29 c6 2f be 4a 09 db bd
       -0.071758166 -0.052224774 -0.17165436 -0.10695131
000310 95 e1 80 bc 17 61 7d 3b 17 13 9c 3c 2b 38 5d 3d
       -0.015732566 0.0038662606 0.019052071 0.054008644
000320 d6 25 f5 3a 46 47 d3 3d 27 f0 08 3e 40 19 c9 3d
       0.0018703293 0.10316329 0.13372861 0.09819269
000330 97 f2 08 3d 71 b9 7f 3d af 89 79 bc d4 fd 81 bc
       0.033434477 0.06243271 -0.01523058 -0.015868105
000340 bc 34 89 bc 7e b9 a4 bd 6d 5c ad bd 62 93 1a bd
       -0.016748779 -0.08043192 -0.084648944 -0.03773821
000350 21 2b 5f bc dc 96 dd bd e0 37 41 be 15 b5 3d be
       -0.013621123 -0.1081979 -0.18868971 -0.18526109
000360 af 07 2f be 67 73 11 be 06 48 d7 bb ed cc 1d be
       -0.17092775 -0.14204179 -0.006569865 -0.15410204
000370 11 b3 ee bd 2f af 8d bd 89 43 75 3b 07 ab 80 bd
       -0.11655248 -0.06918179 0.0037424287 -0.06282621
000380 4d d5 db 3b db ff a5 3d 4b 84 9f 3c bb e9 1b b7
       0.006708777 0.08105441 0.019472262 -9.29314e-06
000390 a9 bd 11 bc 02 f6 ab 3c c5 01 ef 3c 27 e5 34 bc
       -0.008895316 0.02099133 0.029175648 -0.011040962
0003a0 ae dc b7 bc 65 7f ef 3a ea 28 b6 3c 3d 64 13 3c
       -0.022444095 0.001827222 0.022236306 0.008996067
0003b0 06 f4 2c bc eb b1 92 bc 20 9f 16 3b 20 ee a2 bc
       -0.010556227 -0.017907104 0.002298303 -0.019888937
0003c0 6b 8d e0 bc 92 e8 a1 bd 85 85 0a be b1 8c 1a be
       -0.027411183 -0.079056874 -0.13527496 -0.15092732
0003d0 41 ce d0 bd b0 86 c3 bd 26 50 f6 bd a3 32 3e bd
       -0.1019559 -0.09547174 -0.12027006 -0.04643501
0003e0 dd 74 66 be a2 5b 19 be 9f a1 d7 bd 7d d1 8b bd
       -0.22505517 -0.14976361 -0.10528874 -0.06827066
0003f0 7e ec 1e 3d d2 af b2 3d 4c 6a 85 3d 89 f6 95 bd
       0.038799755 0.08724941 0.06514415 -0.073224135

fc1.0.bias f4 [64]
000000 d6 52 81 3e e6 35 8e 3c 04 4a 4f bb e7 a9 f1 bd
       0.2525851 0.017359685 -0.003162981 -0.117999844
000010 ec 66 01 3e 33 87 e7 bd d6 a2 2c bd 35 00 ed bd
       0.12636918 -0.11305084 -0.04214748 -0.11572305
000020 1c f0 96 be e6 ae b4 bd ae 7a de 3c db a4 91 3e
       -0.29480064 -0.08822422 0.027158108 0.28446087
000030 32 47 bc 3e c8 6a f8 3c 7b 19 29 3e 4c 7a d1 3c
       0.36773068 0.030324355 0.16513626 0.025571011
000040 25 47 7a 3e 2c dc 19 3d 29 c3 cf 3c e7 ec f8 bc
       0.24441202 0.037563488 0.025361614 -0.030386401
000050 67 7a f0 3d f6 8b 21 3e c1 b1 8a bd 13 fd 31 be
       0.117420964 0.15776047 -0.06772185 -0.17381696
000060 e0 2e 86 bd b4 27 12 bb ee 78 26 be f3 5e f2 3d
       -0.065519094 -0.0022301497 -0.16257069 0.118345164
000070 55 4b be bd 01 48 fe bb bb 77 bd bc 0c 89 d9 bc
       -0.09291712 -0.0077600484 -0.023128381 -0.026554607
000080 5c 31 1c be cd 92 71 3e be d8 d7 3c 00 c4 3f 3e
       -0.15253204 0.23591156 0.026348468 0.18727112
000090 db 63 52 3d 96 e1 92 3d e1 b4 5c be 0b 21 c6 3d
       0.05136476 0.07171933 -0.21553375 0.09674271
0000a0 eb 95 52 3e 8d f3 bc 3e 17 4a 0f 3e d2 30 13 bd
       0.20565002 0.36904564 0.13993107 -0.03593523
0000b0 90 3d 5d 3e a0 d5 85 3e dd 44 95 bd df d0 c0 bd
       0.21605515 0.26139545 -0.07288525 -0.09414839
0000c0 57 d5 2d 3e 1b 84 35 be 74 1f 07 bb 93 f7 7e 3e
       0.16975914 -0.17726175 -0.0020618113 0.2489913
0000d0 4c c0 ea bd 3c 7a 40 be 4e d3 62 bc d9 59 a6 bb
       -0.11462459 -0.18796629 -0.013844324 -0.0050766286
0000e0 66 1a c5 3d 19 5a c4 3e 8a 7d b7 3d 16 fb 0a be
       0.09624176 0.3834999 0.089594916 -0.13572344
0000f0 b5 0e 92 be 66 25 fc 3c cd 5b 58 3e 8e 6b 73 3e
       -0.28526846 0.030779552 0.21128769 0.23771498

fc2.0.weight f4 [10, 64]
000000 25 50 10 be 56 67 01 bf 75 37 90 3e d0 cd 8b 3e
       -0.14093073 -0.50548303 0.2816731 0.2730546
000010 fc 34 0b bf 02 68 17 3e 02 b0 82 3d 61 8d 93 3e
       -0.5437772 0.1478577 0.06381227 0.288188
000020 db 99 3d 3e 14 b4 2a 3e eb e0 33 3e dc 5a 8b 3e
       0.18515722 0.16670257 0.17566268 0.27217758
000030 9c 2f b5 be a8 f3 40 3e 30 cb 67 be 7b 19 d2 3d
       -0.35387886 0.18842947 -0.22636104 0.10258766
000040 d8 4f 21 bf c9 37 f8 be dd 96 2e bd c9 06 cb 3d
       -0.63012457 -0.4848006 -0.042624343 0.099134035
000050 e8 92 10 3e d8 61 31 3e fb 02 8c 3d 23 88 cb bd
       0.1411854 0.1732248 0.06836506 -0.099380754
000060 6a 37 6d be 76 8b 09 3d ad 2d d3 be b4 c4 f8 3d
       -0.2316567 0.033580266 -0.41245785 0.12146893
000070 86 45 30 3e 8a 2d 4f be 8d 15 cc bd 86 08 a5 bd
       0.17214021 -0.20232216 -0.09965048 -0.08058266
000080 e8 78 5e be fc 39 7b 3d a5 5f df be 52 14 46 3e
       -0.2172581 0.061334595 -0.43627658 0.19343689
000090 56 3e e1 be bf 5c f5 be 2d 9c 64 3e da a2 df 3d
       -0.4399287 -0.47922322 0.22325201 0.10919733
0000a0 a2 50 ef 3d a1 fc 43 3e 1c ea 2b bf e6 0f 8e 3e
       0.11685301 0.19139339 -0.671541 0.27746505
0000b0 b6 61 97 3e 84 b8 1a 3e 34 ba e8 be be 10 75 be
       0.29566735 0.1510945 -0.45454562 -0.23932168
0000c0 96 7e af 3e d9 21 be be 39 c4 23 bf 16 cb 2d 3d
       0.34276265 -0.371352 -0.63971287 0.042430006
0000d0 e9 d1 41 be 4a 14 81 be 3a 84 7f be ad 18 35 3e
       -0.1892773 -0.25210792 -0.24952784 0.17685194
0000e0 85 31 58 3e 4a 79 aa be 48 18 98 bd 27 18 6d 3e
       0.2111264 -0.3329566 -0.07426506 0.23153745
0000f0 72 78 39 bd 6d 7a 82 3e f0 c6 ed be 3b da 6a 3e
       -0.04528088 0.25484028 -0.4644084 0.22934811
000100 df f6 22 bf d7 fb 2c 3f 1e ee 1b bf 21 1d 18 be
       -0.63657945 0.6757178 -0.60910213 -0.14854862
000110 d6 1e d4 be af 83 f8 be 47 6c 11 3e 10 5c 3d 3e
       -0.41429776 -0.48537967 0.14201461 0.1849215
000120 83 3a 3c 3e cd 8a 4f 3e d5 5c 17 bc a7 e4 9c be
       0.18381695 0.20267792 -0.0092384415 -0.30643198
000130 40 da 39 3e bd cf bf be a4 aa 21 3e a6 d2 00 be
       0.18149662 -0.3746318 0.1578775 -0.12580356
000140 fe a7 65 3e 0a b4 05 3e fa 91 86 3e 30 a6 1b 3e
       0.22427365 0.1305696 0.26283246 0.15200114
000150 69 5e f4 be e8 2e 36 3e 21 a1 f2 bb 83 2c b3 3e
       -0.4772828 0.17791331 -0.007404462 0.34994897
000160 de e1 9e be 07 87 9a 3d f5 0d 6d 3d f6 82 0a 3e
       -0.31031698 0.07545286 0.05787464 0.1352652
000170 a5 c2 0f bf b2 a6 aa bd f7 94 06 bd 09 b2 15 bf
       -0.5615638 -0.08332576 -0.032856908 -0.58474785
000180 cb 41 af be 94 79 2a 3e 70 12 8c 3e 10 86 85 3e
       -0.34229884 0.16647941 0.27357817 0.26078844
000190 82 f3 fe bc ca 00 37 3e 51 92 a8 be 7b 7c 46 3e
       -0.031121973 0.17871395 -0.3292413 0.19383423
0001a0 c0 20 4e 3c 4d 06 07 bf ec 28 e7 3d ef 28 1d bf
       0.01258105 -0.5274399 0.11287102 -0.61390585
0001b0 32 92 36 3e e8 f3 d6 be 67 5b de 3d 00 93 20 3e
       0.17829207 -0.4198296 0.10857277 0.15681076
0001c0 38 7b c2 3e e5 f7 41 3e 3e 7d 16 3e a4 2d dc 3d
       0.37984633 0.1894222 0.14696214 0.10750893
0001d0 3e a5 8c 3e 42 a2 a5 bd 0b fc 7b be 11 60 0e bf
       0.2746982 -0.08087589 -0.24607866 -0.55615336
0001e0 45 91 0c be 7b 10 f5 3d de 18 8d 3e ac c0 12 bf
       -0.13727291 0.11966034 0.27558035 -0.57325244
0001f0 e9 dc 4d be e2 3f e9 bd d3 77 66 3e 5b 46 70 3e
       -0.20103802 -0.11389138 0.22506647 0.23464338
000200 fd bb 9b 3e 37 a9 a8 be c7 de f3 bd 00 c3 50 3e
       0.3041686 -0.329416 -0.11907726 0.20386887
000210 68 04 8f be 51 6c 50 3e fb f1 a4 be c3 2e 68 3e
       -0.2793305 0.2035382 -0.32215866 0.22674088
000220 65 a1 0b 3e 0d 93 8c be 04 7b 36 3e 5f fe 96 be
       0.13635786 -0.2745594 0.17820364 -0.29490945
000230 0e 42 55 bf 3e 0f 24 3e 7f 14 d1 3d 9e 45 38 bd
       -0.83303916 0.1602144 0.102089874 -0.044988267
000240 b9 14 da 3d 65 38 40 3e 33 8b 0d 3d 9c 4a 45 3e
       0.10648484 0.18771513 0.03455658 0.19266742
000250 44 c6 73 3e dd a8 7f 3e 06 46 1b bf e3 6a 1d 3e
       0.23806101 0.2496676 -0.6065372 0.15372805
000260 b4 e9 7e 3e 62 91 92 3d 79 17 0a bf 2c 8f fc 3d
       0.24893838 0.07156636 -0.53942066 0.12331995
000270 9b 8c 03 3d a6 c8 19 bf 24 23 2a 3d b1 1e 28 3e
       0.032116514 -0.6007179 0.04153742 0.16417958
000280 75 5a ed 3d 33 21 13 bf d1 21 e5 3e fa 7d 71 3e
       0.11589519 -0.57472533 0.44752362 0.23583212
000290 4a 15 56 be a9 92 f9 be d4 ca 46 bc c5 f1 0f 3e
       -0.20906559 -0.48744705 -0.012133319 0.14057072
0002a0 e5 21 a8 3e 85 62 48 3e b5 04 59 3e f7 da c7 bd
       0.3283836 0.19568832 0.21193202 -0.09758561
0002b0 a5 79 00 3e d3 93 d6 be 16 7c 03 bf e0 aa a3 bc
       0.12546404 -0.41909656 -0.51361215 -0.01997894
0002c0 95 e6 9f 3d d4 e8 11 3e 46 3b 85 3e c0 e4 66 3e
       0.07807652 0.14248973 0.26021785 0.22548199
0002d0 79 b8 54 3e 9d 60 fb 3d 0d 93 31 bf 22 9c c6 bd
       0.20773496 0.12274287 -0.69365007 -0.09697749
0002e0 19 c5 95 3e f6 ff 92 be df 4e e1 be 3e 2a 05 bc
       0.29251936 -0.28710908 -0.44005486 -0.008127747
0002f0 b9 cd cf 3d 89 ff 1d be df ca 80 be 65 1f ae 3d
       0.1014666 -0.1542951 -0.25154778 0.08502082
000300 1f 2d e0 be 5e 0b 0c be 08 00 df be 36 92 1d 3e
       -0.43784425 -0.13676211 -0.4355471 0.15387806
000310 72 c1 84 bd 49 b7 0d ba 71 45 0b bf 2a 71 f2 bd
       -0.06482209 -0.0005406035 -0.54402834 -0.118379906
000320 26 ca 9e 3d ff 1f 07 3e 63 f1 8e be e1 59 da be
       0.077534005 0.131958 -0.27918538 -0.42646697
000330 dd 27 25 bf d2 88 14 3e dc 49 38 bd a8 93 80 3c
       -0.6451395 0.14505318 -0.044992313 0.015695408
000340 a4 23 d3 be 03 d5 c6 3e 92 72 4f 3e c0 d6 1b 3e
       -0.4123813 0.3883439 0.20258549 0.1521864
000350 9b ff 75 3e 5e 33 36 3e b6 3c 08 3e 73 aa 16 bf
       0.24023287 0.17793033 0.1330441 -0.58853835
000360 17 c0 4a 3e e2 3a 35 bb 39 0c 95 3e 8c 7b b0 be
       0.19799839 -0.0027653505 0.29110888 -0.3446926
000370 e0 14 1c 3e 2e be 74 be 7d 3c c6 3d a2 93 c3 be
       0.15242338 -0.23900673 0.09679506 -0.38198572
000380 c0 ec d7 be f4 d8 92 be 70 71 a8 be a2 18 97 bd
       -0.42172813 -0.28681147 -0.32899046 -0.07377745
000390 a8 2a ca 3e fb 81 3c 3e ab ef 24 3e 95 6c dc 3d
       0.3948567 0.18408959 0.16107051 0.10762898
0003a0 b4 af 22 3e 55 de cd 3d fd 0b 3d 3e bf 39 a8 bd
       0.15887338 0.10052172 0.18461604 -0.08214139
0003b0 b5 f7 6b be 61 b5 2a 3e 8f b1 28 3e 46 6b 7e 3e
       -0.23043711 0.16670753 0.16473983 0.24845609
0003c0 82 6f bf be 56 2a 5e 3e 1b b1 08 3e 80 bf fe 3d
       -0.3738976 0.21695837 0.1334881 0.124388695
0003d0 cb fb f2 3d 3b 2d b4 3d 94 36 19 bd b6 92 38 be
       0.11864432 0.087976895 -0.037405565 -0.18024716
0003e0 ef 8b 85 be b2 c2 5c 3e 66 e8 2e 3e e9 b1 bf bd
       -0.26083323 0.21558645 0.1708084 -0.093601055
0003f0 ac d6 11 3e 87 65 87 3e 9c c7 b6 bb 1c dd 71 3e
       0.14242047 0.26444647 -0.0055779945 0.23619503

fc2.0.bias f4 [10]
000000 7e df dc 3c 61 ca fe 3d 64 6e c7 3c 09 39 ca bd
       0.026962038 0.124409445 0.02434463 -0.0987416
000010 ec bc 60 3e 1b 62 af 3e d6 6d fa 3d 0f 7e 8f 3e
       0.21947068 0.34254536 0.12227981 0.28025863
000020 e4 73 2d be e7 5a ef bd
       -0.1693874 -0.1168726
