callbacks/05-23-2022_08-58-09/models/epoch_2.pt (torch, 205087 bytes, 4 tensors)

fc1.0.weight f4 [64, 784]
000000 46 19 bb 3c c8 3b c2 3c e0 8c be ba e0 de aa bc
       0.0228392 0.023710147 -0.0014537834 -0.020858228
000010 8a 69 09 bd 1e c8 e4 3c 15 4d 0f bd b8 54 48 bc
       -0.033547916 0.027927455 -0.03498562 -0.01222723
000020 b0 bc 77 3c 64 a0 06 bc d8 ba 86 bb d0 89 4d 3c
       0.01512067 -0.008216951 -0.004111629 0.012545064
000030 cc 8a 57 3c 86 08 a0 3a c3 bf 00 bb b4 95 19 3c
       0.01315565 0.0012209571 -0.001964555 0.009374071
000040 b8 91 31 3c ee 84 05 bd de 2c 9b 3c fa 21 9a bc
       0.010837965 -0.032597475 0.018942293 -0.01881503
000050 52 e4 0e bd 48 b8 6b 3c e4 53 b7 bb 80 37 11 ba
       -0.034885712 0.014387198 -0.0055947173 -0.0005539581
000060 46 d7 cc 3c ef 8e 11 3d ae 9d ff 3c c0 f8 bb ba
       0.025004994 0.035536703 0.031203117 -0.0014341101
000070 d3 bf f5 bc 63 5d 11 3d dc 94 b8 3c 1c a0 5f 3c
       -0.029998695 0.03548945 0.02253192 0.013649013
000080 8b d8 ca bc 5a 08 13 bc 71 38 cb 3b b6 be d3 3c
       -0.024761459 -0.008974159 0.0062017967 0.025847774
000090 7b 93 50 bb 7e 62 e0 bc f3 ac 03 bc 7e b1 d5 bd
       -0.0031826186 -0.027390715 -0.00803684 -0.104342446
0000a0 24 b6 b3 bd 9a a2 37 bd 7f 50 a9 bd 26 67 61 bd
       -0.08774975 -0.044832803 -0.082673065 -0.05503001
0000b0 a0 b4 c3 ba d9 8d 8c bb a6 89 5b be 6b e4 a7 bd
       -0.001493115 -0.0042893705 -0.21439227 -0.08197864
0000c0 a0 c2 f8 bd cb 3e c8 bd 87 f1 18 bd f1 2e 7b 3a
       -0.12146497 -0.09777602 -0.037339713 0.0009581885
0000d0 6e ac 96 3c 7a bf d8 3c 80 db c4 3c e8 6e 02 3c
       0.018392768 0.02645849 0.024030447 0.007961012
0000e0 00 1c d4 38 6e 89 9b 3c 2a 54 93 bb 6d b8 81 bd
       0.00010114163 0.01898643 -0.004496117 -0.063340046
0000f0 09 f7 56 bd 4d 0c fe 3c be e1 1c bd 39 b6 d2 bc
       -0.052481685 0.031011725 -0.038301222 -0.025721656
000100 25 f4 34 3c 7f 68 e7 3c d2 43 1c 3d a1 f5 88 3d
       0.011044537 0.02824807 0.038150616 0.06687475
000110 11 d0 1d ba 6e db 4a 3d cf 0b bb bc 41 3c 95 bd
       -0.0006020079 0.04952567 -0.02283278 -0.07286883
000120 f4 08 46 bd 69 a4 5d 3c ee 0a af bd 32 05 24 be
       -0.048348382 0.013527968 -0.085470065 -0.16017607
000130 5b 9e cf bc 47 92 26 3d d8 2a d2 3d ac ab 0f 3e
       -0.025344064 0.040666845 0.10262078 0.14030331
000140 0a 80 72 3d 6e 4f 1c 3d f0 c0 d2 bb ee 20 bc bc
       0.05920414 0.038161688 -0.0064316913 -0.02296492
000150 40 da 73 3a 60 54 09 bc da 35 81 bd 65 b6 8b bc
       0.0009302236 -0.008381933 -0.063090995 -0.017054746
000160 e3 45 3c bd 1d 4c cf 3b db 69 95 3d 9f d8 da 3d
       -0.045965087 0.006326212 0.07295581 0.106858484
000170 b8 3b a5 3d 51 79 d6 3d ac 49 08 3e a9 36 aa 3d
       0.08068031 0.10472358 0.13309354 0.08311207
000180 5b 80 01 3c a4 bf 35 3d aa e0 89 3d cd c6 0d 3c
       0.0079041375 0.044372216 0.067323044 0.008653355
000190 41 2c 27 bd d9 d5 7e bd dc fb ee bc 43 0e 3a bd
       -0.04081369 -0.06221566 -0.02917283 -0.045423757
0001a0 d3 77 01 bd a4 b7 da 3d d6 30 02 3e 59 2b 04 bc
       -0.031608414 0.10679558 0.12713942 -0.0080669755
0001b0 aa bf 28 3d 9b 34 68 3d aa f6 a0 3c 81 ec 01 3d
       0.04119841 0.056690793 0.019648869 0.03171969
0001c0 e6 67 a7 3c 78 53 ae 3b 8c 91 39 bd f3 a3 f0 bb
       0.020435285 0.005320009 -0.04530482 -0.007343763
0001d0 3c e3 10 3c 0d 6d 1d 3d f3 ba e0 3d 99 3a 0e 3e
       0.008843239 0.038434077 0.10973158 0.1388954
0001e0 82 6c ec 3d 7d 31 ec 3d 9f 44 a2 3b e1 05 6b 3d
       0.11544134 0.11532877 0.004952028 0.057378653
0001f0 1a 6f a0 3c d0 77 25 b9 f7 9e 14 bd c5 56 95 bd
       0.019584227 -0.0001578026 -0.036284413 -0.072919406
000200 d8 43 04 be 34 28 6c bd 24 cb 94 bd 19 73 5b bd
       -0.12916505 -0.05765553 -0.072653085 -0.053576563
000210 19 4e e8 bc 31 a2 46 3d c6 37 cd 3d c2 3c 45 3d
       -0.028357552 0.04849452 0.100204036 0.048153646
000220 76 08 d4 3c 9b 3e 87 bd 70 80 b1 bd 15 00 a5 bc
       0.02588294 -0.06603738 -0.08667076 -0.02014164
000230 45 d6 9e bc 22 4b d1 3c b7 00 ad bb c5 e9 a0 bd
       -0.019389281 0.025548521 -0.005279626 -0.07857088
000240 83 8c 61 bd 10 24 40 3d 1c c8 00 3e 98 dc 40 3e
       -0.055065643 0.046909392 0.12576336 0.1883415
000250 f0 9d 4c 3e 9f 9c d6 3d 22 e3 84 3c e8 15 99 bd
       0.19982123 0.10479092 0.016221587 -0.074748814
000260 f1 25 a4 bd f0 7e 0c be d9 d1 4a be 1f 42 40 be
       -0.08015049 -0.13720298 -0.19806613 -0.18775223
000270 79 28 4d be dd 6a 5f be a6 7a 29 be 31 71 2d be
       -0.2003497 -0.21818109 -0.16550693 -0.1693771
000280 c5 f9 7e bd 30 2f f0 bc 83 26 89 3c 7e c3 fc 3d
       -0.062249918 -0.029319376 0.016741997 0.12341975
000290 7a 1a a8 bb f6 ca b1 bd 6e f4 9b bd de dd 46 bd
       -0.0051301094 -0.0868129 -0.07614981 -0.048551433
0002a0 aa b6 91 bc 8c 27 50 bd 39 ac 11 bd 74 a2 a0 bc
       -0.017787296 -0.050818965 -0.035564635 -0.019608714
0002b0 a4 b7 5f bd 18 0b 07 3e 03 2e 21 3e cc b6 40 3e
       -0.054618493 0.13187826 0.15740208 0.18819731
0002c0 ce b2 f8 3d 70 11 ed 3d f7 08 81 3c e6 90 aa bd
       0.12143479 0.115755916 0.015751345 -0.083284184
0002d0 93 62 de bd a6 b2 f2 bd eb 44 1a be af 62 bc bd
       -0.10858645 -0.11850481 -0.15065353 -0.0919851
0002e0 73 6e d2 bd c9 60 2c be 85 4f 42 be 7d c5 39 be
       -0.10274973 -0.16833796 -0.18975647 -0.18141742
0002f0 0d 54 23 be 82 7f 9c bd f2 9e 5f bd fd cc eb bd
       -0.15950032 -0.07641508 -0.05459494 -0.11513708
000300 c2 aa cb bd 95 31 a5 bd 98 f2 38 be 87 df b9 bd
       -0.09944679 -0.08066098 -0.18061292 -0.090758376
000310 46 df 80 bc 87 1d d6 bc 87 45 35 bc 44 fc 89 3b
       -0.015731465 -0.026137127 -0.01106394 0.0042109806
000320 f0 58 07 bd a8 de a3 3d 2b d5 d6 3d e1 14 a7 3d
       -0.0330438 0.08001453 0.10489877 0.08158279
000330 fd a2 ed 3c 6b 60 33 3d 3c b7 c4 ba 64 b6 ea bb
       0.029008383 0.043793123 -0.0015008221 -0.007162856
000340 a5 46 a4 3c b9 4c 0f bd 63 42 30 bd 04 86 b3 bc
       0.020053217 -0.034985278 -0.04303206 -0.02191449
000350 fc ed 6c bb 72 a7 ad bd 2d b3 19 be c5 f5 10 be
       -0.0036152592 -0.08479203 -0.15009756 -0.14156254
000360 05 14 03 be 5a 41 f0 bd fd 30 68 3b 38 f3 06 be
       -0.12800606 -0.11731215 0.003542959 -0.13178718
000370 2d b3 09 be f5 b8 ee bd 7c e3 d1 bc 68 32 4d bd
       -0.13447256 -0.116563715 -0.025621168 -0.0500969
000380 4b 9b 95 3c 69 20 05 3d 36 f4 d5 bc ce 36 88 bd
       0.018262526 0.03250161 -0.026117425 -0.06651078
000390 18 f4 06 bd b7 0d 7c 3c 9c 63 51 3c c6 94 d8 bb
       -0.03294763 0.015384129 0.012780096 -0.006609532
0003a0 17 d0 7d 3b bb 09 c0 3c 92 fd 00 3d b2 96 06 3d
       0.0038728768 0.02344214 0.031491823 0.032858558
0003b0 0b 51 28 3d 6b c7 29 3d 23 1f 26 3d 68 1f 81 bb
       0.041092914 0.041449945 0.040557038 -0.0039405115
0003c0 fc 53 b4 bc 62 80 17 bd 51 c8 b0 bd 80 c3 d5 bd
       -0.022012703 -0.03698767 -0.08631957 -0.10437679
0003d0 0a 98 a0 bd 6e f5 ad bd 4e 4b 04 be 80 77 88 bd
       -0.07841499 -0.084940776 -0.12919351 -0.06663418
0003e0 f2 80 60 be d1 f3 42 be 38 40 00 be 72 1c 37 bd
       -0.21924189 -0.19038321 -0.12524498 -0.044704862
0003f0 5b 48 1d 3d 17 c9 c8 3c d4 39 c0 3c 5c 6d a0 bd
       0.03839908 0.02450995 0.023465075 -0.07833359

fc1.0.bias f4 [64]
000000 cd b0 63 3e 1a 88 1f 3d 11 ea 82 3b 55 f7 a3 bd
       0.22235413 0.038948156 0.003995188 -0.08006159
000010 33 55 e9 3d 02 da b9 bd 3d 66 54 bd 84 b0 7a bd
       0.113932036 -0.09074785 -0.051855315 -0.061203495
000020 90 1b 6b be 28 fb 81 bd b9 e2 98 3c e4 2c 80 3e
       -0.22959733 -0.063467324 0.018662797 0.2503425
000030 3f 91 9f 3e 75 d9 0a 3d bb 24 03 3e 4c 7a d1 3c
       0.311655 0.03389879 0.1280698 0.025571011
000040 c2 ad 38 3e 5b 97 5f 3d a3 06 b3 3c 5c 95 29 3a
       0.18035033 0.054587703 0.02185375 0.00064690947
000050 92 28 d8 3d 89 78 2d 3e f3 d6 2e bd 39 b5 14 be
       0.10554613 0.16940512 -0.04268546 -0.14522256
000060 57 07 80 bd b4 27 12 bb 20 e1 09 be 5b cd d6 3d
       -0.062514 -0.0022301497 -0.13464785 0.10488387
000070 b2 01 8e bd 71 8b 9b b9 9d b0 bf bc 20 0d 1e bd
       -0.06933917 -0.00029667796 -0.023399645 -0.038586736
000080 b7 a5 0b be 2b a2 5d 3e 16 1d 17 3d 1a bf 24 3e
       -0.13637434 0.21643893 0.036892973 0.16088524
000090 2d 2e 69 3d 9f e9 91 3d fc a8 23 be ad 15 a5 3d
       0.056928802 0.07124638 -0.15982431 0.08060775
0000a0 54 eb 39 3e 8a 0c 96 3e 5b 02 fb 3d a0 58 0e bd
       0.18156177 0.29306442 0.12256309 -0.034752488
0000b0 f6 ae 45 3e 8c dc 65 3e b7 c8 57 bd 3c 71 8f bd
       0.19305024 0.22447413 -0.05268165 -0.070040196
0000c0 57 e8 04 3e 63 51 14 be 57 b0 c2 3b 14 15 53 3e
       0.12979256 -0.14484172 0.0059414315 0.2061351
0000d0 a3 ad c8 bd ea 31 25 be 99 d8 82 bb 12 50 c6 3b
       -0.097987436 -0.16132322 -0.0039931056 0.0060520256
0000e0 10 83 9b 3d 2c 00 b5 3e 33 73 b1 3d e7 bd e9 bd
       0.075933576 0.35351694 0.08664551 -0.11413174
0000f0 c3 68 7a be e8 5e 43 3d 9f 42 1a 3e 19 60 45 3e
       -0.24454026 0.04769793 0.15064476 0.1927494

fc2.0.weight f4 [10, 64]
000000 1c 48 20 be 6f 3c 90 be 1d 4d 80 3e 51 77 7b 3e
       -0.15652508 -0.28171107 0.25058833 0.24557234
000010 7b 70 ee be 77 04 d7 3d a1 cd 57 3d 31 a2 7a 3e
       -0.4657019 0.104988985 0.052686337 0.24475934
000020 10 98 19 3e 4d cc 25 3e 51 5f 3a 3e 7a 1f 6c 3e
       0.14999413 0.16191216 0.18200423 0.23058882
000030 ee 5d 94 be 82 0b 37 3e 0e 23 3a be 7b 19 d2 3d
       -0.28977913 0.17875484 -0.18177435 0.10258766
000040 43 11 0a bf 3e d3 d4 be 4c bc bb bc 74 f2 e8 3d
       -0.5393259 -0.41567415 -0.022916935 0.11374369
000050 f9 7e e1 3d c0 3f 1a 3e 56 62 c8 3d 0e 91 14 bd
       0.11010546 0.15063381 0.09784381 -0.036271147
000060 11 b8 69 be 76 8b 09 3d fa 5f 9c be 68 0f e5 3d
       -0.22824122 0.033580266 -0.30541974 0.11184579
000070 71 4e 1c 3e c0 66 2b be 8d 15 cc bd ba da 9e bd
       0.15264298 -0.16738415 -0.09965048 -0.077565625
000080 f9 72 6d be df ea 6c 3d 44 dc bb be ca dc e2 3d
       -0.2318839 0.057841178 -0.36691487 0.110772684
000090 af 25 a6 be f5 a6 e2 be b5 0b 6a 3e 31 3b cf 3d
       -0.32450625 -0.44268003 0.22856028 0.10118712
0000a0 55 50 f8 3d c9 d3 24 3e 5d 82 0c bf 3a 27 86 3e
       0.12124697 0.16096415 -0.5488642 0.26201802
0000b0 57 bd 82 3e 48 12 46 3e 67 6a a3 be 97 40 8d be
       0.2553508 0.19342911 -0.31917116 -0.2758834
0000c0 0b da 92 3e 3c 7b c4 be 74 62 13 bf 8a c5 31 3c
       0.2868198 -0.3837527 -0.575721 0.01085032
0000d0 27 bc 46 be 98 2f 81 be 05 95 64 be 59 e8 27 3e
       -0.19407712 -0.25231624 -0.22322471 0.16397227
0000e0 24 2e 0d 3e 16 ff 60 be b9 ed fa bd 08 18 68 3e
       0.13787133 -0.21972308 -0.12252373 0.22665417
0000f0 d1 6a eb bd 37 c2 56 3e 17 af c9 be 19 7d 51 3e
       -0.11494983 0.20972525 -0.39391395 0.20457877
000100 d7 31 07 bf 96 94 1a 3f c2 b4 f7 be 5b 32 6d be
       -0.52810425 0.60382974 -0.48380095 -0.2316374
000110 7c 6f a0 be ec d5 e6 be ab 74 1c 3e 62 74 23 3e
       -0.31335056 -0.45085084 0.1527888 0.15962365
000120 34 41 bd 3d f5 d9 44 3e bf 97 bb 3c 5c 65 a4 be
       0.09240952 0.19223769 0.022899507 -0.3210858
000130 23 81 59 3e 01 ce a8 be b2 25 13 3e a6 d2 00 be
       0.21240668 -0.32969669 0.14369848 -0.12580356
000140 96 e3 54 3e 59 e1 23 3e 44 f5 51 3e 8d f7 03 3e
       0.20789942 0.16003932 0.20503718 0.12887402
000150 c8 1a ed be 92 0c 2f 3e ce 9e c3 bc ce 9f 94 3e
       -0.46309495 0.17094639 -0.023879435 0.2902817
000160 f9 03 97 be 07 87 9a 3d 45 04 80 3d 58 f6 0b 3e
       -0.29495218 0.07545286 0.06250814 0.13668191
000170 7d 9e 07 bf e5 5a b6 bc 99 ea 01 bd 19 d4 c9 be
       -0.5297621 -0.022260139 -0.03171787 -0.3941963
000180 57 7c 64 be 2d d6 c6 3d 85 1f 69 3e 1c 43 0d 3e
       -0.22313057 0.097088195 0.2276593 0.13795131
000190 40 26 cc bd e9 46 14 3e a1 31 a2 be ac 89 31 3e
       -0.09968233 0.14480175 -0.3167849 0.17337674
0001a0 83 9d 26 bc 79 ce db be 8c b8 02 3e 08 da 10 bf
       -0.01016939 -0.42930964 0.12765712 -0.5658269
0001b0 06 ab c8 3d fa cb c9 be d0 c9 b3 3d b7 20 d5 3d
       0.09798245 -0.39413434 0.08778727 0.104066305
0001c0 1b f6 8e 3e 85 a1 24 3e 52 bd 28 3e 78 d2 28 3e
       0.2792214 0.1607724 0.1647847 0.16486537
0001d0 ed 33 7f 3e a3 4e 86 bd 0c 70 25 be 69 71 01 bf
       0.24922152 -0.065579675 -0.16156024 -0.50563675
0001e0 b9 1d 1c be ff 20 95 3d a1 e5 94 3e c9 9c 03 bf
       -0.15245713 0.07281684 0.29081443 -0.5141111
0001f0 9c 2b 5f be f7 82 0f be 54 8f 4b 3e a0 93 16 3e
       -0.2179398 -0.14014803 0.19878894 0.14704752
000200 a5 08 89 3e 8b 5b 4c be 5f a1 cb bd ec 72 30 3e
       0.26764408 -0.19956796 -0.099428885 0.17231339
000210 48 28 8b be 59 7d 1d 3e 1b 9a 76 be 1c 53 54 3e
       -0.2717917 0.15379848 -0.24082224 0.20734829
000220 3c cf ef 3d a5 72 84 be 4a ed 49 3e 07 9d 2a be
       0.11709449 -0.25868717 0.19719425 -0.16661464
000230 82 e7 40 bf 36 11 1e 3e 95 33 0e 3e 9e 45 38 bd
       -0.7535325 0.15436253 0.13886864 -0.044988267
000240 46 cd 4a 3d 12 a1 e6 3d e0 1d 91 3a 73 33 47 3e
       0.04951217 0.112611905 0.0011071526 0.1945322
000250 8d 96 1f 3e 18 06 70 3e fa 24 0a bf 0f 26 e6 3d
       0.15584774 0.23439825 -0.5396267 0.11237728
000260 38 47 6a 3e 62 91 92 3d 95 1b d7 be 31 ad de 3d
       0.2287873 0.07156636 -0.4201323 0.108728774
000270 6d e2 1b 3d 8a 9f 02 bf bd a4 27 3d fa cd 48 3e
       0.038057733 -0.5102469 0.04092859 0.19609824
000280 d6 4e fb 3d 84 70 d0 be e7 03 b4 3e 43 5a 59 3e
       0.12270896 -0.40710843 0.35159227 0.21225838
000290 a4 e7 5b be d4 f7 c6 be e3 84 51 bd 2d b8 10 3e
       -0.21475083 -0.38860953 -0.05115212 0.14132757
0002a0 9e b9 82 3e a5 7b ea 3d 75 7d 3b 3e 66 4e d1 bd
       0.2553224 0.114493646 0.18309577 -0.102200314
0002b0 d3 12 fb 3d 51 1c 9e be 2d dd e1 be 9e 59 37 bd
       0.1225945 -0.3088098 -0.44114056 -0.0447632
0002c0 a8 fd be 3d 05 56 05 3e e0 96 8a 3e 2d cf 5b 3e
       0.09325725 0.13021095 0.27068233 0.2146575
0002d0 04 4f 66 3e f2 26 17 3e 7a e4 0e bf 81 d5 5a bd
       0.2249108 0.1476095 -0.5581738 -0.05342627
0002e0 fe 7f 91 3e af 6d 7c be f6 35 ca be c4 c4 6f bb
       0.28417963 -0.24651216 -0.39494294 -0.0036585787
0002f0 16 9f ee 3d db f8 16 be 52 24 56 be 9f 00 c0 3c
       0.11651437 -0.14743368 -0.20912293 0.023437796
000300 04 67 c7 be fd 34 88 be af 71 c6 be ff 62 df 3d
       -0.38945782 -0.26602927 -0.3875861 0.10907554
000310 f9 28 c6 bd 60 2f 8a bc af 2a de be 34 68 de bd
       -0.09675784 -0.016868293 -0.4339194 -0.10859719
000320 28 4d 7e 3d 22 e3 11 3e ac aa 81 be 22 09 c8 be
       0.0620853 0.142468 -0.25325525 -0.39069468
000330 81 62 0e bf 69 16 25 3e 9a 97 0f bd a8 93 80 3c
       -0.55619055 0.1612183 -0.035056688 0.015695408
000340 28 ef c6 be 63 62 bd 3e d5 55 4e 3e a8 14 0e 3e
       -0.38854337 0.36989126 0.2014993 0.13875067
000350 1d 5b 6e 3e 9b 38 46 3e 49 41 0d 3e 58 a6 e8 be
       0.23276944 0.19357531 0.13794436 -0.4543941
000360 85 41 51 3e e2 3a 35 bb 1a 0f 81 3e b5 ec 99 be
       0.2043515 -0.0027653505 0.25206834 -0.30063406
000370 2a 73 15 3e 34 36 50 be 7d 3c c6 3d f1 0b a9 be
       0.14594713 -0.20333177 0.09679506 -0.33016923
000380 a2 af b9 be c8 db 90 be 77 dd a6 be 66 4f 93 bd
       -0.3626681 -0.2829268 -0.3259084 -0.071928784
000390 79 92 b2 3e 56 f6 29 3e 59 cc 30 3e 96 1b f7 3d
       0.34877375 0.16597876 0.17265452 0.120658085
0003a0 d1 f8 0a 3e 13 8c fc 3d 6e 6f 28 3e 33 e7 80 bd
       0.13571478 0.123314045 0.16448757 -0.06294098
0003b0 06 9b 43 be 8c 05 fa 3d 20 0f 2b 3e 4e 02 6f 3e
       -0.19102105 0.12208089 0.16704988 0.23340723
0003c0 45 a8 94 be 11 49 44 3e ae fd a4 3d a5 e3 f3 3d
       -0.2903463 0.19168498 0.08056198 0.11908654
0003d0 80 a2 da 3d b9 ce 98 3d dd 0e 0c bd 32 56 1e be
       0.10675526 0.07461304 -0.034193862 -0.15462568
0003e0 a0 f8 27 be 17 a8 4c 3e 0a 63 a4 3d 85 89 a9 bd
       -0.16403437 0.19985996 0.08026703 -0.08278183
0003f0 7d e1 06 3e 11 0e 81 3e e1 89 0f bc a4 90 5e 3e
       0.13171954 0.25206044 -0.0087609 0.21734864

fc2.0.bias f4 [10]
000000 a1 f4 60 3d 8a ea f5 3d 6b d6 8c 3c 53 8c a1 bd
       0.054920796 0.120076254 0.017192086 -0.07888093
000010 0f 9a 42 3e be 6b 9a 3e fb ad 9c bc 96 d1 84 3e
       0.19004081 0.30160326 -0.01912593 0.2594115
000020 42 e1 25 be 60 20 ee bd
       -0.1619921 -0.11627269
