callbacks/05-23-2022_08-58-09/models/epoch_5.pt (torch, 205087 bytes, 4 tensors)

fc1.0.weight f4 [64, 784]
0	0x3cbb1946	0.0228392
1	0x3cc23bc8	0.023710147
2	0xbabe8ce0	-0.0014537834
3	0xbcaadee0	-0.020858228
4	0xbd09698a	-0.033547916
5	0x3ce4c81e	0.027927455
6	0xbd0f4d15	-0.03498562
7	0xbc4854b8	-0.01222723
8	0x3c77bcb0	0.01512067
9	0xbc06a064	-0.008216951
10	0xbb86bad8	-0.004111629
11	0x3c4d89d0	0.012545064
12	0xbd998feb	-0.07498153
13	0xbd97ae72	-0.0740632
14	0x3cbb5dee	0.022871938
15	0x3c47d7ab	0.012197415
16	0x3c3191b8	0.010837965
17	0xbd0584ee	-0.032597475
18	0x3c9b2cde	0.018942293
19	0xbc9a21fa	-0.01881503
20	0xbd0ee452	-0.034885712
21	0x3c6bb848	0.014387198
22	0xbbb753e4	-0.0055947173
23	0xba113780	-0.0005539581
24	0x3cccd746	0.025004994
25	0x3d118eef	0.035536703
26	0x3cff9dae	0.031203117
27	0xbabbf8c0	-0.0014341101
28	0xbcf5bfd3	-0.029998695
29	0x3d115d63	0.03548945
30	0x3cb894dc	0.02253192
31	0x3c5fa01c	0.013649013
32	0xbd60b114	-0.054856375
33	0xbd323282	-0.0435052
34	0xbd803625	-0.06260327
35	0xbd44a7d0	-0.0480116
36	0xbd8487af	-0.06471192
37	0xbe045892	-0.12924412
38	0xbdcb4616	-0.09925477
39	0xbe95db8f	-0.29269072
40	0xbe9b6ee7	-0.3035805
41	0xbe7d2b81	-0.24723627
42	0xbddecdb7	-0.10879081
43	0xbcdb0813	-0.026737249
44	0x3d7cfdd0	0.061765492
45	0x3d0d7b61	0.03454149
46	0xbea272ec	-0.31728303
47	0xbe80f1fe	-0.25184625
48	0xbe7dc671	-0.2478273
49	0xbe301e60	-0.17199087
50	0xbe0fd82c	-0.14047307
51	0xbdbc3c1f	-0.09191155
52	0x3c96ac6e	0.018392768
53	0x3cd8bf7a	0.02645849
54	0x3cc4db80	0.024030447
55	0x3c026ee8	0.007961012
56	0x38d41c00	0.00010114163
57	0x3c9b896e	0.01898643
58	0xbb935458	-0.0044961385
59	0xbdb76fb6	-0.08956854
60	0xbdf6e7d3	-0.12055936
61	0xbb97d47d	-0.004633485
62	0xbdd84d20	-0.105615854
63	0xbe260491	-0.1621268
64	0xbe21b108	-0.15790188
65	0xbe2833eb	-0.16426055
66	0xbdce5dad	-0.10076461
67	0x3d034dea	0.032056727
68	0xbe316656	-0.17324194
69	0xbe16f1d1	-0.14740683
70	0xbe2a7164	-0.16644818
71	0xbdd0fc66	-0.10204391
72	0x3c0a569e	0.008443503
73	0x3e14fc0d	0.14549275
74	0xbcb2b03b	-0.021812549
75	0xbe328de6	-0.17436942
76	0xbe04f4d1	-0.12984015
77	0xbe09f82a	-0.13473573
78	0xbd012350	-0.031527817
79	0x3dda15cc	0.10648689
80	0x3db9c5a5	0.09070901
81	0x3d3b7eaf	0.04577511
82	0xbbd2c0f0	-0.0064316913
83	0xbcbc20ee	-0.02296492
84	0x3a73da40	0.0009302236
85	0xbc095460	-0.008381933
86	0xbd8135df	-0.06309103
87	0xbda5d1cc	-0.08096656
88	0x3d30e8aa	0.043190636
89	0x3dbca6ee	0.09211527
90	0xbc3b52e5	-0.011433338
91	0xbc8de028	-0.0173188
92	0xbd2c0ca0	-0.042004228
93	0xbdce55e6	-0.100749776
94	0xbd0e063e	-0.03467392
95	0x3dd33148	0.10312134
96	0xbcb2c00f	-0.021820096
97	0xbd42c8ca	-0.04755477
98	0x3d889381	0.06668759
99	0x3d2aa057	0.04165682
100	0x3c4a0752	0.012330847
101	0xbd313189	-0.04326013
102	0xbce83d6d	-0.028349603
103	0x3dbf4cee	0.09340845
104	0x3d4c7b76	0.04992243
105	0x3e229502	0.15877154
106	0x3ebd720b	0.3700107
107	0x3e5caa15	0.21549256
108	0x3e6aa35a	0.22913876
109	0x3e24b363	0.16084056
110	0x3de16126	0.11004858
111	0x3d01ec81	0.03171969
112	0x3ca767e6	0.020435285
113	0x3baa4d5f	0.0051972116
114	0xbd39e19f	-0.045381185
115	0xbdb27293	-0.087132595
116	0x3d9ef582	0.07761671
117	0x3e161bc3	0.14659028
118	0x3e0c5bc0	0.13706875
119	0x3e478a60	0.1948638
120	0x3e001fb1	0.1251209
121	0x3d8e2d48	0.069422305
122	0xbd97dad0	-0.07414782
123	0x3d32735d	0.04356705
124	0x3d4c814c	0.049927995
125	0x3d225931	0.03963584
126	0xbca7a933	-0.020466423
127	0xbe0e0210	-0.13867974
128	0xbe3428d3	-0.17593698
129	0xbd99d077	-0.07510465
130	0xbda48076	-0.080323145
131	0xbd077425	-0.03306975
132	0x3cb9babd	0.022672052
133	0x3d76346f	0.0601086
134	0x3e3fc79d	0.1872849
135	0x3e760bb4	0.24027902
136	0x3e5f7fe8	0.21826136
137	0x3def0792	0.11671366
138	0xbdae9bc7	-0.08525806
139	0xbd3b2649	-0.04569081
140	0xbc9ed645	-0.019389281
141	0x3cd14b22	0.025548521
142	0xbc695b07	-0.014242894
143	0xbd81ce12	-0.06338133
144	0xbc5d8d74	-0.013522495
145	0x3df93813	0.121688984
146	0x3e7b92d8	0.24567735
147	0x3ea27f35	0.31737676
148	0x3e9d09ae	0.30671448
149	0x3e47cefa	0.19512549
150	0x3dd7edf7	0.10543435
151	0xbd07c67c	-0.033148274
152	0xbda5fa6f	-0.08104407
153	0xbde8f2f4	-0.11374465
154	0xbdd515ba	-0.10404535
155	0xbdac1b44	-0.08403638
156	0xbe1afdd8	-0.15135896
157	0xbe562fdd	-0.20916696
158	0xbe63a02f	-0.22229074
159	0xbe6d3074	-0.23163015
160	0xbcada958	-0.021198913
161	0xbd023b66	-0.031794928
162	0xbd29f2d2	-0.041491337
163	0x3e10689b	0.14102404
164	0x3d56fd17	0.05248746
165	0x3cea33a1	0.028589072
166	0xbdea36d6	-0.114362404
167	0xbd46dde2	-0.048551448
168	0xbc91b6aa	-0.017787296
169	0xbdbdb930	-0.09263837
170	0xbd8d8526	-0.06910162
171	0x3b88010a	0.0041505145
172	0xbd04b6c4	-0.03240086
173	0x3e4eac06	0.20182809
174	0x3e9284ea	0.2861703
175	0x3e9771bd	0.29578963
176	0x3e463a78	0.19358242
177	0x3e45b890	0.19308686
178	0x3d81edae	0.06344162
179	0xbd67db5c	-0.05660568
180	0xbdb01adc	-0.08598873
181	0xbe1277eb	-0.14303558
182	0xbe241d07	-0.16026698
183	0xbd7cd6e1	-0.061728362
184	0xbd87de8d	-0.06634245
185	0xbe04acc3	-0.12956528
186	0xbe4f6c98	-0.20256269
187	0xbe6c15a7	-0.23055135
188	0xbe4477f0	-0.19186378
189	0xbdfe7f3d	-0.124266125
190	0xbe32c3a5	-0.17457445
191	0xbe677adc	-0.22605461
192	0xbe17ea73	-0.14835529
193	0xbd9e5590	-0.077311635
194	0xbe051008	-0.12994397
195	0xbdde668a	-0.108594015
196	0xbc80e11c	-0.01573234
197	0xbb49142e	-0.0030682194
198	0x3cb207ef	0.021732299
199	0x3cbf6ee1	0.0233683
200	0x3ce78268	0.028260425
201	0x3e176646	0.14785108
202	0x3e36a5ee	0.17836735
203	0x3dcfd90a	0.10148819
204	0x3cd4033c	0.025880449
205	0x3d81b320	0.063329935
206	0xbb8f066d	-0.0043647797
207	0xbc3e8801	-0.011629106
208	0xbd34b063	-0.044113528
209	0xbdc71f51	-0.0972277
210	0xbdf63a20	-0.12022805
211	0xbdab06e5	-0.083509244
212	0xbd17e68a	-0.037085094
213	0xbdb9abad	-0.09065948
214	0xbe22c849	-0.15896715
215	0xbe28b9e2	-0.16477159
216	0xbe1d79d5	-0.15378506
217	0xbdf82932	-0.121172324
218	0x3d0044b4	0.03131552
219	0xbe550d27	-0.20805798
220	0xbde20a4c	-0.1103712
221	0xbccb8d5e	-0.024847683
222	0x3d9266f9	0.07148547
223	0xbda27d53	-0.0793406
224	0xbce2ac96	-0.027670186
225	0x3daefd8f	0.08544456
226	0xbbb97173	-0.005659276
227	0xbd858fa3	-0.06521537
228	0x3d327a9c	0.04357396
229	0x3db8df9f	0.09027027
230	0x3d350ad2	0.044199772
231	0xbd09ecc0	-0.033673048
232	0xbd1858b0	-0.037193954
233	0x3c1a9989	0.00943602
234	0x3d1c5bc6	0.03817346
235	0x3c3fea68	0.011713602
236	0xbd04f19d	-0.032456983
237	0xbd3e4387	-0.046451118
238	0xbccb22f9	-0.02479695
239	0xbd88cdea	-0.066799
240	0xbdd1d792	-0.10246195
241	0xbe08fef9	-0.13378514
242	0xbe16102b	-0.14654605
243	0xbe17dabe	-0.14829537
244	0xbdd95a7d	-0.106129624
245	0xbdd4c5ca	-0.10389288
246	0xbde3c8ba	-0.1112227
247	0xbc93b0d2	-0.01802865
248	0xbe53f9bc	-0.20700735
249	0xbddccc41	-0.10781146
250	0xbd65efcc	-0.05613689
251	0xbdd2107c	-0.102570504
252	0x3d23ca9b	0.03998814
253	0x3de28439	0.11060376
254	0x3d4549e0	0.048166156
255	0xbe163aa8	-0.14670813

fc1.0.bias f4 [64]
0	0x3ea9de98	0.33177638
1	0xbd2e0a11	-0.04249007
2	0xbcb4f9f2	-0.02209184
3	0xbdff6246	-0.12469916
4	0x3e263165	0.1622978
5	0xbe29c205	-0.16577919
6	0xbd55af95	-0.0521694
7	0xbe29d4d5	-0.16585095
8	0xbebebb69	-0.37252358
9	0xbe0ef03f	-0.13958834
10	0xbb4ea97d	-0.0031534128
11	0x3ea2adfd	0.31773368
12	0x3ed620f8	0.41822028
13	0x3cd45a66	0.025922012
14	0x3e79af65	0.24383314
15	0x3cd17a4c	0.025571011
16	0x3e9bc9b3	0.30427322
17	0x3d410c28	0.047130734
18	0xbbf069de	-0.007336839
19	0xbd838483	-0.06421759
20	0x3e1bb0fb	0.15204231
21	0x3df3f79f	0.11912464
22	0xbe0b4836	-0.13601765
23	0xbe4c9be6	-0.19981346
24	0xbd715ead	-0.05892818
25	0xbb1227b4	-0.0022301497
26	0xbe417e5e	-0.18895862
27	0x3e155199	0.14581908
28	0xbdb2139d	-0.08695147
29	0xbbedbaf8	-0.0072549544
30	0x3ce9bf62	0.028533641
31	0xbd1d5026	-0.038406514
32	0xbe1c14e3	-0.15242343
33	0x3e5ef55c	0.21773285
34	0x3c81d9e9	0.015850978
35	0x3e58c10c	0.21167392
36	0x3bd7bd1b	0.0065838224
37	0x3d502b90	0.050822794
38	0xbe9999f6	-0.30000275
39	0x3dd0e200	0.10199356
40	0x3e764d7d	0.24052997
41	0x3efa908e	0.4893841
42	0x3e3bc7fd	0.18338008
43	0xbce6ddec	-0.028181992
44	0x3e78518c	0.24249858
45	0x3e82b706	0.2553026
46	0xbdd75328	-0.10513908
47	0xbdebaeea	-0.115079716
48	0x3e6b1bec	0.2295987
49	0xbe813389	-0.2523463
50	0xbc53266d	-0.012887579
51	0x3e8b77b6	0.2723977
52	0xbe236976	-0.15958199
53	0xbe5ec73d	-0.21755691
54	0xbd17d94a	-0.037072457
55	0x3d5e9385	0.054339904
56	0x3dcb2057	0.09918278
57	0x3ec60dc9	0.38682392
58	0x3db0d74f	0.08634817
59	0xbe13599b	-0.1438965
60	0xbea59e23	-0.3234721
61	0xbcb603c1	-0.022218587
62	0x3e85ded3	0.26146564
63	0x3e8452f9	0.25844553

fc2.0.weight f4 [10, 64]
0	0xbdd92f9c	-0.10604784
1	0xbf2068b9	-0.62659794
2	0x3e9dcdf7	0.308212
3	0x3e88114b	0.26575693
4	0xbf133b4f	-0.5751237
5	0x3df7aad5	0.120931305
6	0x3dc97c08	0.0983811
7	0x3ec40180	0.38282394
8	0x3e61afd5	0.22039731
9	0x3e3716d2	0.17879799
10	0x3e1d99c5	0.1539069
11	0x3ea7ea93	0.32796153
12	0xbedb76d6	-0.42864102
13	0x3e4f1e04	0.20226294
14	0xbe8e8731	-0.27837518
15	0x3dd2197b	0.10258766
16	0xbf36a8df	-0.71351427
17	0xbf14cf5c	-0.58128905
18	0xbd529650	-0.05141288
19	0x3ddaac55	0.10677401
20	0x3dfc4b7f	0.12319087
21	0x3e326004	0.1741944
22	0x3dcbb302	0.099462524
23	0xbe6d6bcb	-0.23185651
24	0xbe910ff6	-0.2833249
25	0x3d098b76	0.033580266
26	0xbf1ed1a9	-0.62038666
27	0x3e468ac6	0.19388875
28	0x3e352ae3	0.17692141
29	0xbe76d6e0	-0.24105406
30	0xbe0866c3	-0.1332045
31	0xbd314789	-0.043281112
32	0xbe4cca48	-0.19999039
33	0xbc198d48	-0.009372063
34	0xbf0b6ab9	-0.5445972
35	0x3e75bbe5	0.23997457
36	0xbf1ca8a9	-0.61194855
37	0xbf07bd53	-0.5302326
38	0x3e6e0410	0.23243737
39	0x3e045378	0.12922466
40	0x3ded5448	0.11588341
41	0x3e836c8f	0.2566876
42	0xbf64f4c0	-0.8943596
43	0x3eb4bd0f	0.3530049
44	0x3e9aaf0c	0.30211675
45	0x3e0d2a88	0.13785756
46	0xbf430f08	-0.7619481
47	0xbdf3fd7c	-0.11913583
48	0x3ee47982	0.44623953
49	0xbec13bbf	-0.37740895
50	0xbf4c022f	-0.7969083
51	0x3d797ff3	0.060913038
52	0xbe706a41	-0.23478033
53	0xbe9bea4f	-0.304522
54	0xbe996038	-0.29956222
55	0x3e4e49df	0.20145367
56	0x3e68ee29	0.22747101
57	0xbef5c2d5	-0.48000208
58	0xbc845d6c	-0.016157828
59	0x3e7bace1	0.24577667
60	0xbc45c2e8	-0.012070395
61	0x3ea290ec	0.31751192
62	0xbf074ee3	-0.52854747
63	0x3e9a4048	0.30127168
64	0xbf3a899e	-0.7286624
65	0x3f4092db	0.75224084
66	0xbf28c970	-0.6593237
67	0xbdd930b1	-0.1060499
68	0xbeffa016	-0.49926823
69	0xbf0c7da1	-0.54879194
70	0x3e3458aa	0.17611948
71	0x3e45329a	0.19257584
72	0x3e913a11	0.28364614
73	0x3e67c2bb	0.22632878
74	0x3d1c922e	0.038225345
75	0xbe82c70e	-0.25542492
76	0x3e4195ef	0.18904851
77	0xbea4f75a	-0.32219964
78	0x3e30d374	0.17268163
79	0xbe00d2a6	-0.12580356
80	0x3e4a2911	0.19742228
81	0x3e236d7e	0.15959737
82	0x3e995d6d	0.2995409
83	0x3e19b207	0.15009318
84	0xbf0b7830	-0.54480267
85	0x3e81bbd2	0.25338608
86	0xbcfc9d1a	-0.03083663
87	0x3edb8227	0.42872736
88	0xbea7fdda	-0.3281086
89	0x3d9a8707	0.07545286
90	0x3da5f2de	0.08102964
91	0x3e1b3760	0.15157843
92	0xbf36fa9f	-0.7147617
93	0xbe5f1e26	-0.21788844
94	0xbd5baef2	-0.053633638
95	0xbf3d7c50	-0.7401781
96	0xbef629cc	-0.48078763
97	0x3e5cad7e	0.21550557
98	0x3e813275	0.25233808
99	0x3eb8c45f	0.3608732
100	0x3c8c77d8	0.01714699
101	0x3e26a838	0.16275108
102	0xbea9b122	-0.33142954
103	0x3e337723	0.17525916
104	0x3dca29aa	0.09871228
105	0xbf3d396c	-0.73915744
106	0x3dd85516	0.10563104
107	0xbf3347c5	-0.70031387
108	0x3e7b4173	0.24536686
109	0xbebc5353	-0.3678232
110	0x3df3d4dc	0.11905834
111	0x3e4f210f	0.20227455
112	0x3ee7f8c8	0.45306993
113	0x3e31aa5d	0.17350145
114	0x3e174db4	0.14775735
115	0x3dbf4dc2	0.09341003
116	0x3e92f621	0.28703406
117	0xbdd51b94	-0.10405651
118	0xbea4db45	-0.3219854
119	0xbf33ac61	-0.70184904
120	0xbd89beb3	-0.06725826
121	0x3e448718	0.19192159
122	0x3e811b54	0.25216162
123	0xbf466fbd	-0.7751425
124	0xbe5ec789	-0.21755804
125	0xbe09d647	-0.13460647
126	0x3e658bd8	0.22416627
127	0x3eb3056b	0.3496507
128	0x3eb40910	0.35163164
129	0xbe9764ed	-0.29569188
130	0xbd847f9b	-0.06469651
131	0x3e82253f	0.25419042
132	0xbe98b159	-0.29822806
133	0x3e8d4db3	0.27598342
134	0xbea9b947	-0.33149168
135	0x3e85b325	0.2611324
136	0x3e2d2b01	0.16910936
137	0xbec56166	-0.38550872
138	0x3e3cc420	0.18434191
139	0xbed40672	-0.41411167
140	0xbf7c4add	-0.9855173
141	0x3e493047	0.19647323
142	0x3dc9128c	0.09817991
143	0xbd38459e	-0.044988267
144	0x3e34411c	0.17602962
145	0x3e75d32a	0.24006334
146	0x3d2d3139	0.04228327
147	0x3e7ab9b8	0.24484909
148	0x3e8ef48a	0.27920943
149	0x3e88b0fb	0.26697525
150	0xbf22ec66	-0.63641965
151	0x3e98b776	0.2982747
152	0x3e80ef6b	0.2518266
153	0x3d929162	0.07156636
154	0xbf4117b7	-0.7542681
155	0x3e24407e	0.16040227
156	0x3ce7775b	0.028255155
157	0xbf2ec562	-0.6826993
158	0x3d9080c6	0.070558116
159	0x3e3cea61	0.18448783
160	0x3e117b8d	0.14207287
161	0xbf4502d1	-0.7695742
162	0x3f0a72b5	0.5408128
163	0x3e85b90b	0.2611774
164	0xbe8c886f	-0.2744784
165	0xbf229795	-0.63512546
166	0x3d5c767d	0.053823937
167	0x3e0720ab	0.13196056
168	0x3ed017cf	0.40643165
169	0x3e5f99d9	0.21836032
170	0x3e753e17	0.23949467
171	0xbdf27352	-0.11838402
172	0x3db66fb2	0.08908023
173	0xbef427fa	-0.4768675
174	0xbf1651ec	-0.5871875
175	0x3ca706ae	0.020388927
176	0x3d3645b1	0.044500057
177	0x3e1ee231	0.15515973
178	0x3e8d07a6	0.27544898
179	0x3e90c829	0.2827771
180	0x3e564d75	0.20927985
181	0x3e0c2fc9	0.13690104
182	0xbf5061b5	-0.8139909
183	0xbdd4ca81	-0.10390187
184	0x3e65eb4f	0.22453044
185	0xbe948cb8	-0.2901361
186	0xbefea44a	-0.49734718
187	0xbbc8895e	-0.006119891
188	0x3dbdb873	0.092636965
189	0xbe1609ec	-0.14652222
190	0xbec109ae	-0.37702698
191	0x3e026e7b	0.12737457
192	0xbefb04e9	-0.49027184
193	0xbce2511a	-0.027626563
194	0xbf0628ef	-0.5240621
195	0x3e6981b7	0.22803389
196	0xbd01e332	-0.03171081
197	0x3d640ba8	0.05567518
198	0xbf2ae93b	-0.6676213
199	0xbda0a9e9	-0.07844908
200	0x3d1bdba2	0.038051255
201	0x3e080ebc	0.1328687
202	0xbecc28cd	-0.3987488
203	0xbf0b3cb2	-0.5438949
204	0xbf36dfd9	-0.71435314
205	0x3e076469	0.13221897
206	0xbc9e9570	-0.019358367
207	0x3c8093a8	0.015695408
208	0xbef4afad	-0.4779028
209	0x3ee09717	0.43865272
210	0x3e41bb1a	0.1891903
211	0x3e26091e	0.16214415
212	0x3e93600a	0.2878421
213	0x3e386dfd	0.18010707
214	0x3e045c75	0.12925895
215	0xbf3eb7e5	-0.7449935
216	0x3e643336	0.2228516
217	0xbb353ae2	-0.0027653505
218	0x3eadc046	0.33935755
219	0xbeefcf90	-0.46838045
220	0x3e2c9a67	0.16855775
221	0xbec50696	-0.38481587
222	0x3e09fcd0	0.13475347
223	0xbee23a38	-0.44185042
224	0xbf002899	-0.5006195
225	0xbe99b709	-0.30022457
226	0xbe98e274	-0.2986027
227	0xbdfe384f	-0.12413084
228	0x3ee45823	0.44598493
229	0x3e3c6c2d	0.18400641
230	0x3e2d3b9b	0.16917269
231	0x3e21667c	0.15761751
232	0x3e4714b0	0.19441485
233	0x3d79c82e	0.06098192
234	0x3e572add	0.21012445
235	0xbe18fc23	-0.14939933
236	0xbe5fc652	-0.21852997
237	0x3e80317e	0.2503776
238	0x3e916f7d	0.2840537
239	0x3e903b27	0.2817013
240	0xbefc888d	-0.4932293
241	0x3e891379	0.2677267
242	0x3e2f79e0	0.17136335
243	0x3e0205c7	0.12697516
244	0x3e30f0f1	0.17279412
245	0x3e0f446b	0.13990943
246	0xbca678ed	-0.020321334
247	0xbe410754	-0.18850452
248	0xbe8935a3	-0.26798734
249	0x3e64d2c2	0.22346023
250	0x3e72ddda	0.23717442
251	0xbde6a6a0	-0.1126225
252	0x3e13d6d2	0.14437416
253	0x3e70a207	0.23499309
254	0xbd1779bf	-0.03698134
255	0x3e92b915	0.2865683

fc2.0.bias f4 [10]
0	0xbc7bcc9e	-0.015368609
1	0x3de9debe	0.11419438
2	0x3d527ec2	0.051390417
3	0xbdf49c9e	-0.11943935
4	0x3e9eeec7	0.31041548
5	0x3ecddda3	0.40208158
6	0x3ddf62da	0.10907526
7	0x3e9c8d56	0.3057658
8	0xbe1a2b11	-0.15055491
9	0xbdf62738	-0.12019199
