callbacks/05-23-2022_08-58-09/models/epoch_8.pt (torch, 205087 bytes, 4 tensors)

fc1.0.weight f4 [64, 784]
000000 46 19 bb 3c c8 3b c2 3c e0 8c be ba e0 de aa bc
       0.0228392 0.023710147 -0.0014537834 -0.020858228
000010 8a 69 09 bd 1e c8 e4 3c 15 4d 0f bd b8 54 48 bc
       -0.033547916 0.027927455 -0.03498562 -0.01222723
000020 b0 bc 77 3c 64 a0 06 bc d8 ba 86 bb d0 89 4d 3c
       0.01512067 -0.008216951 -0.004111629 0.012545064
000030 22 4d c7 bd 10 73 c5 bd 22 54 bb 3c d6 d6 47 3c
       -0.09731509 -0.09641087 0.022867266 0.012197217
000040 b8 91 31 3c ee 84 05 bd de 2c 9b 3c fa 21 9a bc
       0.010837965 -0.032597475 0.018942293 -0.01881503
000050 52 e4 0e bd 48 b8 6b 3c e4 53 b7 bb 80 37 11 ba
       -0.034885712 0.014387198 -0.0055947173 -0.0005539581
000060 46 d7 cc 3c ef 8e 11 3d ae 9d ff 3c c0 f8 bb ba
       0.025004994 0.035536703 0.031203117 -0.0014341101
000070 d3 bf f5 bc 63 5d 11 3d dc 94 b8 3c 1c a0 5f 3c
       -0.029998695 0.03548945 0.02253192 0.013649013
000080 14 b1 60 bd cb b8 32 bd 14 27 e2 bd d6 e4 c4 bd
       -0.054856375 -0.043633264 -0.1104261 -0.096139595
000090 ed 8b 9f bd 07 f5 07 be f7 6f 09 be 51 3e ad be
       -0.077903606 -0.13277064 -0.13421617 -0.33836606
0000a0 a6 81 b6 be 07 95 9c be e7 2e 2a be 91 07 ac bd
       -0.3564579 -0.3058245 -0.16619454 -0.08399881
0000b0 4f d6 45 3d 80 e8 fe bc fd e0 c6 be d8 fe aa be
       0.048300084 -0.031116724 -0.38843527 -0.33397555
0000c0 9f 76 a3 be 47 54 45 be a1 1b 26 be e3 21 06 be
       -0.31926438 -0.1927043 -0.16221477 -0.13098864
0000d0 6e ac 96 3c 7a bf d8 3c 80 db c4 3c e8 6e 02 3c
       0.018392768 0.02645849 0.024030447 0.007961012
0000e0 00 1c d4 38 6e 89 9b 3c 39 90 93 bb 8f c3 2d be
       0.00010114163 0.01898643 -0.0045032767 -0.16969131
0000f0 e2 37 65 be 6c 25 a1 bb 1d 48 25 be f0 18 6f be
       -0.22384599 -0.004917791 -0.1614079 -0.23349357
000100 3b 57 de bd 16 0f 83 bd a0 e4 c5 bd c2 de b9 bd
       -0.10856482 -0.06399362 -0.096627474 -0.09075691
000110 d1 8f 58 be c5 5a 66 be 13 6a 9b be 44 a8 37 be
       -0.21148612 -0.22495563 -0.30354366 -0.17935282
000120 cf 02 8d bc 75 e8 9e 3d 5c 27 1a be d7 a9 90 be
       -0.017213253 0.077591814 -0.15054077 -0.28254578
000130 fd eb 49 be d2 8c 0f be ac 41 b5 bc 77 b1 87 3d
       -0.19718929 -0.14018562 -0.022126041 0.066256456
000140 3b 3e c2 3d 5d c2 55 3d f0 c0 d2 bb ee 20 bc bc
       0.09484526 0.052187312 -0.0064316913 -0.02296492
000150 40 da 73 3a 60 54 09 bc 0e 3e 81 bd a9 a2 2c be
       0.0009302236 -0.008381933 -0.06310664 -0.16858925
000160 83 f1 b1 3c 40 e9 af 3d ec 37 d3 bd 57 15 e0 bd
       0.021721607 0.08589411 -0.103134006 -0.1094157
000170 b2 56 5e bd 9f 24 ac bd a7 f8 ce 3d 9b ed 67 3e
       -0.054281898 -0.084054224 0.101060204 0.22649233
000180 db 63 5a bd 3d af d9 bd d0 52 b6 3d 54 86 d3 3d
       -0.053317886 -0.10629127 0.08902514 0.103283554
000190 74 c5 59 3d a2 a4 71 bd 5e c8 c4 bd c0 96 24 3d
       0.05316682 -0.058994897 -0.096085295 0.04018283
0001a0 4e ff c2 3c b1 4d 66 3e e1 2b d8 3e 3e e3 54 3e
       0.02380338 0.22490574 0.42220977 0.20789811
0001b0 89 c5 7d 3e e6 31 70 3e 8d f7 21 3e 81 ec 01 3d
       0.24782385 0.23456535 0.1581709 0.03171969
0001c0 e6 67 a7 3c 10 55 aa 3b 18 02 3a bd 29 9b a8 bd
       0.020435285 0.0051981285 -0.045412153 -0.082327195
0001d0 cb b2 ee 3d b5 35 dd 3d 8f 89 0f 3e 38 68 48 3e
       0.11655196 0.108012594 0.14017318 0.19571006
0001e0 bf c7 32 3e f0 a8 bc 3d fa d0 1e bd d0 b9 f7 3d
       0.1745901 0.0921191 -0.038773514 0.12095988
0001f0 25 2c e0 3d 2d cc b5 3d 41 c5 0b 3d 0d ae 85 bd
       0.1094592 0.08876834 0.034123663 -0.06527338
000200 7e 6a 1b be 44 64 0b be 85 a4 2b be c6 31 04 be
       -0.15177342 -0.13612467 -0.16761978 -0.12909612
000210 54 8e e1 bc e0 7f 1e 3b 8e c3 2c 3e d2 83 7f 3e
       -0.027533688 0.0024185106 0.16871473 0.24952629
000220 7e ee 7b 3e 46 64 de 3d 94 26 12 be e9 50 9f bd
       0.24602696 0.108589694 -0.14272529 -0.07779104
000230 45 d6 9e bc 22 4b d1 3c bc 50 14 bd 62 d6 52 bc
       -0.019389281 0.025548521 -0.036209807 -0.012868496
000240 40 53 11 bd 70 f0 db 3d 56 f4 56 3e e4 0a b3 3e
       -0.035479784 0.10739219 0.20991644 0.34969246
000250 93 e3 d5 3e c4 d2 87 3e 9f 65 1a 3e a8 d3 21 bd
       0.41775188 0.2652799 0.15077828 -0.03950849
000260 f9 57 96 bd 3f ba 9f bd 40 28 9f bc 09 7c 02 3d
       -0.07340998 -0.077991955 -0.019428372 0.03185657
000270 e9 84 9d bd 44 67 4a be 29 b8 93 be f3 19 d0 be
       -0.07691366 -0.19765955 -0.2885144 -0.40644798
000280 68 30 1a be b1 9a eb bd e0 85 14 be e6 3b ba 3d
       -0.15057528 -0.115041144 -0.14504194 0.09093456
000290 5f 32 b7 3c 6f 55 51 3c cf af 20 be e2 dd 46 bd
       0.022362886 0.012776717 -0.15692066 -0.048551448
0002a0 aa b6 91 bc 7e e4 be bd 54 07 de bd 51 22 82 3d
       -0.017787296 -0.09320925 -0.108412415 0.063542016
0002b0 04 69 92 bd d0 08 b0 3d d9 72 2e 3e 9d 26 a5 3e
       -0.071489364 0.08595431 0.17035998 0.32256022
0002c0 1f ea 6e 3e 23 4b 4b 3e bb 53 f1 3c b9 2a a0 bd
       0.23331498 0.19852881 0.029458871 -0.07820649
0002d0 ff 75 bb bd 95 a1 08 be 0a 53 33 be 33 0f 30 bd
       -0.09153365 -0.13342889 -0.17512146 -0.042983245
0002e0 28 8c 78 bc 47 b6 db bd 92 50 44 be 46 4d 98 be
       -0.015170135 -0.10728126 -0.1917136 -0.29746455
0002f0 ff ac 8c be 93 b5 18 be ab df 95 be 7c 4a ab be
       -0.27475736 -0.14913015 -0.29272208 -0.33455265
000300 a4 d6 63 be 7c ab b6 bd 55 38 b7 bd c2 7b 27 be
       -0.22249848 -0.08919427 -0.08946291 -0.16355804
000310 1c e1 80 bc 5d ab 14 3d cc bd b9 3c e3 83 71 3c
       -0.01573234 0.036296237 0.02267351 0.014740917
000320 be 32 a2 3b d7 24 fa 3d 05 ba 20 3e 91 c4 ef 3d
       0.0049498966 0.12214058 0.15695961 0.11707414
000330 f2 99 81 3d 56 eb a0 3d e6 f1 55 bc a3 c6 a4 bc
       0.06328191 0.07857387 -0.013058161 -0.020114249
000340 41 9b 98 bd a4 a4 d0 bd 0b 11 2d be 67 f6 27 be
       -0.07451487 -0.10187653 -0.16901033 -0.16402589
000350 46 c7 78 bd e1 8f ab bd 13 92 19 be 20 ba 47 be
       -0.060736917 -0.08377052 -0.14997129 -0.19504595
000360 71 c2 11 be fd 52 e5 bd d8 7c 24 bd 11 6c b1 be
       -0.1423433 -0.111974694 -0.040158123 -0.3465276
000370 c8 3b 14 be 18 2d 18 3d b7 05 0b 3e c8 76 de bd
       -0.1447593 0.03715238 0.13576399 -0.108624995
000380 b9 8d ae bd 33 f8 fd 3d 66 ae fe bc 99 ea 27 be
       -0.08523125 0.12400856 -0.031089019 -0.16398086
000390 3e b8 63 3d 1f f0 1f 3e db e1 b3 3d b4 98 04 bd
       0.05559563 0.15618943 0.08783313 -0.03237219
0003a0 ad 47 0a bd c0 ac 15 3d fb ad b6 3c c4 79 a0 bb
       -0.03375976 0.0365417 0.022299757 -0.004897328
0003b0 11 37 ec bc 3d 67 c5 bd 65 1c f3 bd 16 a8 2c be
       -0.028834851 -0.09638832 -0.1187065 -0.16860995
0003c0 27 13 53 be ab 31 41 be e5 e0 26 be ac e2 3b be
       -0.20612775 -0.18866603 -0.16296728 -0.18348187
0003d0 b0 38 d8 bd 2f 71 df bd 1d de 12 be 0e 2d fe 3c
       -0.10557687 -0.1091026 -0.14342542 0.031027343
0003e0 04 f1 33 be 4f 6d a2 bd df 30 78 bd 9b 32 d2 bd
       -0.17572409 -0.07931005 -0.060593482 -0.102635585
0003f0 1f 52 2d 3d a8 14 14 3e ee f4 52 bd 39 65 71 be
       0.042314645 0.14461005 -0.051503114 -0.2357377

fc1.0.bias f4 [64]
000000 0c 6c d0 3e 04 e9 d2 bd 42 a1 ec bc d1 c7 49 be
       0.40707433 -0.102983505 -0.028885487 -0.1970513
000010 19 42 40 3e 84 75 31 be d0 c5 50 bd f1 4b 70 be
       0.18775214 -0.17329985 -0.0509699 -0.2346647
000020 8e 7d e4 be 2b 98 4e be 91 4b e9 bc 88 4a c2 3e
       -0.4462704 -0.20175235 -0.028478416 0.37947488
000030 d4 fd e3 3e d5 fd 8a 3d d4 88 7e 3e 4c 7a d1 3c
       0.44529593 0.06786696 0.24856883 0.025571011
000040 38 7e cc 3e 6c f6 b1 3c ec 46 ef bc 0e 7f d2 bd
       0.39940047 0.021723948 -0.029208623 -0.1027814
000050 ce d1 2d 3e 41 16 b7 3d 58 39 41 be 4a 0e 73 be
       0.16974565 0.089397915 -0.18869531 -0.2373592
000060 77 a6 77 bd b4 27 12 bb bb b3 4f be 3b a9 21 3e
       -0.060461488 -0.0022301497 -0.20283405 0.15787213
000070 81 7f 64 bd 14 28 ad bc 98 ac 26 3e 16 0b 1e bd
       -0.05578566 -0.021137275 0.16276777 -0.03858479
000080 7d ad d9 bd 09 4c 5f 3e 48 fb 76 3c ea f6 8a 3e
       -0.106287934 0.21806349 0.015074559 0.27141505
000090 4d 2c b4 3b 28 18 78 3d 4b 61 c3 be af ba b2 3d
       0.005498445 0.060569912 -0.38160166 0.08727013
0000a0 18 a2 7e 3e bd 34 1c 3f 4f f4 82 3e 50 18 24 bd
       0.24866521 0.6101797 0.25577018 -0.04006225
0000b0 82 2b 6e 3e 48 6a 78 3e 3d d9 25 be 20 11 b7 bd
       0.23258784 0.24259293 -0.16196151 -0.08938813
0000c0 e8 2d 8a 3e 2b a4 a4 be 40 6a 0c bd 81 22 95 3e
       0.2698815 -0.321565 -0.034281015 0.29127887
0000d0 59 3d 5a be 6d 18 67 be 9e fc ae bd 85 1f b8 3d
       -0.21312465 -0.22567911 -0.08544277 0.08990387
0000e0 f8 b1 00 3e 6b eb c9 3e a7 d7 5e 3d 3b 6a d6 bd
       0.1256789 0.39437422 0.05440488 -0.104694806
0000f0 71 24 b8 be b5 13 79 bd 55 03 a8 3e 72 c9 9b 3e
       -0.35965303 -0.06080981 0.32815042 0.30427128

fc2.0.weight f4 [10, 64]
000000 11 05 b8 bd 91 05 22 bf b9 b5 af 3e 1b 0c 81 3e
       -0.08985341 -0.63289744 0.3431833 0.25204548
000010 4b 4f 22 bf 46 87 06 3e 54 dc 33 3d 83 54 f1 3e
       -0.6340224 0.1313754 0.043911293 0.4713479
000020 3a eb 7a 3e 22 77 67 3e a7 06 61 3e 7d 7b de 3e
       0.24503794 0.2260404 0.21975194 0.4345359
000030 fe cc 0d bf 84 5d 77 3e bc 96 9c be 7b 19 d2 3d
       -0.5539092 0.24156767 -0.3058375 0.10258766
000040 ba 56 43 bf 7b 58 2d bf a9 25 1c be ad 1c a4 3d
       -0.7630421 -0.67713135 -0.15248741 0.08013282
000050 61 87 2e 3e 11 80 22 3e 40 13 d0 3d eb cc c8 be
       0.1704383 0.15869166 0.10159922 -0.3921884
000060 ef ab a1 be 76 8b 09 3d 43 a3 60 bf 13 33 40 3e
       -0.31576487 0.033580266 -0.8774912 0.18769483
000070 52 aa 28 3e 03 a1 2e be 3e 04 49 be 0a 23 ad 3d
       0.16471222 -0.17053609 -0.19630525 0.08453949
000080 20 0a 60 be 7f ba 80 bd 79 f9 23 bf 8d cd 4f 3e
       -0.21878862 -0.06285571 -0.6405254 0.20293255
000090 11 77 63 bf c0 e6 1d bf 94 3d 65 3e 4b a6 fa 3d
       -0.88853556 -0.6168022 0.22386771 0.12238749
0000a0 6f 0e d3 3d 4f ea ab 3e 40 d4 95 bf d2 b3 d3 3e
       0.10305487 0.335772 -1.1705399 0.4134813
0000b0 89 a3 92 3e 3d 0e 29 3e 48 b1 8d bf 45 f4 6e bd
       0.28640392 0.16509338 -1.1069727 -0.058338422
0000c0 f7 f6 0c 3f 1d 4b fb be ac 5b 65 bf b2 e5 34 3e
       0.5506434 -0.49080744 -0.89593005 0.17665747
0000d0 1c 3f a2 be 48 4f bd be e4 cf b8 be 62 c2 51 3e
       -0.31688774 -0.3697455 -0.36096108 0.20484307
0000e0 57 49 9b 3e 90 39 0d bf a9 aa 68 bd 9c 16 9b 3e
       0.3032939 -0.5516596 -0.05680338 0.30290687
0000f0 56 f4 8b 3d b0 92 b7 3e f4 b3 15 bf 8f c4 97 3e
       0.06833713 0.358541 -0.5847771 0.2964215
000100 3d c3 50 bf 34 71 50 3f ca 81 37 bf 49 7a 95 bd
       -0.8154791 0.81422734 -0.7168242 -0.07298715
000110 d0 c3 12 bf fd ed 26 bf 70 56 6e 3e d7 76 51 3e
       -0.57330036 -0.6520689 0.23275161 0.2045549
000120 cb 62 b7 3e b1 d0 36 3e 6f 11 92 3d 41 8e 95 be
       0.3581756 0.17853047 0.071322314 -0.29210094
000130 a3 c3 1c 3e 4d 02 93 be ab 84 32 3e a6 d2 00 be
       0.15309004 -0.28712693 0.17433421 -0.12580356
000140 48 d2 45 3e 77 51 5a 3e 46 3a 9b 3e f2 8b 36 3e
       0.19318497 0.21320139 0.30317897 0.17826822
000150 3c a3 26 bf d8 81 6e 3e ce 69 2b bc 92 dd fe 3e
       -0.65092826 0.23291719 -0.0104622375 0.4977842
000160 d9 3d 96 be 07 87 9a 3d e7 ea c8 3d 56 4f 49 3e
       -0.2934406 0.07545286 0.09810429 0.1965917
000170 5d 9b 59 bf 93 a9 ec be f2 e3 40 bd 7a 63 63 bf
       -0.8500269 -0.46223125 -0.047092386 -0.88823664
000180 53 82 20 bf 36 a5 af 3e 6d 99 62 3e 7a a2 10 3f
       -0.6269886 0.34305733 0.2212884 0.5649792
000190 6a be ac 3b 9b 69 0f 3e df a3 af be a6 38 40 3e
       0.0052717226 0.14005129 -0.3430471 0.1877161
0001a0 71 28 31 3e 5e 9d 74 bf 5b bd e2 3d 75 9f 46 bf
       0.17300583 -0.95552623 0.11071273 -0.7758706
0001b0 69 35 74 3e 4f 28 eb be 33 1c 13 3e 0a 81 77 3e
       0.238485 -0.4592919 0.14366226 0.24170318
0001c0 79 64 02 3f 6d 83 3e 3e ad 18 17 3e d2 f9 9a 3d
       0.5093456 0.18604822 0.14755507 0.07567181
0001d0 15 61 93 3e 48 67 92 bd 1f 01 e1 be d4 6b 41 bf
       0.28785005 -0.071486056 -0.43946168 -0.7555516
0001e0 20 75 a9 bd f4 3e 4f 3e 07 58 8c 3e c3 69 80 bf
       -0.08274293 0.20238858 0.2741091 -1.0032276
0001f0 2f 42 62 be 5b 72 66 bd e7 9c 87 3e 12 31 d3 3e
       -0.2209556 -0.0562614 0.26486894 0.41248375
000200 fb 8a da 3e c2 d4 8b be ed 25 6d bd cc 19 9e 3e
       0.4268416 -0.2731076 -0.057897497 0.30879056
000210 2a 52 8f be da a0 8b 3e 66 3e 8b be 06 03 95 3e
       -0.27992374 0.27271158 -0.27196044 0.2910387
000220 05 de 3c 3e e1 1c 11 bf 7f 79 43 3e b9 51 0a bf
       0.18444069 -0.5668469 0.19089316 -0.5403095
000230 3b 2d 96 bf 79 a3 85 3e 39 78 1b 3e 9e 45 38 bd
       -1.1732553 0.26101282 0.1518258 -0.044988267
000240 a0 2e 7d 3e fe d7 9e 3e 36 73 3a 3d cd 78 89 3e
       0.24724817 0.31024164 0.04552003 0.26849976
000250 bf 4f a6 3e 61 cf 7e 3e 83 82 19 bf ba 4f c5 3e
       0.32482716 0.24883796 -0.5996477 0.3853739
000260 0f b3 8c 3e 62 91 92 3d 32 e5 61 bf d6 06 5d 3e
       0.2748036 0.07156636 -0.8824035 0.21584639
000270 79 be 0b 3d 8e c0 50 bf 59 80 90 3e 6f 30 2a 3e
       0.034117196 -0.81543815 0.28222921 0.16620038
000280 90 d5 71 3e a1 c5 76 bf 4b 3e 1c 3f 3e 9d 90 3e
       0.23616624 -0.9639531 0.6103255 0.28244966
000290 1d c7 85 be 73 d2 54 bf 86 f0 9f 3d 63 b5 01 3e
       -0.26128474 -0.8313362 0.07809548 0.1266685
0002a0 05 21 ff 3e 18 eb 88 3e 1d 24 86 3e 0a 51 d0 bd
       0.4982988 0.26741862 0.26199427 -0.10171707
0002b0 3e 18 c1 3d 4b 3d f7 be 9b 0f 2a bf 24 ed 97 3d
       0.09428452 -0.4828895 -0.6643006 0.07418278
0002c0 51 4d 89 3d 6f 13 41 3e f2 50 81 3e e3 fc ae 3e
       0.067042 0.1885507 0.2525707 0.34177312
0002d0 3e 40 6d 3e b9 9c 1d 3e 48 f7 6b bf 00 d7 b1 bd
       0.23169038 0.15391816 -0.92174196 -0.08683586
0002e0 e7 19 55 3e 05 da af be a9 b3 0c bf 0b 4e 7e 3c
       0.20810662 -0.34346023 -0.5496164 0.015521537
0002f0 1a 81 cd 3d 3b 4c f6 bd 7f 7c 16 bf aa 14 4d 3e
       0.1003439 -0.120262586 -0.58783716 0.20027414
000300 88 7f e2 be 62 d9 fd 3d 71 00 08 bf 10 35 67 3e
       -0.44237924 0.12394978 -0.53125674 0.22578835
000310 30 6c 9d 3c 25 7c 19 3e a4 a2 4f bf ce 58 48 bd
       0.019216627 0.14988764 -0.81107545 -0.048912816
000320 ce 2b 30 3d 2e 0b 48 3e 94 71 eb be 20 8a 22 bf
       0.043010525 0.19535515 -0.4598509 -0.6349201
000330 46 41 3e bf 59 9a 06 3e 4e bc a1 bd a8 93 80 3c
       -0.7431835 0.13144816 -0.078972444 0.015695408
000340 68 c9 ff be 60 95 fa 3e af b6 87 3e a5 1c 60 3e
       -0.49958348 0.4894209 0.26506564 0.21885927
000350 fd 6b 8c 3e 1a 3c 31 3e 46 ed 05 3e a4 25 61 bf
       0.2742614 0.17308083 0.13078794 -0.8794806
000360 ee bc 46 3e e2 3a 35 bb e7 0a c2 3e 6f bb 04 bf
       0.19408008 -0.0027653505 0.37898943 -0.518485
000370 c6 be 23 3e 00 21 0f bf f1 aa 83 3e 94 a9 f3 be
       0.15990743 -0.5590973 0.25716355 -0.47590315
000380 55 89 05 bf da 7d b4 be 12 74 88 be 3f 08 40 be
       -0.5216268 -0.35252267 -0.26651055 -0.18753146
000390 4c 08 09 3f d1 f3 80 3e 12 8d 1f 3e 13 c0 22 3e
       0.53528285 0.25186017 0.15581158 0.15893583
0003a0 dd 6b 76 3e a3 87 03 bc 51 c2 50 3e 66 8d d8 bd
       0.24064584 -0.008027944 0.20386626 -0.105738446
0003b0 2d 34 84 be be 65 ac 3e 67 27 a1 3e f7 9e 9e 3e
       -0.25821057 0.33671373 0.31475374 0.30980656
0003c0 36 34 30 bf 1a 6f 8c 3e 68 8a 40 3e 3b 6d 02 3e
       -0.6882967 0.27428514 0.18802798 0.1273698
0003d0 ed 87 71 3e 76 69 24 3e 5c 4b ec 3b c5 cd 87 be
       0.23587008 0.16055855 0.007211132 -0.26524177
0003e0 59 f2 9f be d3 fa 79 3e 1e ce 96 3e f2 32 e1 bd
       -0.31239584 0.24412088 0.2945413 -0.10996045
0003f0 27 c7 fe 3d 2c 6e 6d 3e 54 74 af bb 5f 59 b6 3e
       0.12440329 0.23186558 -0.0053544436 0.3561506

fc2.0.bias f4 [10]
000000 b2 6e 87 bd 01 0d cc 3d 67 55 a1 3d 81 b6 23 be
       -0.0661291 0.09963418 0.07877617 -0.15987588
000010 57 21 c4 3e 2f 82 ce 3e 2d b0 1d 3e 1b 12 a3 3e
       0.38306686 0.40333697 0.15399237 0.3184975
000020 fa b5 c2 bd 34 9c b9 bd
       -0.095073655 -0.090629965
