callbacks/05-22-2022_21-28-16/models/epoch_2.pt (torch, 205087 bytes, 4 tensors)

fc1.1.weight f4 [64, 784]
0.016955763 -0.019237872 0.020550009 0.033278074 0.021720216 0.0008294359 -0.017821364 0.031738374
0.0017002337 -0.03328363 -0.010108113 -0.032547515 0.027645389 0.023326924 -0.0013666252 0.026575472
-0.02539866 0.035385836 -0.017596608 -0.010397928 -0.009935699 0.023424044 -0.032705855 0.019870996
0.016744915 0.0008554645 -0.026910493 -0.0031346865 0.03533831 0.010793753 -0.011940276 -0.018981764
-0.00023666822 -0.036313288 -0.041188505 -0.049558915 0.013585406 -0.020134121 -0.05883896 -0.041190438
-0.11840962 -0.08280847 -0.055598777 -0.07133641 0.021235771 0.0556576 0.017267585 -0.09396935
-0.015574884 -0.0024392635 -0.02827985 0.032344285 0.034561183 0.0051628314 0.028476197 -0.011955274
-0.010866294 -0.027847886 -0.008958204 0.035225872 -0.057521004 -0.021367997 0.014429638 -0.073915884
-0.03395809 -0.0043742964 -0.012824519 0.023426685 0.032938365 -0.017075267 -0.1316981 -0.11507242
-0.05424035 0.013544782 0.0011270555 -0.12252243 -0.08951009 -0.07378248 -0.036846597 -0.018524013
0.046242 0.013745781 -0.005715791 -0.0061911307 -0.0049239695 -0.011732753 -0.013158791 -0.008136031
-0.04731806 0.034483097 -0.012236199 0.019053698 0.06650374 0.059987623 0.10206738 0.13642557
0.18177176 0.12033065 0.035981495 -0.06309586 -0.061234407 -0.0061984984 -0.0072527146 -0.055916566
-0.10920861 -0.08045154 -0.078794755 -0.04729404 0.003938216 0.03606835 6.417185e-05 -0.01523307
-0.0326284 -0.023670236 0.0320828 0.03499274 -0.06620284 -0.07534762 0.0013290243 0.059031542
0.09793063 0.16015898 0.08608873 0.16809085 0.15531844 0.17383218 0.11082484 0.08517867
0.008022918 0.03277659 -0.009657602 -0.055926383 -0.07975181 -0.14738154 -0.20218964 -0.24935406
-0.04414487 0.094356395 -0.012870295 -0.0015607515 -0.0072183833 0.008840986 -0.014356027 0.09337355
0.08016506 0.011875027 0.04945385 0.1548071 0.16741945 0.1387581 0.106480904 0.14554542
0.15207362 0.16279079 0.13898286 0.092760354 0.14126967 0.130836 0.024390735 -0.032456253
-0.07014166 -0.12192925 -0.19949281 -0.19992623 -0.11105861 0.01766812 0.044608563 0.018268064
0.022811268 0.033881314 -0.01896561 0.18239723 0.13264893 0.13825695 0.19185416 0.21028082
0.28453335 0.20821226 0.19049095 0.086231165 0.14092562 0.10978169 0.04311673 0.12846023
0.10301117 0.06562351 0.07777641 0.055777412 0.013814643 -0.010712766 -0.09544699 -0.10227975
-0.0418223 0.041759044 0.10662957 0.008574279 0.0013949358 0.063356824 0.034910493 0.13817312
0.24467985 0.19947311 0.23481081 0.2490116 0.25922838 0.2501894 0.1969746 0.10448885
0.1119322 0.068664804 0.092807405 0.051593833 0.08007607 0.072174184 0.10393841 0.040241394
0.05197348 0.0258246 0.061137933 0.06623108 0.086505964 0.08811448 0.07508916 0.084761515
0.007162235 0.08105482 0.106661916 0.15923488 0.25399396 0.22967581 0.24860609 0.2228452
0.2485429 0.21317329 0.18179809 0.14486098 0.16811365 0.16130494 0.12471286 0.07365797
0.08270293 0.06294828 0.10543505 0.10570603 0.17050838 0.108978614 0.1462493 0.1601832
0.20272437 0.093431905 0.08362847 0.025497023 0.032122724 0.039549764 0.07254778 0.15196009
00000000: d0e6 8a3c be98 9dbc 7e58 a83c 974e 083d
00000010: 98ee b13c 806e 593a 1cfe 91bc 1900 023d
00000020: 60da de3a 6a54 08bd 809c 25bc 8b50 05bd
00000030: 9578 e23c 1b18 bf3c 5520 b3ba ceb4 d93c
00000040: da10 d0bc bdf0 103d c326 90bc 125c 2abc
00000050: 58c9 22bc c8e3 bf3c 93f6 05bd 80c8 a23c
00000060: a22c 893c 4041 603a 6573 dcbc 506f 4dbb
00000070: e7be 103d 48d8 303c 26a1 43bc a57f 9bbc
00000080: 242a 78b9 3ebd 14bd 47b5 28bd 4afe 4abd
00000090: 5395 5e3c 50f0 a4bc 1f01 71bd 4eb7 28bd
000000a0: be80 f2bd 7d97 a9bd 8bbb 63bd d318 92bd
000000b0: a4f6 ad3c 39f9 633d c074 8d3c 0173 c0bd
000000c0: cc2d 7fbc 0ddc 1fbb 25ab e7bc 717b 043d
000000d0: 0790 0d3d f82c a93b ea46 e93c 0ee0 43bc
000000e0: 8a08 32bc 4021 e4bc 6ec5 12bc 0149 103d
000000f0: 259b 6bbd f00b afbc 4a6a 6c3c 3661 97bd
00000100: a317 0bbd 4256 8fbb ee1d 52bc 52e9 bf3c
00000110: 61ea 063d 6ee1 8bbc dedb 06be 17ab ebbd
00000120: 212b 5ebd efea 5d3c b5b9 933a 0aed fabd
00000130: 1151 b7bd 451b 97bd 75ec 16bd acbf 97bc
00000140: 4068 3d3d fc35 613c 884b bbbb f8de cabb
00000150: 4059 a1bb bc3a 40bc f897 57bc fd4c 05bc
00000160: 95d0 41bd 263e 0d3d 577a 48bc 8016 9c3c
00000170: 1d33 883d 95b5 753d b408 d13d 25b3 0b3e
00000180: 6022 3a3e ea6f f63d 5561 133d 6738 81bd
00000190: eed0 7abd c61c cbbb 2ea8 edbb c508 65bd
000001a0: c4a8 dfbd c7c3 a4bd 255f a1bd 65b7 41bd
000001b0: 260c 813b 68bc 133d 0094 8638 2094 79bc
000001c0: 5ba5 05bd 15e8 c1bc 4169 033d 8c54 0f3d
000001d0: 5b95 87bd da4f 9abd a832 ae3a 0fcb 713d
000001e0: db8f c83d b700 243e 4a4f b03d 0220 2c3e
000001f0: cc0b 1f3e 1001 323e 22f8 e23d 2872 ae3d
00000200: 8f72 033c bf40 063d eb3a 1ebc 1013 65bd
00000210: eb54 a3bd 30eb 16be cd0a 4fbe ac56 7fbe
00000220: 40d1 34bd ed3d c13d eedd 52bc 2192 ccba
00000230: 3088 ecbb c8d9 103c 8b35 6bbc a23a bf3d
00000240: 942d a43d 798f 423c 1f90 4a3d c185 1e3e
00000250: 0170 2b3e 9a16 0e3e a912 da3d dc09 153e
00000260: 30b9 1b3e a1b2 263e 8651 0e3e 24f9 bd3d
00000270: ffa8 103e dff9 053e 14cf c73c d9f0 04bd
00000280: 6ea6 8fbd 0bb6 f9bd d847 4cbe 76b9 4cbe
00000290: b272 e3bd bcbc 903c 78b7 363d e8a6 953c
000002a0: b2de ba3c 22c7 0a3d c45d 9bbc 57c6 3a3e
000002b0: 1fd5 073e 3b93 0d3e 6b75 443e db53 573e
000002c0: 5bae 913e 9835 553e 0f10 433e f799 b03d
000002d0: ce4e 103e 39d5 e03d 2b9b 303d 148b 033e
000002e0: 85f7 d23d 9e65 863d 3d49 9f3d db76 643d
000002f0: d056 623c 9984 2fbc b679 c3bd 0c78 d1bd
00000300: dc4d 2bbd 880b 2b3d 9b60 da3d 227b 0c3c
00000310: 47d6 b63a 39c1 813d 4efe 0e3d 417d 0d3e
00000320: 5b8d 7a3e ae42 4c3e 3f72 703e e6fc 7e3e
00000330: 95b9 843e d318 803e b6b3 493e 40fe d53d
00000340: b63c e53d 22a0 8c3d cf11 be3d 0e54 533d
00000350: ecfe a33d 0fd0 933d a9dd d43d 29d4 243d
00000360: 25e2 543d 1d8e d33c c56b 7a3d 29a4 873d
00000370: 0a2a b13d 5d75 b43d 58c8 993d 7297 ad3d
00000380: 2fb1 ea3b 1200 a63d 9071 da3d 780e 233e
00000390: 7f0b 823e 2330 6b3e 9892 7e3e 8831 643e
000003a0: 0882 7e3e 194a 5a3e 4729 3a3e 7056 143e
000003b0: fc25 2c3e 1f2d 253e 7569 ff3d fdd9 963d
000003c0: 2760 a93d 07eb 803d 55ee d73d 677c d83d
000003d0: c099 2e3e 2e30 df3d 60c2 153e 1107 243e
000003e0: fa96 4f3e 3a59 bf3d 6745 ab3d 22df d03c
000003f0: 1e93 033d effe 213d ee93 943d 6d9b 1b3e

fc1.1.bias f4 [64]
-0.091351986 -0.16715807 0.22115205 -0.0800672 0.15371364 0.006570492 0.036221668 0.10287766
0.0052305316 -0.054975476 -0.10057214 0.11434832 0.14812802 0.122738056 -0.016709846 -0.17594369
-0.07205616 -0.04260184 -0.01706583 0.19945869 0.1571154 0.02449736 0.04754538 0.14316638
0.1271503 0.13913111 -0.030273149 -0.17393506 0.03106241 0.21003123 0.14061847 -0.08502376
-0.16693963 0.24900688 -0.1425002 -0.21960984 0.16985172 0.19226447 -0.06580871 0.2540118
0.22825196 0.22465068 0.09671201 -0.025603047 0.06536179 -0.010101576 0.28147072 0.120026745
-0.019984402 0.01915948 0.011146005 -0.118341565 -0.113870636 -0.04884114 0.029052727 0.09029034
0.099269554 0.028032387 -0.047753654 0.17681776 0.0135180345 -0.12758413 0.0024773392 -0.16381691
00000000: c016 bbbd 7c2b 2bbe af75 623e 46fa a3bd
00000010: 1c67 1d3e 484d d73b 2c5d 143d 86b1 d23d
00000020: e164 ab3b f72d 61bd c4f8 cdbd 742f ea3d
00000030: dfae 173e 175e fb3d 16e3 88bc 952a 34be
00000040: 2e92 93bd 447f 2ebd a4cd 8bbc e63e 4c3e
00000050: dce2 203e b0ae c83c f2be 423d 359a 123e
00000060: b033 023e 6378 0e3e 65ff f7bc 081c 32be
00000070: 9876 fe3c 6d12 573e 4afe 0f3e f020 aebd
00000080: 39f2 2abe a9fb 7e3e 93eb 11be 67e1 60be
00000090: 9ced 2d3e fae0 443e b8c6 86bd d60d 823e
000000a0: e2ba 693e d40a 663e f210 c63d 7bbd d1bc
000000b0: 67dc 853d 1581 25bc ee1c 903e 95d0 f53d
000000c0: 54b6 a3bc 58f4 9c3c bc9d 363c 105d f2bd
000000d0: 0235 e9bd a60d 48bd fcff ed3c 24ea b83d
000000e0: d64d cb3d 2da4 e53c 5699 43bd b70f 353e
000000f0: bf7a 5d3c 6aa5 02be db5a 223b 9fbf 27be

fc2.0.weight f4 [10, 64]
-0.11560539 0.05916352 0.010398032 -0.10135168 -0.09222658 -0.04497773 -0.12878063 -0.13540752
0.066097945 -0.07627847 -0.1174396 0.048486862 -0.017528025 0.058397766 -0.104556456 0.08237013
-0.07152788 0.021486409 0.0750823 0.07401202 -0.030389348 0.08913844 -0.054388024 0.036563482
-0.11787989 0.05932785 0.03100948 -0.0027746113 -0.004738055 -0.123026855 -0.036368847 -0.10122205
0.013735372 -0.03136957 -0.08262044 -0.008108114 -0.10113392 -0.06568074 0.040738363 -0.03855007
-0.03584526 0.00015227038 0.0521608 0.025007693 0.09431066 -0.08084241 -0.13373813 -0.062030487
-0.09394861 -0.08146062 0.009533538 0.09599628 -0.08477818 -0.07935366 -0.023853995 -0.018997794
-0.09485255 -0.08043177 0.017890422 -0.03830662 0.07920249 -0.11665256 0.06697489 -0.11446428
-0.4787251 0.12752394 -0.009978326 -0.12547179 0.5501722 -0.4000913 -0.20094302 0.1480936
0.057797026 -0.48077464 0.20136017 -0.07380011 -0.4308909 0.20603928 -0.124780275 0.11262369
0.11348564 -0.44393834 0.059781678 0.2341864 -0.47045076 0.26727378 -0.55659527 0.22830136
0.16495061 0.28075215 -0.077290736 0.17127712 0.19432335 0.15763032 0.16426638 0.18863375
-0.28100863 0.2565679 0.057048842 0.26536697 -0.34286353 0.48550513 -0.4647551 -0.22515671
0.17487086 -0.51427174 0.12541543 0.049943283 0.19257288 0.29243332 -0.07973938 -0.034606334
0.13404942 -0.3302118 -0.1883032 -0.08393337 0.10688055 0.2811302 -0.25947565 -0.45727158
0.1925406 -0.005250138 0.072359 -0.2722313 0.19414227 0.118085474 0.108652554 -0.26134613
0.3159892 -0.388385 0.26237175 0.268816 -0.5585021 -0.10313581 0.004018647 0.16670355
0.024704486 0.2693756 0.10776555 0.20547387 0.2124492 0.24454194 0.06780706 -0.4743714
0.025007183 0.23440522 -0.011061634 -0.5422356 0.27924547 0.10244124 -0.028002728 0.2785319
0.16346365 0.2756323 -0.08600029 0.17918827 0.15095197 -0.4622407 -0.24030247 -0.057626467
0.13477941 -0.48288313 0.018890874 0.04826387 -0.3421429 -0.17950727 -0.26881617 -0.27846104
0.40653294 -0.21186623 -0.3702649 0.16801003 -0.1624213 -0.3117814 0.20456886 -0.52865386
0.043605458 0.11929137 0.28424022 0.2256747 0.2572978 0.11215663 -0.24954064 0.19081782
0.19268514 0.16202636 -0.1558529 -0.3638007 -0.09403961 0.25330648 -0.0567473 -0.105728805
0.16440235 0.10312038 0.16361223 0.24209577 -0.12767151 -0.3390302 -0.30258352 0.2237492
-0.043324504 0.20303921 0.04931872 0.09205032 -0.4227665 0.03795041 -0.116355516 0.15173948
0.050202508 0.033201545 -0.11246341 -0.5770883 -0.3957036 -0.23827873 0.21417831 0.17345871
0.09835923 -0.32910928 -0.06669766 0.0321722 0.15542768 -0.2465298 0.26825288 -0.12987144
-0.47608614 0.2840052 0.14583185 0.13193692 0.07457365 0.24073091 -0.37039432 0.10706831
-0.24221553 0.008285883 -0.23057808 0.056615476 0.20114607 -0.2887239 0.27250656 -0.034168903
0.2296285 -0.4576812 -0.011767971 0.18615845 0.12395396 -0.40949312 -0.24549718 0.15814404
0.21684417 -0.4876098 0.15374488 0.16328767 -0.5898295 0.16375549 0.0018461384 0.17684929
00000000: 85c2 ecbd 7255 723d 825c 2a3c 7891 cfbd
00000010: 4ae1 bcbd 913a 38bd 12df 03be 45a8 0abe
00000020: 5c5e 873d e337 9cbd 2c84 f0bd 299a 463d
00000030: ef96 8fbc 7f32 6f3d b221 d6bd acb1 a83d
00000040: 367d 92bd 4404 b03c c0c4 993d 9d93 973d
00000050: 15f3 f8bc 378e b63d fac5 5ebd 97c3 153d
00000060: 036b f1bd c201 733d 9807 fe3c 41d6 35bb
00000070: b041 9bbb 81f5 fbbd 80f7 14bd 824d cfbd
00000080: 530a 613c 617d 00bd e834 a9bd e5d7 04bc
00000090: 4d1f cfbd a083 86bd 45dd 263d aee6 1dbd
000000a0: 7bd2 12bd c5aa 1f39 90a6 553d efdc cc3c
000000b0: f325 c13d b590 a5bd a6f2 08be ae13 7ebd
000000c0: 2168 c0bd d3d4 a6bd 8e32 1c3c b399 c43d
000000d0: 2fa0 adbd 2c84 a2bd 7469 c3bc 43a1 9bbc
000000e0: 0e42 c2bd 69b9 a4bd ef8e 923c 67e7 1cbd
000000f0: ea34 a23d 8ae7 eebd 222a 893d 406c eabd
00000100: 751b f5be a395 023e 227c 23bc ad7b 00be
00000110: 16d8 0c3f c4d8 ccbe 02c4 4dbe d9a5 173e
00000120: 93bc 6c3d 1828 f6be 5c31 4e3e 8324 97bd
00000130: bb9d dcbe f6fb 523e cd8c ffbd 40a7 e63d
00000140: 296b e83d e34b e3be a2dd 743d 8fce 6f3e
00000150: ecde f0be 1cd8 883e 077d 0ebf d5c7 693e
00000160: d0e8 283e bfbe 8f3e 9b4a 9ebd 4563 2f3e
00000170: b3fc 463e d869 213e 7235 283e 3529 413e
00000180: 5de0 8fbe de5c 833e 0cac 693d 2ede 873e
00000190: cf8b afbe 2194 f83e 61f4 edbe 7b8f 66be
000001a0: 5911 333e 50a7 03bf e76c 003e 5491 4c3d
000001b0: d331 453e d2b9 953e 664e a3bd 5fbf 0dbd
000001c0: 4044 093e 8511 a9be 8ed2 40be 42e5 abbd
000001d0: 31e4 da3d 4cf0 8f3e fed9 84be 801f eabe
000001e0: 5d29 453e 5a09 acbb f530 943d e761 8bbe
000001f0: 3bcd 463e ccd6 f13d 3b85 de3d 29cf 85be
00000200: 56c9 a13e 66da c6be 9755 863e 40a2 893e
00000210: fef9 0ebf de38 d3bd dbae 833b 56b4 2a3e
00000220: 1061 ca3c 99eb 893e 2fb4 dc3d be67 523e
00000230: 488c 593e 3469 7a3e 6ede 8a3d cfe0 f2be
00000240: dddb cc3c ec07 703e db3b 35bc f4cf 0abf
00000250: 43f9 8e3e b6cc d13d fa65 e5bc bc9b 8e3e
00000260: 0463 273e ad1f 8d3e ec20 b0bd 217d 373e
00000270: 2793 1a3e d0aa ecbe da11 76be bb09 6cbd
00000280: 9d03 0a3e 753c f7be 09c1 9a3c 56b0 453d
00000290: 5b2d afbe c1d0 37be 46a2 89be 7292 8ebe
000002a0: 1625 d03e 76f3 58be 5c93 bdbe d20a 2c3e
000002b0: c551 26be d0a1 9fbe 807a 513e dc55 07bf
000002c0: a39b 323d 094f f43d ef87 913e 4517 673e
000002d0: 8abc 833e 60b2 e53d 9587 7fbe bf65 433e
000002e0: 414f 453e 3dea 253e e797 1fbe 1644 babe
000002f0: d797 c0bd 63b1 813e db6f 68bd 5888 d8bd
00000300: 1759 283e c730 d33d f789 273e f4e7 773e
00000310: 52bc 02be 5e95 adbe 3aec 9abe 831e 653e
00000320: 0975 31bd 83e9 4f3e 6d02 4a3d e184 bc3d
00000330: da74 d8be e471 1b3d cd4b eebd 9861 1b3e
00000340: 25a1 4d3d 58fe 073d 3753 e6bd 0fbc 13bf
00000350: aa99 cabe 57ff 73be 8f51 5b3e 299f 313e
00000360: 9070 c93d 0381 a8be c898 88bd ffc6 033d
00000370: 6f28 1f3e 4f72 7cbe 7158 893e 05fd 04be
00000380: 90c1 f3be 2169 913e f254 153e 791a 073e
00000390: 12ba 983d 2a82 763e 53a4 bdbe a146 db3d
000003a0: 5907 78be 83c1 073c a91c 6cbe a1e5 673d
000003b0: 3cf9 4d3e 9ed3 93be fb85 8b3e b1f4 0bbd
000003c0: bc23 6b3e 3155 eabe 73ce 40bc 52a0 3e3e
000003d0: 93db fd3d 15a9 d1be 9d63 7bbe 83f0 213e
000003e0: 660c 5e3e fea7 f9be 4c6f 1d3e e234 273e
000003f0: 11ff 16bf 85af 273e 20fa f13a fb17 353e

fc2.0.bias f4 [10]
-0.12754814 0.17293908 0.008735121 0.02280909 0.087380715 0.29936266 0.117305316 0.23697124
-0.13581748 0.12516795
00000000: fb9b 02be f116 313e c11d 0f3c 21da ba3c
00000010: a9f4 b23d 1046 993e c53d f03d 97a8 723e
00000020: bd13 0bbe 072c 003e
