callbacks/05-23-2022_09-11-57/models/epoch_7.pt (torch, 205087 bytes, 4 tensors)

fc1.0.weight f4 [64, 784]
0.09119232 -0.06858312 0.10392045 0.0025492208 -0.023139974 -0.07529698 -0.008371092 0.0479569
0.015803915 0.02769191 -0.1168238 -0.0029376359 0.04390617 0.012838148 -0.0005030035 0.039425455
0.034838058 -0.02921578 0.06628189 -0.022806592 0.10454144 0.082903415 0.010106296 0.033832002
-0.059055567 -0.03783499 0.030028181 0.004413366 0.0010689126 -0.048899747 0.041933935 -0.087769195
0.014270041 -0.017535295 -0.042767327 0.0880942 0.036641747 -0.040393036 0.09412471 0.28225622
0.40494436 0.19242986 0.18424363 0.05141241 -0.07748346 0.069703795 0.24907768 0.32907128
0.07145462 0.10812286 0.085129656 0.092671715 0.11163867 0.025361454 0.013980215 0.002290067
-0.014106252 0.08479033 -0.07411587 0.13569736 0.074011706 -0.00967904 0.023853023 0.11526744
-0.085293375 -0.1509594 -0.26884302 -0.066907205 0.034914404 -0.024272354 0.13315319 0.0071114823
-0.015807647 -0.01256044 -0.005479683 0.4358432 0.39863944 0.3947932 0.22618207 0.01047008
-0.21645387 -0.016543075 -0.09599485 -0.001721482 0.02128104 0.014885388 -0.008822329 0.081938714
0.111426465 -0.032109585 -0.052393552 -0.10212587 -0.21997105 -0.31215674 -0.17929468 -0.20269306
-0.18765137 -0.2985192 -0.2423907 -0.19251485 -0.31033626 -0.10773111 0.03553522 0.04853098
0.27223092 0.19632857 0.23177755 0.3755715 0.08014755 -0.015433581 0.1509487 -0.05294674
0.059379667 -0.016246717 -0.06514586 0.17094332 0.044703484 -0.15794535 -0.12742463 -0.028369743
-0.12620251 -0.0923943 -0.09696205 -0.06915131 -0.0050090724 0.031975776 -0.17156424 -0.13268179
-0.047710534 0.007437663 0.071749575 0.04066091 0.12003204 0.040379323 0.16550878 0.39495283
0.22632946 0.06630139 0.13907918 -0.015733922 0.043836758 0.004182846 0.1051418 -0.04433568
-0.11958258 -0.16892391 -0.22745927 -0.20447566 -0.15689896 -0.23271333 -0.27178004 -0.0081419945
-0.080145076 -0.14386371 -0.14097404 -0.089692086 -0.066040836 -0.07851135 -0.06415987 0.17555363
0.07865154 -0.03735344 -0.048536465 0.01899277 0.1637927 0.057975866 0.18222761 0.056528307
0.015445206 -0.07623083 0.28007284 -0.09048763 -0.0022898493 0.28541148 -0.03468927 -0.15895307
-0.16098803 -0.06952538 -0.0684945 -0.019640602 -0.03274094 -0.15782216 -0.06882799 -0.0598309
-0.14981683 0.01787328 -0.052037712 0.096362256 0.045006577 0.11586341 0.129476 0.27880564
0.27803817 0.47562838 0.2898903 0.12855037 -0.026394308 -0.20274867 0.1918454 0.021090612
0.2429912 0.11613045 -0.056815214 -0.11719124 -0.16869153 0.14935057 0.076366656 0.024183476
0.07805226 -0.04794701 0.019318976 0.02859096 0.082667045 0.060217924 -0.06859321 -0.06912208
0.055491 -0.019510655 0.12063204 0.2602821 0.5261853 0.6913799 0.4548776 0.121517204
0.17840618 -0.047194794 0.097874634 0.20938307 0.111160375 -0.099776484 -0.124860525 -0.03903905
-0.20253962 0.13701974 0.019935576 0.03415943 0.12672488 0.08731295 0.12867011 0.079719946
0.15521304 0.11009844 0.060268965 1.7265982e-05 0.1272625 0.1618908 0.048162322 0.16068946
0.8085802 0.71420085 0.42551935 0.18821274 -0.012502327 0.055989884 0.08391251 -0.079874486
00000000: 0ac3 ba3d 4f75 8cbd 3fd4 d43d d410 273b
00000010: 0b90 bdbc 4e35 9abd e826 09bc 746e 443d
00000020: 3677 813c 25da e23c 5141 efbd 5a85 40bb
00000030: f5d6 333d 1857 523c fedb 03ba 967c 213d
00000040: 5ab2 0e3d ee55 efbc cdbe 873d e4d4 babc
00000050: d319 d63d 44c9 a93d e194 253c 6d93 0a3d
00000060: 40e4 71bd ddf8 1abd a9fd f53c ff9d 903b
00000070: c11a 8c3a 1a4b 48bd ebc2 2b3d 56c0 b3bd
00000080: e4cc 693c 2ea6 8fbc cb2c 2fbd bb6a b43d
00000090: a815 163d 2b73 25bd 75c4 c03d e383 903e
000000a0: de54 cf3e 550c 453e 5daa 3c3e d295 523d
000000b0: a6af 9ebd ddc0 8e3d 380e 7f3e 087c a83e
000000c0: cd56 923d 856f dd3d 7558 ae3d abca bd3d
000000d0: d1a2 e43d d3c2 cf3c 460d 653c f314 163b
000000e0: e91d 67bc 8da6 ad3d 10ca 97bd 40f4 0a3e
000000f0: 7393 973d d694 1ebc 6a67 c33c 5611 ec3d
00000100: 4bae aebd 1a95 1abe cba5 89be a506 89bd
00000110: 6802 0f3d d1d6 c6bc 4f59 083e 7007 e93b
00000120: 0a7f 81bc 4eca 4dbc ea8e b3bb d726 df3e
00000130: 781a cc3e 5622 ca3e 469c 673e b38a 2b3c
00000140: 15a6 5dbe 5885 87bc f398 c4bd 5aa3 e1ba
00000150: 9355 ae3c d8e1 733c 888b 10bc 7ccf a73d
00000160: 8f33 e43d 5785 03bd 9f9a 56bd 5e27 d1bd
00000170: 1740 61be 02d3 9fbe 0699 37be c58e 4fbe
00000180: ae27 40be 82d7 98be 4535 78be 9d22 45be
00000190: 65e4 9ebe 21a2 dcbd 618d 113d 6cc8 463d
000001a0: da61 8b3e 5b0a 493e 1857 6d3e e84a c03e
000001b0: 6624 a43d 21dd 7cbc 4c92 1a3e aede 58bd
000001c0: 1838 733d d617 85bc 316b 85bd c40b 2f3e
000001d0: 001b 373d 6dbc 21be 9a7b 02be aa67 e8bc
000001e0: 3b3b 01be 3939 bdbd 0a94 c6bd 349f 8dbd
000001f0: 2523 a4bb 08f9 023d 89ae 2fbe bcdd 07be
00000200: 1f6c 43bd a4b7 f33b 71f1 923d 0e8c 263d
00000210: 5cd3 f53d ca64 253d 227b 293e 4237 ca3e
00000220: e9c2 673e 06c9 873d c66a 0e3e 6de4 80bc
00000230: 2c8e 333d 4110 893b 9654 d73d 5499 35bd
00000240: b6e7 f4bd 64fa 2cbe 15eb 68be 1162 51be
00000250: 1faa 20be 674c 6ebe c126 8bbe 0066 05bc
00000260: 1a23 a4bd 0251 13be 805b 10be 7cb0 b7bd
00000270: 6b40 87bd 8fca a0bd 4066 83bd 55c4 333e
00000280: 0f14 a13d ecff 18bd 2cce 46bd ba96 9b3c
00000290: 46b9 273e 1a78 6d3d e099 3a3e 3a8a 673d
000002a0: e40d 7d3c e91e 9cbd b565 8f3e 9451 b9bd
000002b0: 4c11 16bb 7421 923e 5616 0ebd 98c4 22be
000002c0: 0cda 24be 5363 8ebd d846 8cbd 54e5 a0bc
000002d0: 5d1b 06bd 229c 21be b0f5 8cbd 3f11 75bd
000002e0: 9569 19be fc6a 923c 7f25 55bd 9359 c53d
000002f0: d158 383d cc49 ed3d 5b95 043e 9dbf 8e3e
00000300: 055b 8e3e 9085 f33e 806c 943e b5a2 033e
00000310: e038 d8bc 599d 4fbe 1f73 443e 38c6 ac3c
00000320: afd2 783e cdd5 ed3d 12b7 68bd f601 f0bd
00000330: 79bd 2cbe 5bef 183e 1f66 9c3d 6d1c c63c
00000340: ddd9 9f3d 1564 44bd d442 9e3c 9737 ea3c
00000350: 574d a93d 12a7 763d 997a 8cbd e18f 8dbd
00000360: 884a 633d cfd4 9fbc ee0d f73d b243 853e
00000370: 14b4 063f 46fe 303f b7e5 e83e 03de f83d
00000380: 1cb0 363e 544f 41bd 7f72 c83d 8468 563e
00000390: 0da8 e33d 9d57 ccbd e0b6 ffbd 69e7 1fbd
000003a0: 8c66 4fbe e74e 0c3e ef4f a33c c2ea 0b3d
000003b0: 2bc4 013e 22d1 b23d 19c2 033e 3644 a33d
000003c0: 2bf0 1e3e 4a7b e13d 97dc 763d 6ad6 9037
000003d0: 1a51 023e b4c6 253e db45 453d c78b 243e
000003e0: 1dff 4e3f ded5 363f acdd d93e d7ba 403e
000003f0: 8fd6 4cbc a655 653d 52da ab3d 3c95 a3bd

fc1.0.bias f4 [64]
0.6266579 -1.1735818 2.7722328 1.6188611 1.3015411 2.2287326 1.0700916 0.008297789
-1.4973363 1.2268972 0.27009967 -0.59706914 -1.9109671 -1.3745837 0.67851454 2.1151004
-0.12782972 3.906723 -0.5665582 1.242185 -2.574029 3.0152707 0.042269893 -1.0953517
0.2202055 0.63336754 0.123551145 -1.676635 0.69255054 -0.512852 0.9825139 -1.1104366
-0.26221806 -0.10432322 0.40753457 1.5370755 -0.4966957 1.199611 0.30399638 0.0998791
-2.6462388 0.94927174 -2.4374106 -2.0598636 0.42741728 -1.7854483 -1.0198265 1.0045496
-2.5174506 0.3588165 0.27109602 -1.0250934 -0.34167853 -0.33963606 0.011475801 0.94653755
-1.3961172 1.1677376 0.17190246 0.5724181 -1.9157043 -0.30210185 -2.2480657 -1.6665117
00000000: a76c 203f ee37 96bf 436c 3140 d736 cf3f
00000010: e698 a63f 8ea3 0e40 c3f8 883f 73f3 073c
00000020: b7a8 bfbf f80a 9d3f 814a 8a3e 86d9 18bf
00000030: 929a f4bf 5cf2 afbf 21b3 2d3f ce5d 0740
00000040: cbe5 02be c007 7a40 f509 11bf ebff 9e3f
00000050: e4bc 24c0 32fa 4040 3223 2d3d 7c34 8cbf
00000060: 8d7d 613e 6024 223f 6208 fd3d fa9b d6bf
00000070: fe4a 313f 454a 03bf 0886 7b3f c922 8ebf
00000080: 7241 86be 6aa7 d5bd 5fa8 d03e e4be c43f
00000090: e64e febe da8c 993f 6aa5 9b3e 6a8d cc3d
000000a0: fa5b 29c0 7903 733f 89fe 1bc0 ced4 03c0
000000b0: 70d6 da3e 9289 e4bf ad89 82bf 1595 803f
000000c0: e91d 21c0 ccb6 b73e 19cd 8a3e 4336 83bf
000000d0: 7df0 aebe c7e4 adbe ff04 3c3c 4950 723f
000000e0: f8b3 b2bf 6d78 953f 3307 303e fe89 123f
000000f0: cc35 f5bf 18ad 9abe 4fe0 0fc0 4150 d5bf

fc2.0.weight f4 [10, 64]
0.09063994 -0.09315836 -0.7964357 -0.9559703 0.4923866 -1.1424705 0.012968964 0.34665394
-0.049863383 0.4216107 0.52504057 -0.4043277 0.11307751 -0.18451516 0.56019574 -0.29042017
0.32307044 0.51160395 0.06950715 -0.22873594 -0.0026001094 -0.26848537 -0.48251143 0.0790654
-1.0031186 0.23185672 -0.017373122 -0.16353083 -0.12601437 -0.012842842 0.11601135 -0.7833382
-0.41251162 -0.030325793 0.09233552 -0.07542287 0.13891724 0.39087054 -0.21950975 0.38730285
-0.18794063 -0.3534057 -0.13236041 0.22024164 0.038077176 -0.7957684 -0.015672715 -0.56362236
-0.5608598 0.020532649 -0.6991471 -0.26651475 0.002975746 -0.4386893 -0.8707912 -0.8896106
-0.18233827 0.35098025 0.13588668 -0.88737595 0.04003018 -0.9914746 0.074764155 -0.09408502
-0.11991913 0.6861726 0.25696546 0.28870395 -1.1713017 0.027924037 -0.08556549 0.103060156
0.08303969 0.63721025 0.3354938 -0.12199177 0.20542705 0.21887113 -0.16710843 0.17352222
-0.33639586 0.4600142 -0.0043735444 0.29545996 0.3541466 0.20597272 0.28041482 0.016435867
-0.8914454 0.29610077 -1.0021793 -0.07199812 -0.84500515 0.30860668 -0.0073334584 0.17701378
0.00048590353 0.20011109 -0.47699395 0.1753866 -0.55980027 0.38196367 -0.6267487 -0.17143267
0.20703061 0.4386116 0.04052145 -0.08087401 -0.22242701 -0.5923171 -0.7940186 -0.22010092
-0.034652602 0.7022384 0.75881404 -0.26097497 -1.1355456 0.85903156 -0.6188001 0.18583564
-0.9375236 -0.9391368 -0.8095059 0.08149492 -0.10226909 -0.2262779 0.09067564 -0.16274491
-1.2371352 0.72541296 0.06553063 0.34818906 0.4869322 -0.007015387 0.17155468 0.32059228
-0.19526133 0.30003878 0.43140295 -0.32703927 0.09286294 0.04611149 -0.119062364 0.48995882
-0.7653045 0.3286963 -0.123898156 0.12160427 -0.116838574 -0.5205084 0.18704662 0.1118821
-0.37767434 0.31526315 -0.2733744 0.22629425 0.25754747 0.22797084 -1.266754 0.36018506
-0.20008047 0.028966362 -0.5854641 -0.46583125 -0.8007206 -0.8194789 -0.05749225 0.053930975
0.090748146 0.5064091 0.2947743 0.16832745 0.53115803 0.29251084 -1.0172769 -0.09737927
0.06962573 -0.48911017 -0.30988163 -0.3050049 -0.031480484 -0.14107269 -0.020708999 0.085390486
-1.1713507 0.33051 0.23209299 0.15923811 -0.17174408 -0.42793763 0.48297113 0.1448769
-0.08653947 0.48668486 0.15751705 -0.50451905 0.293077 -0.17418036 -0.31119335 0.20382932
-0.14073406 -0.50877804 0.28839085 0.8497566 0.089444146 0.0032915615 0.32563612 -0.097001016
0.60870343 -0.42099795 0.15885445 0.14918971 0.10486914 0.02034698 0.30726805 -0.058850057
0.7613081 -0.7348965 -0.7461954 -0.14969239 -0.5699739 -0.04961917 -0.13904664 -0.18453225
-0.92488015 0.16288309 -0.028656842 0.028658798 0.07139067 -0.19916227 -1.3056962 -0.37906227
-0.1404691 0.3277905 0.15225841 0.10920189 -0.45380875 0.5697014 0.0030080043 0.08645222
0.08466945 0.6201198 0.43202934 0.5903389 -0.19905107 -0.68710285 0.3172018 0.09308316
0.06641687 0.22869582 -0.07954669 0.44943574 -0.019806452 -0.11560372 -0.04599544 -0.26049465
00000000: 6fa1 b93d cfc9 bebd 36e3 4bbf 78ba 74bf
00000010: 191a fc3e 793c 92bf c77b 543c a07c b13e
00000020: 8c3d 4cbd 5cdd d73e 0f69 063f 0a04 cfbe
00000030: 2e95 e73d 8bf1 3cbe fd68 0f3f f4b1 94be
00000040: 7d69 a53e 7af8 023f c459 8e3d c139 6abe
00000050: 9966 2abb ea76 89be bd0b f7be 0aed a13d
00000060: 3166 80bf d96b 6d3e 1452 8ebc a074 27be
00000070: e909 01be c96a 52bc 5c97 ed3d da88 48bf
00000080: b934 d3be cc6d f8bc 681a bd3d 4e77 9abd
00000090: 5240 0e3e 2f20 c83e 2ac7 60be 8f4c c63e
000000a0: 8273 40be 98f1 b4be 7d89 07be 0687 613e
000000b0: d0f6 1b3d 7ab7 4bbf 1164 80bc 8e49 10bf
000000c0: 8294 0fbf 1634 a83c 4efb 32bf 9f74 88be
000000d0: bc04 433b e29b e0be 2cec 5ebf 85bd 63bf
000000e0: e2b6 3abe afb3 b33e e125 0b3e 122b 63bf
000000f0: b0f6 233d 48d1 7dbf f31d 993d a6af c0bd
00000100: 2998 f5bd 02a9 2f3f fa90 833e 01d1 933e
00000110: 37ed 95bf f3c0 e43c f63c afbd 3411 d33d
00000120: b710 aa3d 3620 233f d8c5 ab3e d2d6 f9bd
00000130: 785b 523e c11f 603e 791e 2bbe cfaf 313e
00000140: 143c acbe fb86 eb3e f34f 8fbb 8746 973e
00000150: b452 b53e 83ea 523e 8892 8f3e 83a4 863c
00000160: c435 64bf 859a 973e 6947 80bf c073 93bd
00000170: 4252 58bf b201 9e3e 824d f0bb 1a43 353e
00000180: dec0 fe39 ece9 4c3e 8d38 f4be 8b98 333e
00000190: 124f 0fbf be90 c33e 9a72 20bf 0c8c 2fbe
000001a0: d5ff 533e b391 e03e d2f9 253d 46a1 a5bd
000001b0: e8c3 63be 18a2 17bf ce44 4bbf 2362 61be
000001c0: e3ef 0dbd e5c5 333f a341 423f 839e 85be
000001d0: 8f59 91bf 7ee9 5b3f af69 1ebf b34b 3e3e
000001e0: 8c01 70bf 456b 70bf c73b 4fbf cfe6 a63d
000001f0: 7572 d1bd 65b5 67be 26b4 b93d 9aa6 26be
00000200: 725a 9ebf aab4 393f ec34 863d d645 b23e
00000210: 2d4f f93e 55e1 e5bb 08ac 2f3e ac24 a43e
00000220: 96f2 47be af9e 993e d9e0 dc3e b171 a7be
00000230: ed2e be3d 67df 3c3d f8d6 f3bd e2db fa3e
00000240: ffea 43bf e24a a83e 51be fdbd a90b f93d
00000250: 1049 efbd 0a40 05bf 2689 3f3e 7122 e53d
00000260: 885e c1be 2c6a a13e bbf7 8bbe aeb9 673e
00000270: 43dd 833e 3071 693e ff24 a2bf 2d6a b83e
00000280: e5e1 4cbe dd4a ed3c fae0 15bf 6f81 eebe
00000290: 06fc 4cbf 5fc9 51bf fe7c 6bbd bae6 5c3d
000002a0: 2ada b93d 07a4 013f a8ec 963e 085e 2c3e
000002b0: f9f9 073f fbc3 953e 2136 82bf c86e c7bd
000002c0: ef97 8e3d a66c fabe cea8 9ebe 9a29 9cbe
000002d0: aef1 00bd 5c75 10be eba5 a9bc 35e1 ae3d
000002e0: d2ee 95bf 9b38 a93e c9a9 6d3e 510f 233e
000002f0: aedd 2fbe a41a dbbe fe47 f73e 9c5a 143e
00000300: 9b3b b1bd c22e f93e 264c 213e 2928 01bf
00000310: 300e 963e 565c 32be bc54 9fbe a2b8 503e
00000320: 971c 10be 473f 02bf f7a7 933e a689 593f
00000330: 7e2e b73d 3db7 573b c7b9 a63e 78a8 c6bd
00000340: fdd3 1b3f 0b8d d7be beaa 223e 30c5 183e
00000350: a2c5 d63d b6ae a63c 3d52 9d3e c20c 71bd
00000360: 16e5 423f 2d22 3cbf a906 3fbf f648 19be
00000370: cfe9 11bf 793d 4bbd 3e62 0ebe 06f6 3cbe
00000380: f2c4 6cbf d3ca 263e c1c1 eabc dbc5 ea3c
00000390: 4635 923d 32f1 4bbe 0e21 a7bf 7314 c2be
000003a0: 22d7 0fbe 28d4 a73e a1e9 1b3e 3ea5 df3d
000003b0: 9f59 e8be f3d7 113f f021 453b dd0d b13d
000003c0: 2d67 ad3d 2cc0 1e3f f332 dd3e 7320 173f
000003d0: 0bd4 4bbe f9e5 2fbf 4668 a23e 62a2 be3d
000003e0: 9105 883d 3d2f 6a3e 60e9 a2bd 711c e63e
000003f0: 2441 a2bc a5c1 ecbd b765 3cbd 8e5f 85be

fc2.0.bias f4 [10]
1.6332697 0.04497308 1.4753714 1.6954784 -2.400859 -0.60714716 -2.8563435 -1.9571483
-2.6022964 -0.22018185
00000000: fb0e d13f b135 383d f8d8 bc3f 7005 d93f
00000010: ada7 19c0 ff6d 1bbf 55ce 36c0 d683 fabf
00000020: 068c 26c0 5a77 61be
