callbacks/05-23-2022_09-11-57/models/epoch_8.pt (torch, 205087 bytes, 4 tensors)

fc1.0.weight f4 [64, 784]
00000000: 0ac3 ba3d 4f75 8cbd 3fd4 d43d d410 273b
00000010: 0b90 bdbc 4e35 9abd e826 09bc 746e 443d
00000020: 3677 813c 25da e23c 5141 efbd 5a85 40bb
00000030: f5d6 333d 1857 523c fedb 03ba 967c 213d
00000040: 5ab2 0e3d ee55 efbc cdbe 873d e4d4 babc
00000050: d319 d63d 44c9 a93d e194 253c 6d93 0a3d
00000060: 40e4 71bd ddf8 1abd a9fd f53c ff9d 903b
00000070: c11a 8c3a 1a4b 48bd ebc2 2b3d 56c0 b3bd
00000080: e4cc 693c 2ea6 8fbc cb2c 2fbd bb6a b43d
00000090: a815 163d 2b73 25bd 75c4 c03d 82ab 9a3e
000000a0: 7c91 d53e 43e8 483e 6856 4f3e 79f9 cd3c
000000b0: cceb 05be f89d ee3a c941 7e3e 087c a83e
000000c0: cd56 923d 856f dd3d 7558 ae3d abca bd3d
000000d0: d1a2 e43d d3c2 cf3c 460d 653c f314 163b
000000e0: e91d 67bc 8da6 ad3d 10ca 97bd 40f4 0a3e
000000f0: 7393 973d d694 1ebc 3095 983c f241 053e
00000100: 0164 aebd 7895 36be df2b 9ebe 1725 f2bd
00000110: af13 733d 7449 8f3c 80d3 143e fdcf 87bb
00000120: 61cd 42bd 583a 10bd 4305 08bc 6093 f23e
00000130: c9e6 e33e f682 d13e 9531 763e 9fae a8bc
00000140: c1b9 6ebe d8fb fabc f398 c4bd 5aa3 e1ba
00000150: 9355 ae3c d8e1 733c b65d 1bbc 62ce a73d
00000160: 8f33 e43d b0b4 a4bc 9f9a 56bd 8db8 d1bd
00000170: 089b 63be 4e08 babe dee8 51be 3673 7fbe
00000180: c594 43be 4d34 97be c7bd 75be c956 14be
00000190: 9267 9bbe 18c1 b4bd 3038 643d 137f 2b3d
000001a0: 0653 863e 2ccd 3b3e 1dfd 543e db45 b43e
000001b0: 1aba 8a3d 1c8a 24bc 56b8 233e aede 58bd
000001c0: 1838 733d d617 85bc 46ac 86bd 0400 2f3e
000001d0: 450c 5e3c 883e 3fbe a144 16be e78c 16bd
000001e0: e579 1fbe 1dff ecbd c3a3 17be a650 debd
000001f0: fde1 fcbc 3ea6 7b3c 2cf0 3ebe 1115 ebbd
00000200: 16a0 0abd 7029 4a3d 447d e23d c8bb a03d
00000210: 1147 ff3d 7a2d 163d 5410 153e 2d41 c63e
00000220: 49ef 883e 8190 dd3d de87 283e 9eec 6e3c
00000230: 2c8e 333d 4110 893b 423c d73d 669e 35bd
00000240: 21db fdbd 7ba2 36be d89d 5fbe e077 4abe
00000250: d926 35be 06d4 7abe dd56 99be 02ea 1ebd
00000260: 5be2 c9bd 6736 0abe 5478 05be 11b8 a8bd
00000270: b7ed 97bd b8b1 6fbd 5a42 29bd fffd 303e
00000280: 36cb 7d3d 73ff bdbd 9369 b4bd 7cd3 503b
00000290: 5633 653e e228 e73d b955 5a3e c79b 9d3d
000002a0: e40d 7d3c 202f 9cbd 2e93 a03e 3134 74bd
000002b0: 4709 0f3d b648 bc3e aaa2 2a3a caa1 1bbe
000002c0: f523 27be bb4e a1bd a360 6bbd 88fc 4dbc
000002d0: 32f1 dfbc 99eb 27be e645 91bd f954 96bd
000002e0: 55ee 31be 3836 203c 0fd1 cdbc 3aac e13d
000002f0: eaf1 fb3c c698 8c3d 98ac c23d 8cd0 8c3e
00000300: 31fa b23e 3143 0a3f 52ce 883e 7f84 c53d
00000310: e038 d8bc 1cfe 4fbe c9ac 683e 4f66 523d
00000320: 7263 913e 18c9 313e 8d4d afbc 081e a4bd
00000330: a297 24be 9bfa 353e 930c c83d 84ad 6e3d
00000340: e8a3 b33d 2c50 72bd a4e3 473a 9647 1c3c
00000350: de92 893d 5105 a13d 21ce f3bb 00d5 02bd
00000360: b730 543d 695e 20bd 2ea8 c43d 2eaa 903e
00000370: 7773 1a3f 9f9e 3c3f b451 ef3e 569d ba3d
00000380: 1cb0 363e aa53 41bd b2c5 1b3e 9b61 7e3e
00000390: 63de 343e 5537 0fbd cc2b 92bd aa2a 2c3c
000003a0: c4e5 38be 80ab 2c3e 1845 fb3c 8c62 533d
000003b0: 3c2f 0e3e 0139 813d 060b c53d b62e c13d
000003c0: 5b4b 2d3e 09f8 193e 0121 e73d 916e 4e3d
000003d0: 937e 0b3e 4e2d 393e 737d 343d 934f 253e
000003e0: bcee 683f b3b7 513f b565 f13e e7da 403e
000003f0: 8fd6 4cbc 7b11 b33d f86d f53d 1bd5 d0bd
0.09119232 -0.06858312 0.10392045 0.0025492208 -0.023139974 -0.07529698 -0.008371092 0.0479569
0.015803915 0.02769191 -0.1168238 -0.0029376359 0.04390617 0.012838148 -0.0005030035 0.039425455
0.034838058 -0.02921578 0.06628189 -0.022806592 0.10454144 0.082903415 0.010106296 0.033832002
-0.059055567 -0.03783499 0.030028181 0.004413366 0.0010689126 -0.048899747 0.041933935 -0.087769195
0.014270041 -0.017535295 -0.042767327 0.0880942 0.036641747 -0.040393036 0.09412471 0.30208975
0.41712558 0.19619851 0.20247805 0.025143372 -0.1307823 0.0018205037 0.24829783 0.32907128
0.07145462 0.10812286 0.085129656 0.092671715 0.11163867 0.025361454 0.013980215 0.002290067
-0.014106252 0.08479033 -0.07411587 0.13569736 0.074011706 -0.00967904 0.018625826 0.13013437
-0.08515168 -0.17830455 -0.30892846 -0.118234806 0.059344944 0.01749108 0.14533806 -0.004144667
-0.047559146 -0.03521189 -0.008302036 0.47378063 0.44512013 0.40920228 0.24042352 -0.020591078
-0.23313047 -0.030637667 -0.09599485 -0.001721482 0.02128104 0.014885388 -0.009482792 0.08193661
0.111426465 -0.02010569 -0.052393552 -0.102402784 -0.22227108 -0.3633446 -0.20498988 -0.24946293
-0.1909972 -0.2953209 -0.23998176 -0.14486231 -0.30352455 -0.08825892 0.055717647 0.041869234
0.26235217 0.18339986 0.2079968 0.35209545 0.06773777 -0.0100426935 0.15988287 -0.05294674
0.059379667 -0.016246717 -0.06575827 0.1708985 0.01355273 -0.18676198 -0.14674617 -0.03675547
-0.15573843 -0.115720965 -0.14808564 -0.10855226 -0.030869478 0.015359459 -0.18646306 -0.114786275
-0.033844076 0.049355924 0.11059049 0.078483164 0.12464727 0.036664464 0.1455701 0.387216
0.2674506 0.108185776 0.16458079 0.014582781 0.043836758 0.004182846 0.1050954 -0.044340514
-0.12395311 -0.17835419 -0.21837556 -0.19772291 -0.176906 -0.24494943 -0.29949084 -0.038797386
-0.09857627 -0.13497315 -0.13034183 -0.08238233 -0.074183874 -0.058519095 -0.041323043 0.17284392
0.061961375 -0.09277239 -0.08809199 0.0031864336 0.22382864 0.11287095 0.21321763 0.07695728
0.015445206 -0.07626176 0.3136229 -0.059620086 0.034920957 0.36774224 0.0006509224 -0.15198436
-0.1632231 -0.07876345 -0.057465207 -0.012572415 -0.02733669 -0.16398467 -0.0709341 -0.07340426
-0.17376073 0.009778552 -0.025124101 0.11019178 0.030755002 0.06865077 0.09505576 0.2750286
0.34956506 0.54008776 0.2671991 0.09644412 -0.026394308 -0.20311779 0.22722162 0.0513671
0.28396183 0.17361867 -0.021399284 -0.080135405 -0.16073468 0.1777138 0.09768023 0.058270946
0.08771497 -0.05915849 0.00076251687 0.009538552 0.06717466 0.07862342 -0.007440344 -0.031941414
0.05180427 -0.039152537 0.0960239 0.28254837 0.60332435 0.73679537 0.46742022 0.09112041
0.17840618 -0.04719893 0.15212134 0.24841921 0.17662959 -0.034964878 -0.0713726 0.010508219
-0.18056399 0.16862297 0.030672595 0.051607653 0.13885206 0.06309701 0.09621243 0.094327375
0.16923277 0.15036024 0.11285592 0.050398413 0.13622503 0.18083689 0.04406495 0.16143636
0.9098928 0.8192093 0.4714791 0.18833505 -0.012502327 0.087435685 0.119838655 -0.10196897

fc1.0.bias f4 [64]
00000000: 80ba 253f 58c5 97bf 933d 3140 1023 cf3f
00000010: c748 a63f 7b04 0f40 de20 893f 539a 193c
00000020: b7a8 bfbf 83b7 9a3f b3fd 833e 4a34 1ebf
00000030: 929a f4bf 5cf2 afbf d784 303f 8ce2 0740
00000040: 3e2f 20be f4d9 7940 f509 11bf cba2 9b3f
00000050: e4bc 24c0 7ecb 4140 2596 be38 7c34 8cbf
00000060: d47a 633e 5e22 223f f11c 2c3e fa9b d6bf
00000070: c0e1 343f aef7 09bf ab26 7c3f ce1d 8dbf
00000080: 870c 7bbe 6aa7 d5bd c447 d73e 0397 c53f
00000090: 8d92 06bf c9f0 973f fbbd 9e3e 2b30 0d3e
000000a0: fa5b 29c0 07f4 6d3f 89fe 1bc0 ced4 03c0
000000b0: 3d41 e03e 488d e3bf 5ce6 83bf f296 823f
000000c0: e91d 21c0 0162 ac3e 4994 893e aa5f 86bf
000000d0: e9b9 9bbe 4f58 b7be 514e 213c b10e 6f3f
000000e0: e358 b0bf 1228 973f 1392 303e 3e9c 0f3f
000000f0: cc35 f5bf ab2b a3be 4fe0 0fc0 4150 d5bf
0.647377 -1.18571 2.7693832 1.6182575 1.299096 2.2346485 1.0713155 0.009375173
-1.4973363 1.2087253 0.25779495 -0.61798537 -1.9109671 -1.3745837 0.689527 2.1232023
-0.15643021 3.9039278 -0.5665582 1.2159055 -2.574029 3.0280452 9.0878726e-05 -1.0953517
0.22214824 0.6333369 0.16807915 -1.676635 0.7065697 -0.53893554 0.984965 -1.1024721
-0.24516498 -0.10432322 0.4204694 1.543671 -0.5256737 1.1870357 0.3100432 0.13787906
-2.6462388 0.9295048 -2.4374106 -2.0598636 0.43799773 -1.7777491 -1.0304675 1.0202315
-2.5174506 0.3366852 0.26870945 -1.0497944 -0.30415276 -0.35809562 0.009845332 0.9338179
-1.3777126 1.1809103 0.17243223 0.5609778 -1.9157043 -0.31869254 -2.2480657 -1.6665117

fc2.0.weight f4 [10, 64]
00000000: 9ded 2a3d 85ca a7bd 0465 51bf f048 82bf
00000010: c7b7 003f 5c55 99bf d7a4 01bc 8431 b53e
00000020: 8c3d 4cbd 7535 de3e 8825 043f 1687 e8be
00000030: 2e95 e73d 8bf1 3cbe d0da 0e3f 10aa 91be
00000040: 5124 a83e 4f37 033f c459 8e3d f1ff 71be
00000050: 9966 2abb 42f9 99be 57a8 00bf 0aed a13d
00000060: 23e2 8abf cd2b 6b3e 1a86 c7ba a074 27be
00000070: 5279 0ebe f832 3ebd 93e0 d93d bf1f 52bf
00000080: f693 e1be cc6d f8bc e690 a73d 9107 b1bd
00000090: 2d41 f23d 8cd1 cc3e 297e 61be e772 be3e
000000a0: 8273 40be 05c2 aabe 7d89 07be 0687 613e
000000b0: 5388 ed3b deb6 57bf 10ce 3c3b 0c1d 1cbf
000000c0: 8294 0fbf 22fa c13c 81b9 36bf cfe7 a8be
000000d0: 2c46 7bbb beef f3be b520 62bf ee77 66bf
000000e0: 4c82 2dbe adf7 b93e 5ab8 383e 083b 74bf
000000f0: b0f6 233d 96f8 85bf f31d 993d a6af c0bd
00000100: 04de e8bd 2b91 3b3f 0c0b 843e f84a 943e
00000110: 01b8 a5bf fbd7 0b3d 0683 02be b7a5 db3d
00000120: b710 aa3d cae3 1f3f 3696 b43e 2727 b8bd
00000130: 785b 523e c11f 603e df2c e5bd a1a2 243e
00000140: 8e02 bdbe 7077 f13e f34f 8fbb 1e14 a03e
00000150: b452 b53e 75f6 2e3e 3234 8d3e 83a4 863c
00000160: 6e8b 64bf b4ab 813e 9dc6 8bbf c073 93bd
00000170: a131 5ebf 810d a53e 6f5a 72bc 100a 4e3e
00000180: af1d 213d ece9 4c3e 9d99 06bf f270 423e
00000190: 5b73 2cbf de53 c63e 8865 3cbf d754 39be
000001a0: d5ff 533e d8ef f03e d2f9 253d 46a1 a5bd
000001b0: d3d9 50be 61ee 19bf d6a4 4dbf 53d9 7bbe
000001c0: e3ef 0dbd 72f2 2f3f c87e 4c3f d259 8abe
000001d0: 3e71 99bf 9c34 553f f0e5 31bf e859 2e3e
000001e0: cf96 86bf 04b2 79bf 3b1f 5ebf 5e20 ad3d
000001f0: 7572 d1bd 9da8 75be 26b4 b93d 9aa6 26be
00000200: 6257 a4bf 51aa 3a3f ee01 af3d 8fb4 bf3e
00000210: 311b 003f 364c 33bc 2657 4b3e f6f2 ac3e
00000220: 96f2 47be c9d2 ac3e 0473 de3e 76cc aabe
00000230: ed2e be3d 67df 3c3d 1633 ccbd 88e2 013f
00000240: 376f 48bf 91e5 c93e 51be fdbd 5309 ef3d
00000250: 1049 efbd 43ee 11bf 3a4c 503e 7122 e53d
00000260: 6491 e0be c8fb 9c3e 81fd 85be aeb9 673e
00000270: c663 9e3e c3dd 803e e339 abbf 4895 b13e
00000280: a37d 4bbe dd4a ed3c 2cac 15bf 2b4c 00bf
00000290: f8c7 4cbf 4951 5cbf b965 84bc ab07 473d
000002a0: 2ada b93d fbd9 083f a8ec 963e 085e 2c3e
000002b0: 6f61 143f 501f 9d3e 9357 84bf 0412 d3bd
000002c0: ef97 8e3d 8ff5 09bf 1a71 b0be 86dd afbe
000002d0: b1e0 3cbd 5246 49be d40c 00bd 07c9 9e3d
000002e0: 2a7a 92bf 607e ab3e 5221 603e b9e6 213e
000002f0: aedd 2fbe 0ade d1be fe47 f73e 9c5a 143e
00000300: 8c09 cbbd 50a3 043f 3d06 3d3e 0bd3 0ebf
00000310: 2fa0 933e 7a0e 43be d51d a0be 9f59 553e
00000320: 971c 10be 6a60 0cbf a411 b93e b79d 643f
00000330: 7e2e b73d 3db7 573b 1293 b33e 311a cdbd
00000340: e4b0 223f fc2d d4be beaa 223e 90af 473e
00000350: a2c5 d63d 9181 043d a555 9c3e c20c 71bd
00000360: 94d1 483f c055 43bf 5c7b 44bf f648 19be
00000370: cf7b 18bf b235 5abd d1b2 1ebe 93e3 3bbe
00000380: 0a1f 82bf d3ca 263e d1d3 e5bc d284 4f3d
00000390: fa2b b43d 652d 1ebe 0a7c afbf c744 c1be
000003a0: 22d7 0fbe 414d b43e a1e9 1b3e 3ea5 df3d
000003b0: 15fe dabe 9c0c 193f 4602 3fbd 33f7 013e
000003c0: 2d67 ad3d bd02 1f3f fd79 dc3e 2cd2 1a3f
000003d0: c62a 4cbe 50cf 23bf abee ae3e d260 123e
000003e0: cd55 b03d be2f 843e 4503 afbd dbd3 003f
000003f0: 2441 a2bc 2a07 b1bd b765 3cbd 8e5f 85be
0.041730512 -0.081929244 -0.8179476 -1.0178509 0.5028042 -1.1979175 -0.007912836 0.3538934
-0.049863383 0.4340016 0.5161977 -0.45415562 0.11307751 -0.18451516 0.5580263 -0.2845006
0.32840207 0.5125627 0.06950715 -0.2363279 -0.0026001094 -0.3007298 -0.50256866 0.0790654
-1.0850261 0.22965927 -0.001522246 -0.16353083 -0.13913468 -0.046435326 0.10638537 -0.8207969
-0.44058198 -0.030325793 0.08181934 -0.08644021 0.118288375 0.40003622 -0.22020783 0.3719704
-0.18794063 -0.3335115 -0.13236041 0.22024164 0.007248917 -0.8426341 0.0028809346 -0.6098182
-0.5608598 0.023678843 -0.71376806 -0.32989356 -0.0038341386 -0.47643846 -0.88331157 -0.9002675
-0.16944236 0.36321774 0.18039075 -0.95402575 0.04003018 -1.0466487 0.074764155 -0.09408502
-0.11370471 0.73268384 0.25789678 0.28963447 -1.2946779 0.034141522 -0.12745294 0.10724967
0.08303969 0.62456954 0.35270852 -0.08991843 0.20542705 0.21887113 -0.11190199 0.16077663
-0.36916012 0.47161436 -0.0043735444 0.31265348 0.3541466 0.17086203 0.27578884 0.016435867
-0.8927525 0.25326312 -1.0919987 -0.07199812 -0.8679448 0.32236865 -0.014792069 0.20121026
0.03933495 0.20011109 -0.52578145 0.18988398 -0.6736352 0.3873586 -0.73592424 -0.1809877
0.20703061 0.47057986 0.04052145 -0.08087401 -0.20395593 -0.6012936 -0.80329645 -0.24594621
-0.034652602 0.6872932 0.7988095 -0.27021652 -1.1987684 0.832834 -0.6949148 0.17026484
-1.0514773 -0.97537255 -0.86766404 0.08453439 -0.10226909 -0.23990102 0.09067564 -0.16274491
-1.2839167 0.7291613 0.0854529 0.37442443 0.5004149 -0.010943463 0.19857463 0.33779114
-0.19526133 0.33754566 0.43447125 -0.33359116 0.09286294 0.04611149 -0.09970681 0.50736284
-0.782947 0.39432958 -0.123898156 0.116717 -0.116838574 -0.57004184 0.20341578 0.1118821
-0.43860924 0.30660844 -0.2616997 0.22629425 0.30935496 0.2516919 -1.3377041 0.34684205
-0.19872145 0.028966362 -0.5846584 -0.50116223 -0.7999263 -0.8606153 -0.016161786 0.048591297
0.090748146 0.5345761 0.2947743 0.16832745 0.5796117 0.30687952 -1.0339226 -0.103061706
0.06962573 -0.5389032 -0.3446129 -0.34348696 -0.04611272 -0.19655731 -0.031262234 0.07753187
-1.1443532 0.33494854 0.2188771 0.1581067 -0.17174408 -0.40989715 0.48297113 0.1448769
-0.0991393 0.51811695 0.18459411 -0.55790776 0.28833148 -0.19048491 -0.3127276 0.20834969
-0.14073406 -0.54834616 0.3614627 0.89303154 0.089444146 0.0032915615 0.35073143 -0.10014761
0.63551164 -0.41441333 0.15885445 0.19500566 0.10486914 0.032350127 0.30534092 -0.058850057
0.7844479 -0.7630272 -0.7675073 -0.14969239 -0.59563917 -0.053273864 -0.154979 -0.18348531
-1.0165722 0.16288309 -0.028055103 0.050663777 0.0879745 -0.15447004 -1.3709729 -0.37747785
-0.1404691 0.3521519 0.15225841 0.10920189 -0.42771974 0.59784865 -0.046633027 0.12691955
0.08466945 0.62113553 0.4306182 0.60476947 -0.19938192 -0.6398821 0.34166464 0.14294747
0.08610115 0.25817674 -0.085455455 0.50323266 -0.019806452 -0.086439446 -0.04599544 -0.26049465

fc2.0.bias f4 [10]
00000000: 7841 d13f 46c6 813c 7dc0 bc3f cea0 d63f
00000010: c0b3 1bc0 0b2f 1abf 39f7 37c0 a85e febf
00000020: 5655 23c0 90f5 80be
1.6348104 0.015841614 1.4746243 1.6767824 -2.432846 -0.6022803 -2.8744643 -1.9872637
-2.5520835 -0.2518735
