callbacks/05-23-2022_09-11-57/models/epoch_1.pt (torch, 205087 bytes, 4 tensors)

fc1.0.weight f4 [64, 784]
000000 0a c3 ba 3d 4f 75 8c bd 3f d4 d4 3d d4 10 27 3b
       0.09119232 -0.06858312 0.10392045 0.0025492208
000010 0b 90 bd bc 4e 35 9a bd e8 26 09 bc 74 6e 44 3d
       -0.023139974 -0.07529698 -0.008371092 0.0479569
000020 36 77 81 3c 25 da e2 3c 51 41 ef bd 5a 85 40 bb
       0.015803915 0.02769191 -0.1168238 -0.0029376359
000030 f5 d6 33 3d 18 57 52 3c fe db 03 ba 96 7c 21 3d
       0.04390617 0.012838148 -0.0005030035 0.039425455
000040 5a b2 0e 3d ee 55 ef bc cd be 87 3d e4 d4 ba bc
       0.034838058 -0.02921578 0.06628189 -0.022806592
000050 d3 19 d6 3d 44 c9 a9 3d e1 94 25 3c 6d 93 0a 3d
       0.10454144 0.082903415 0.010106296 0.033832002
000060 40 e4 71 bd dd f8 1a bd a9 fd f5 3c ff 9d 90 3b
       -0.059055567 -0.03783499 0.030028181 0.004413366
000070 c1 1a 8c 3a 1a 4b 48 bd eb c2 2b 3d 56 c0 b3 bd
       0.0010689126 -0.048899747 0.041933935 -0.087769195
000080 e4 cc 69 3c 2e a6 8f bc cb 2c 2f bd bb 6a b4 3d
       0.014270041 -0.017535295 -0.042767327 0.0880942
000090 a8 15 16 3d 2b 73 25 bd 91 c0 a3 3d ab 1b 1a 3e
       0.036641747 -0.040393036 0.079957135 0.15049617
0000a0 7a 89 60 3e ce 6a 35 3d f2 23 ad 3d 85 d5 71 3b
       0.21927443 0.04429131 0.08454122 0.003690095
0000b0 31 38 4a 3c d1 83 6e 3d d5 39 95 3d 0f 98 2a 3e
       0.012342499 0.05823118 0.07286421 0.16659568
0000c0 bc 2f 11 bd 6b f0 e1 3c 9b 7d 5f 3d ea a6 85 3d
       -0.035445914 0.02758046 0.054563146 0.06525977
0000d0 d1 a2 e4 3d d3 c2 cf 3c 46 0d 65 3c f3 14 16 3b
       0.11163867 0.025361454 0.013980215 0.002290067
0000e0 e9 1d 67 bc 8d a6 ad 3d 10 ca 97 bd 37 94 30 3d
       -0.014106252 0.08479033 -0.07411587 0.0431101
0000f0 df 44 47 3c d6 94 1e bc 4b 28 d7 3c 7a 66 dd 3d
       0.012162416 -0.00967904 0.02626433 0.108105615
000100 9b 27 55 bd 6d 68 fb bc 5f a0 88 bd 3c 3e cd 3d
       -0.052039724 -0.030689443 -0.06671213 0.10021636
000110 90 b6 e4 3d f8 80 2f bd 68 37 1d 3d 8a 5f 2b 3c
       0.111676335 -0.042847604 0.038382918 0.01045979
000120 7f e5 3b 3c b1 59 45 3d bc 05 82 3d da ab 66 3e
       0.01146829 0.04818124 0.0634875 0.22526494
000130 51 5f 20 3e 5b d8 68 3e c4 4c bf 3d 3a 20 38 3d
       0.1566136 0.22738783 0.09340814 0.04495261
000140 32 57 e3 bd a8 e2 a5 3d f3 98 c4 bd 5a a3 e1 ba
       -0.111006156 0.08099872 -0.09599485 -0.001721482
000150 93 55 ae 3c d8 e1 73 3c 0b 1e 4f 3d d8 61 b2 bc
       0.02128104 0.014885388 0.05056576 -0.021775171
000160 f0 1f bc 3c e0 a0 4b 3b 9c 12 c8 bd b0 bb 0c bd
       0.022964448 0.003107123 -0.097691745 -0.03435868
000170 e7 c8 f4 bd a2 a5 b2 bd 8d 2c da 3c dc 72 90 bc
       -0.119523816 -0.08722998 0.026632572 -0.017632894
000180 a3 b5 86 3b ed 6f 19 be 43 65 ce bd a9 da 6f bc
       0.0041110083 -0.14984103 -0.10077908 -0.014639535
000190 95 8e f1 bd 3f 12 3a bd 2e 93 34 bc fe 12 67 bd
       -0.117947735 -0.045427557 -0.0110214185 -0.056414597
0001a0 36 5e f5 3d 99 76 c3 3d 69 a8 f8 3d 3b 39 e0 3d
       0.1198086 0.09544105 0.12141497 0.10948416
0001b0 7d 77 a2 3d 2d c3 47 3d 97 6c cc 3d ae de 58 bd
       0.07932947 0.04877012 0.09981649 -0.05294674
0001c0 18 38 73 3d 41 16 85 bc 08 94 c1 3b 6b c7 5c 3d
       0.059379667 -0.016245963 0.0059075393 0.053901117
0001d0 2f bc 3a bc 3b c1 50 bd 26 aa 84 bc 75 fa 15 3c
       -0.0113974055 -0.05096553 -0.016194414 0.009153952
0001e0 93 7b 17 bd 69 3c a8 bd 1a 0f 63 bd 6f 26 c3 bd
       -0.036983084 -0.08214647 -0.055434324 -0.09528815
0001f0 77 a3 18 bd 85 e4 23 3d 7a 76 0b be 70 3e 88 bd
       -0.037265267 0.040012855 -0.13619414 -0.06652534
000200 b5 4b 09 3d 04 bc 8d 3c 48 11 4d 3d be dd f2 3b
       0.033519465 0.017301567 0.05006531 0.0074116876
000210 95 ed 21 3d fa 5b 4a bd fd a6 eb 3c d6 45 13 3e
       0.039533217 -0.049404122 0.02876615 0.14382109
000220 aa 9b 04 3e 7d 32 79 3d d7 57 4a 3d 98 8a 19 bc
       0.12950006 0.060839165 0.049400177 -0.009371422
000230 2c 8e 33 3d 41 10 89 3b 1d a3 19 3e 03 57 a1 bd
       0.043836758 0.004182846 0.15003629 -0.07877924
000240 a8 f2 a8 3c fe de 44 bd a2 97 a8 bd ae cf ea bd
       0.02062352 -0.048064224 -0.08232047 -0.11465393
000250 3d d6 00 3d c1 28 e2 bd b4 d6 de bd 95 5a 1f bd
       0.031454314 -0.110429294 -0.10880795 -0.038904745
000260 ab 8e c7 bd f4 e3 e9 bd cf fd 13 be dd 71 bf bc
       -0.09744009 -0.11420432 -0.14452289 -0.023369724
000270 44 10 bc 3c 33 8c 2e bd 8b a3 89 ba 94 42 c6 3d
       0.022956975 -0.042614173 -0.001050101 0.096806675
000280 4f ac 9d 3c 84 60 54 bd b2 35 76 bd 02 7b 0a 3d
       0.019247202 -0.051849857 -0.0601098 0.033808716
000290 56 74 2d 3e 85 7a ab 3d 3f da b9 3d da 79 bc bc
       0.1693891 0.08372978 0.0907483 -0.023007322
0002a0 e4 0d 7d 3c cd 38 be bc 23 9d 50 3d 8d 07 2a bd
       0.015445206 -0.023220444 0.050931107 -0.041511107
0002b0 7b 06 26 bc b1 c7 49 3d c1 35 9c bc fc bf 9b bd
       -0.010133381 0.049262706 -0.0190686 -0.076049775
0002c0 44 22 c1 bd 69 7b 40 bd 83 a8 8a bd 7a 89 73 bd
       -0.09430364 -0.046992693 -0.06770422 -0.05945728
0002d0 5f 31 ba 3c ca c1 b8 bd 07 db 19 3a 53 35 46 3c
       0.02272862 -0.09021337 0.00058691244 0.012097674
0002e0 4d ad 8b bd 22 9f d6 3d 2a 8c e1 3c 3a 7c 02 3c
       -0.06820164 0.10479571 0.027532656 0.007964188
0002f0 a4 65 45 3c df df 7a 3d 67 2f 2a 3d 3b 86 06 3e
       0.012048159 0.061248656 0.041549113 0.13137142
000300 05 a5 68 3e 16 00 5e 3e 0a c8 0a 3e f1 d7 63 3d
       0.227192 0.2167972 0.13552871 0.05562586
000310 e0 38 d8 bc dc bd 4e bd 38 5b b4 bc 97 d5 92 bd
       -0.026394308 -0.050474033 -0.022016153 -0.07169645
000320 04 bd 7a 3d c0 eb 35 bd ef af ee 3b 58 09 4f bd
       0.061215416 -0.04441428 0.0072841565 -0.05054602
000330 e8 17 d7 bd e3 b2 e4 3c c7 83 3e bd b4 d3 13 bd
       -0.10502607 0.027917331 -0.04651239 -0.036090568
000340 df eb e5 3c 03 2d 0f bd 3a e6 27 3d 5a 09 1c bd
       0.028066574 -0.034955036 0.040991046 -0.038094856
000350 dc cb 41 3d d4 58 1f 3d c0 b7 10 bd 11 9f 9a bd
       0.047313556 0.038903072 -0.035331488 -0.07549871
000360 70 c4 e6 3c 26 1d a8 bc 01 42 04 3e 63 2f 10 3e
       0.02816984 -0.020521712 0.12915803 0.14080577
000370 29 76 a3 3e cb 89 8f 3e da 8b 59 3e d3 86 42 3d
       0.31926087 0.28034815 0.21244755 0.04749186
000380 28 de 6a 3d b2 df 3e 3c 8d cb 4d bd de 93 a6 3d
       0.05734077 0.011650013 -0.05024295 0.08133672
000390 7b 06 0b bd 30 f6 ff bc cd 4b ae bd 83 96 cd 3c
       -0.033941727 -0.031245321 -0.085105516 0.025096184
0003a0 34 b5 65 bd 08 be 2b 3d 83 e0 93 bd e1 66 91 bd
       -0.056081012 0.041929275 -0.072205566 -0.07099701
0003b0 58 7c ab 3c 14 42 f9 3c 72 4f 91 3d 85 4e aa bb
       0.020933315 0.030427016 0.07095231 -0.0051973485
0003c0 d7 d6 71 3d 44 7f 5e 3d b2 4b 3b 3d 11 c7 27 bd
       0.059042778 0.05432059 0.045726486 -0.04096133
0003d0 9d 36 bc 3d 65 39 17 3e 57 88 44 3d 5d a7 3f 3e
       0.09190104 0.14767988 0.047981586 0.18716188
0003e0 d0 91 c4 3e 72 30 a7 3e bc 01 55 3e 98 3c da 3d
       0.38392496 0.32654148 0.20801443 0.106560886
0003f0 8f d6 4c bc fa 4c 73 3c 60 eb a7 bd a3 09 ab bc
       -0.012502327 0.014849896 -0.08199191 -0.020878619

fc1.0.bias f4 [64]
000000 5c 0b 20 3f fd b3 9c bf 51 33 3a 40 40 63 d7 3f
       0.62517333 -1.2242428 2.909382 1.6827164
000010 db 73 af 3f ac 33 08 40 d4 a0 89 3f eb 31 1e 3e
       1.3707231 2.1281538 1.0752206 0.1544873
000020 b7 a8 bf bf 68 c5 ad 3f 19 50 ac 3e 4b bb f9 be
       -1.4973363 1.3575869 0.3365486 -0.48775706
000030 92 9a f4 bf 5c f2 af bf dd 45 27 3f ab fc 09 40
       -1.9109671 -1.3745837 0.6534098 2.1560466
000040 f3 1d 8f bc 2a d2 78 40 cd e3 10 bf ae 07 b8 3f
       -0.017470336 3.8878274 -0.56597596 1.4377344
000050 e4 bc 24 c0 46 5d 46 40 21 7c 7f 3e 7c 34 8c bf
       -2.574029 3.099443 0.24949695 -1.0953517
000060 70 f9 88 3e 3b f9 1f 3f 67 5b 2b be fa 9b d6 bf
       0.26752806 0.6248967 -0.16734086 -1.676635
000070 2a be 06 3f 38 a8 d9 be c1 26 71 3f e2 2d 8f bf
       0.5263392 -0.42511153 0.9419976 -1.1185877
000080 35 65 de be 6a a7 d5 bd c7 9f e0 3e ce 03 cd 3f
       -0.4343659 -0.10432322 0.438719 1.6016786
000090 65 6a e8 be 3b fe 9f 3f da 84 d2 3d 7b 45 a7 3d
       -0.45393673 1.249946 0.10279246 0.08167549
0000a0 fa 5b 29 c0 2e 76 8b 3f 89 fe 1b c0 ce d4 03 c0
       -2.6462388 1.089544 -2.4374106 -2.0598636
0000b0 bf 1c 86 3e 4b b7 eb bf 21 55 80 bf 5f aa 7f 3f
       0.26193807 -1.8415312 -1.0025979 0.9986934
0000c0 e9 1d 21 c0 8f b9 0e 3f 41 c5 9c 3e a7 de 5c bf
       -2.5174506 0.5575189 0.30619243 -0.8627724
0000d0 52 14 1b bf 4c 73 62 be 7e 3a 2a 3e 8f e1 74 3f
       -0.6057788 -0.22114295 0.16623875 0.95656675
0000e0 43 5c ae bf ac 9c a2 3f 39 56 0f 3e 1a 10 3e 3f
       -1.3621906 1.2704062 0.13997735 0.7424332
0000f0 cc 35 f5 bf d0 aa c3 be 4f e0 0f c0 41 50 d5 bf
       -1.9157043 -0.38216257 -2.2480657 -1.6665117

fc2.0.weight f4 [10, 64]
000000 ee ad 03 bc 7a d6 eb bd ed 9e be be 89 14 cb be
       -0.008037074 -0.115155175 -0.37230626 -0.39664105
000010 e8 ab dc 3e 53 6c de be b1 ad 35 3d 53 52 64 3e
       0.43099904 -0.4344202 0.0443551 0.22297029
000020 8c 3d 4c bd 5c b8 8c 3e a8 45 f2 3e 2c bc 13 be
       -0.049863383 0.27484405 0.47318769 -0.1442725
000030 2e 95 e7 3d 8b f1 3c be 23 cd c9 3e 8f bd 3c be
       0.11307751 -0.18451516 0.3941432 -0.18431686
000040 a8 ed e1 3e 6c 4e 9b 3e c4 59 8e 3d 45 e7 8b bd
       0.4412663 0.3033327 0.06950715 -0.068312205
000050 99 66 2a bb 32 5a 28 be 99 48 c0 be 0a ed a1 3d
       -0.0026001094 -0.16440657 -0.37555388 0.0790654
000060 65 f2 1a bf 51 5c 48 3e 5f 64 01 bb a0 74 27 be
       -0.60526115 0.19566466 -0.0019743664 -0.16353083
000070 f0 dd 03 be 63 a1 81 be cf 07 4d bd 42 7c 10 bf
       -0.12877631 -0.2531844 -0.050056275 -0.564396
000080 58 c4 43 be cc 6d f8 bc 48 69 03 3e 9a 7a 1b bd
       -0.19117868 -0.030325793 0.1283313 -0.03795872
000090 bd 4f 15 3e 2f 24 28 3e 41 27 6f be c2 95 5e 3e
       0.14581199 0.16420053 -0.23354818 0.21736816
0000a0 82 73 40 be 46 21 46 be 7d 89 07 be 06 87 61 3e
       -0.18794063 -0.1934863 -0.13236041 0.22024164
0000b0 76 72 9b bd cc 25 c7 be 2c 1c 88 bd 3b e8 a2 be
       -0.07590191 -0.38896024 -0.06645998 -0.31817803
0000c0 82 94 0f bf 9e a4 4b be c6 94 25 be 7a 9d f1 bd
       -0.5608598 -0.19887015 -0.16170034 -0.117976144
0000d0 e8 a0 3f bb 04 62 c8 3d 41 07 c8 be e6 42 16 bf
       -0.0029240195 0.0978432 -0.39068034 -0.5869583
0000e0 85 d5 94 be 47 9a 91 3e 94 fe db 3d 47 b4 e6 be
       -0.29069152 0.28438017 0.10741916 -0.45059416
0000f0 b0 f6 23 3d 6a 2f 2c bf f3 1d 99 3d a6 af c0 bd
       0.04003018 -0.6725985 0.074764155 -0.09408502
000100 81 32 a4 bd 0f 54 74 3e ca d1 4c 3e e9 ac 4f 3e
       -0.08017445 0.23860191 0.20001903 0.20280804
000110 0c 26 14 bf 02 bc ab 3d d9 7b a5 bb 25 44 cb 3c
       -0.57870555 0.08385469 -0.005050164 0.024812767
000120 b7 10 aa 3d 02 94 f0 3e 2f 04 7a 3e 2f a1 81 bc
       0.08303969 0.4698792 0.24415658 -0.015823929
000130 78 5b 52 3e c1 1f 60 3e 38 ae e9 be df 19 5c 3e
       0.20542705 0.21887113 -0.4564073 0.21494244
000140 dc c3 7f be c3 77 fa 3c f3 4f 8f bb 46 0a a6 3e
       -0.24977058 0.030574685 -0.0043735444 0.32429713
000150 b4 52 b5 3e f8 67 9e 3d 52 86 e6 3d 83 a4 86 3c
       0.3541466 0.07734674 0.11256088 0.016435867
000160 0b 73 ed be 2c d1 33 3e 31 ce f0 be c0 73 93 bd
       -0.46376833 0.17560261 -0.47032312 -0.07199812
000170 4f 77 4a be df ff b2 3e 1a 9a 14 3e 17 8b 8d bd
       -0.19772075 0.3496084 0.1451191 -0.06911295
000180 9c ce 78 bd ec e9 4c 3e 29 a9 18 be d3 ed 47 3d
       -0.060743913 0.20011109 -0.1490828 0.04881079
000190 fe fb 93 be 39 4b ca 3e 23 4b 28 be c4 5c e7 bd
       -0.28903192 0.39510515 -0.16434912 -0.112969905
0001a0 d5 ff 53 3e 38 3c b8 3e d2 f9 25 3d 46 a1 a5 bd
       0.20703061 0.35983443 0.04052145 -0.08087401
0001b0 6b 10 41 be 69 f5 a1 be 60 38 db be 1d 9a 10 be
       -0.18853919 -0.31632546 -0.42816448 -0.1412129
0001c0 e3 ef 0d bd 8b 55 13 3f 89 6a a0 3e 46 11 16 be
       -0.034652602 0.57552403 0.3133128 -0.14655027
0001d0 49 4c 15 bf 24 86 10 3f 18 5e c5 be 5c a1 13 3e
       -0.58319527 0.5645468 -0.3854835 0.14417022
0001e0 c4 0e 03 bf 83 9b 17 bf 7e ad ef be cd 51 d4 bc
       -0.51194406 -0.5922167 -0.46812052 -0.025917912
0001f0 75 72 d1 bd 9b d4 77 bc 26 b4 b9 3d 9a a6 26 be
       -0.10226909 -0.015126373 0.09067564 -0.16274491
000200 6c 21 17 bf 7d 28 b1 3e 27 f6 bf 3c e6 83 44 3e
       -0.5903537 0.34601203 0.023432804 0.1919094
000210 87 1c 9a 3e 23 ec a3 3d aa 5a 3a 3e 64 e6 a7 3e
       0.3009989 0.08004024 0.18198648 0.32792962
000220 96 f2 47 be 1c 21 f9 3d 37 68 7a 3e 9e 20 4d bd
       -0.19526133 0.12164518 0.24453817 -0.050079934
000230 ed 2e be 3d 67 df 3c 3d cf 66 10 be c0 c3 a4 3e
       0.09286294 0.04611149 -0.14101718 0.32180595
000240 a1 2d c6 be 28 1d 4c 3e 51 be fd bd 85 d5 09 bd
       -0.38706687 0.19932997 -0.123898156 -0.033650894
000250 10 49 ef bd 30 6f 42 be 35 a1 00 3e 71 22 e5 3d
       -0.116838574 -0.18987727 0.12561496 0.1118821
000260 26 4c 28 be bc 87 3b 3e 9d 28 36 be ae b9 67 3e
       -0.16435298 0.18313497 -0.1778893 0.22629425
000270 e8 a8 06 3e cb 74 83 3e 8d 0f fd be 5e 8c b6 3e
       0.1315037 0.25675043 -0.49425927 0.35653967
000280 15 8b 00 be dd 4a ed 3c dc ab da be f0 17 9b be
       -0.12553056 0.028966362 -0.42709243 -0.302917
000290 3b 65 0f bf 40 03 a4 be cc f8 c0 3c 95 af 97 bd
       -0.5601384 -0.3203373 0.023556136 -0.074065365
0002a0 2a da b9 3d dd 89 32 3e a8 ec 96 3e 08 5e 2c 3e
       0.090748146 0.17435403 0.2947743 0.16832745
0002b0 46 37 40 3e 1d 83 92 3e b7 b9 2d bf 44 4b 98 bd
       0.18771085 0.28615656 -0.67861503 -0.07436231
0002c0 ef 97 8e 3d 43 3a 83 be 78 44 1d be fc c3 8b be
       0.06962573 -0.25630388 -0.1535815 -0.27297962
0002d0 07 1d 6e bb f1 08 0b be 80 01 15 3d f6 48 ca 3c
       -0.003633322 -0.1357763 0.036378384 0.024692994
0002e0 b9 80 28 bf 9d ed 88 3e 8b 87 74 3e 06 ea 0a 3e
       -0.65821415 0.26743785 0.2387983 0.13565835
0002f0 ae dd 2f be f5 4f b1 be fe 47 f7 3e 9c 5a 14 3e
       -0.17174408 -0.34631315 0.48297113 0.1448769
000300 7a 1d 39 bd 54 8c 59 3d b9 ae 51 3e 00 4f b4 be
       -0.045194127 0.053112343 0.20476808 -0.35216522
000310 69 90 9e 3d 2c 8b 10 be 00 93 68 be 98 73 f0 3c
       0.07742388 -0.1411559 -0.22712326 0.029351994
000320 97 1c 10 be ac 47 5f be 96 3c 87 ba 38 3a 20 3f
       -0.14073406 -0.21804684 -0.0010317739 0.62588835
000330 7e 2e b7 3d 3d b7 57 3b 90 0c 63 3e cb 43 8f 3c
       0.089444146 0.0032915615 0.22172761 0.01748838
000340 16 b2 6a 3e 78 24 41 be be aa 22 3e e6 22 85 3e
       0.22919497 -0.18861568 0.15885445 0.26003188
000350 a2 c5 d6 3d dd 11 b1 3d 7d 61 bb 3e c2 0c 71 bd
       0.10486914 0.08645985 0.36597815 -0.058850057
000360 3c ef 15 3f d7 bc c1 be 2d d7 da be f6 48 19 be
       0.5856817 -0.37839386 -0.4274229 -0.14969239
000370 b3 3d 9b be 4a 13 12 be f9 32 9a 3c d6 c6 87 be
       -0.3032051 -0.1426517 0.018823134 -0.26518887
000380 7d d0 18 bf d3 ca 26 3e 04 3c 62 bb a7 68 81 bb
       -0.5969313 0.16288309 -0.0034520635 -0.003949243
000390 8c c1 e1 3d a1 74 c1 bc 78 17 28 bf ef 11 a0 be
       0.11023244 -0.023615183 -0.6566081 -0.31263682
0003a0 22 d7 0f be f5 b6 0c 3e a1 e9 1b 3e 3e a5 df 3d
       -0.1404691 0.13741668 0.15225841 0.10920189
0003b0 66 2f 5b be dd 54 4c 3e 60 64 37 3e 60 8a 1c bd
       -0.214048 0.19954248 0.17909384 -0.038217902
0003c0 2d 67 ad 3d c2 2d ea 3e 7f 88 78 3e da b1 e9 3e
       0.08466945 0.45738035 0.24270819 0.45643502
0003d0 8f 40 62 be 8c 2f 95 be f3 1f 81 3e 1e 8c d5 3d
       -0.2209494 -0.29137838 0.25219688 0.10427116
0003e0 ce eb e5 3d b4 89 59 3e 16 dc 3d 3c 52 77 b7 3e
       0.11226617 0.21243936 0.011588117 0.35833222
0003f0 24 41 a2 bc 27 59 15 be b7 65 3c bd 8e 5f 85 be
       -0.019806452 -0.1458479 -0.04599544 -0.26049465

fc2.0.bias f4 [10]
000000 55 52 d3 3f f6 60 1e 3e 77 65 b8 3f d9 eb f3 3f
       1.6509501 0.15466675 1.4405965 1.905635
000010 d3 55 18 c0 b2 aa 1d bf 93 42 36 c0 2f 05 fa bf
       -2.3802383 -0.61588585 -2.8478134 -1.9532832
000020 ca 95 32 c0 be ca 19 be
       -2.7903924 -0.15018746
