callbacks/05-23-2022_09-11-57/models/epoch_6.pt (torch, 205087 bytes, 4 tensors)

fc1.0.weight f4 [64, 784]
0	0x3dbac30a	0.09119232
1	0xbd8c754f	-0.06858312
2	0x3dd4d43f	0.10392045
3	0x3b2710d4	0.0025492208
4	0xbcbd900b	-0.023139974
5	0xbd9a354e	-0.07529698
6	0xbc0926e8	-0.008371092
7	0x3d446e74	0.0479569
8	0x3c817736	0.015803915
9	0x3ce2da25	0.02769191
10	0xbdef4151	-0.1168238
11	0xbb40855a	-0.0029376359
12	0x3d33d6f5	0.04390617
13	0x3c525718	0.012838148
14	0xba03dbfe	-0.0005030035
15	0x3d217c96	0.039425455
16	0x3d0eb25a	0.034838058
17	0xbcef55ee	-0.02921578
18	0x3d87becd	0.06628189
19	0xbcbad4e4	-0.022806592
20	0x3dd619d3	0.10454144
21	0x3da9c944	0.082903415
22	0x3c2594e1	0.010106296
23	0x3d0a936d	0.033832002
24	0xbd71e440	-0.059055567
25	0xbd1af8dd	-0.03783499
26	0x3cf5fda9	0.030028181
27	0x3b909dff	0.004413366
28	0x3a8c1ac1	0.0010689126
29	0xbd484b1a	-0.048899747
30	0x3d2bc2eb	0.041933935
31	0xbdb3c056	-0.087769195
32	0x3c69cce4	0.014270041
33	0xbc8fa62e	-0.017535295
34	0xbd2f2ccb	-0.042767327
35	0x3db46abb	0.0880942
36	0x3d1615a8	0.036641747
37	0xbd25732b	-0.040393036
38	0x3dc0c475	0.09412471
39	0x3e8dfc70	0.27731657
40	0x3ec00b04	0.37508404
41	0x3e2222c7	0.15833579
42	0x3e43b594	0.19112235
43	0x3d665411	0.056232516
44	0xbd9be2d0	-0.076116204
45	0x3d312849	0.04325131
46	0x3e7f0feb	0.24908416
47	0x3ea87c08	0.32907128
48	0x3d9256cd	0.07145462
49	0x3ddd6f85	0.10812286
50	0x3dae5875	0.085129656
51	0x3dbdcaab	0.092671715
52	0x3de4a2d1	0.11163867
53	0x3ccfc2d3	0.025361454
54	0x3c650d46	0.013980215
55	0x3b1614f3	0.002290067
56	0xbc671de9	-0.014106252
57	0x3dada68d	0.08479033
58	0xbd97ca10	-0.07411587
59	0x3e0ad056	0.13556036
60	0x3d974d29	0.07387764
61	0xbc1e94d6	-0.00967904
62	0x3cc427ed	0.02394482
63	0x3de94d09	0.113916464
64	0xbdaeb29e	-0.08530162
65	0xbdfb9130	-0.12283552
66	0xbe75d859	-0.24008311
67	0xbd43c275	-0.04779287
68	0x3c433fcf	0.011917069
69	0xbd8afa10	-0.06785977
70	0x3df1da9d	0.11809275
71	0x3ae0cdad	0.001715114
72	0xbd4f2e8e	-0.050581507
73	0xbc3b6992	-0.011438744
74	0x3cf8ec9b	0.03038626
75	0x3ed7620b	0.42066988
76	0x3ec2cfd6	0.3804919
77	0x3ec0e4a6	0.37674445
78	0x3e5fb49a	0.21846238
79	0x3c2d93c3	0.010594311
80	0xbe5d9d68	-0.21642077
81	0xbc87481c	-0.016513877
82	0xbdc498f3	-0.09599485
83	0xbae1a35a	-0.001721482
84	0x3cae5593	0.02128104
85	0x3c73e1d8	0.014885388
86	0xb9d86bb9	-0.0004127899
87	0x3da78dd0	0.081813455
88	0x3de3cb62	0.111227766
89	0xbd090494	-0.03345163
90	0xbd5c2bab	-0.053752583
91	0xbdcdc3d1	-0.10047115
92	0xbe5e0c7d	-0.21684451
93	0xbe8c52c2	-0.2740689
94	0xbe1c7339	-0.15278329
95	0xbe400066	-0.18750152
96	0xbe2de943	-0.16983514
97	0xbe8c71ee	-0.2743067
98	0xbe58d81e	-0.21176192
99	0xbe16be38	-0.14721
100	0xbe730ad3	-0.23734598
101	0xbd90ab3a	-0.07063909
102	0x3d4adc3b	0.049526434
103	0x3d68f83f	0.05687737
104	0x3e876999	0.26447752
105	0x3e4328e6	0.1905857
106	0x3e610657	0.21975075
107	0x3ea6df9d	0.32592478
108	0x3d58877d	0.052863587
109	0xbc35d525	-0.011098181
110	0x3e194f92	0.1497176
111	0xbd58deae	-0.05294674
112	0x3d733818	0.059379667
113	0xbc851683	-0.016246086
114	0xbd78551f	-0.060628053
115	0x3e2f66b3	0.1712902
116	0x3d91ca1b	0.07118627
117	0xbe1049fe	-0.14090726
118	0xbdde78ac	-0.1086286
119	0xbc7d5906	-0.015463119
120	0xbe02a1b8	-0.12757003
121	0xbdf86b7c	-0.12129876
122	0xbde79cb6	-0.11309187
123	0xbdb6febb	-0.08935305
124	0xbb89be6a	-0.0042036073
125	0x3d5219f6	0.05129429
126	0xbe266bfa	-0.16252127
127	0xbe09b21e	-0.13446853
128	0xbd173be0	-0.036922336
129	0xbafa5847	-0.0019099795
130	0x3d8104f1	0.062997706
131	0x3ce9de7d	0.028548473
132	0x3dc2ccbf	0.095117085
133	0x3c9ef07c	0.019401781
134	0x3e0ba743	0.13638024
135	0x3eb4eb04	0.35335553
136	0x3e18d6e4	0.14925724
137	0x3d3518fe	0.044213288
138	0x3e04f2f5	0.12983306
139	0x3c42ff71	0.011901722
140	0x3d338e2c	0.043836758
141	0x3b891041	0.004182846
142	0x3dd0200a	0.10162361
143	0xbc51389a	-0.0127698425
144	0xbe023edb	-0.1271929
145	0xbe31a149	-0.17346682
146	0xbe7584d2	-0.23976448
147	0xbe50a068	-0.2037369
148	0xbe2b48f7	-0.16727053
149	0xbe73251b	-0.23744623
150	0xbe81a58d	-0.25321618
151	0xbcaf9215	-0.021431962
152	0xbd8e5337	-0.06949466
153	0xbdf5b067	-0.11996537
154	0xbe10287f	-0.14077948
155	0xbdc6f93a	-0.09715505
156	0xbd88a48c	-0.0667201
157	0xbdd696da	-0.104779914
158	0xbdb64a48	-0.08900887
159	0x3deca501	0.115549095
160	0x3cffe9bf	0.031239389
161	0xbdae6808	-0.08515936
162	0xbdaccc84	-0.08437446
163	0x3c39ec65	0.011347865
164	0x3dc0c8ec	0.09413323
165	0x3d85070c	0.06495485
166	0x3e13108b	0.1436178
167	0x3d66f8af	0.056389507
168	0x3c7d0de4	0.015445206
169	0xbd9c1b0f	-0.076223485
170	0x3e6add28	0.22935927
171	0xbdbf9b44	-0.093557864
172	0xbd5d20e5	-0.05398645
173	0x3e3857a9	0.1800219
174	0xbd2511e8	-0.04030028
175	0xbe227134	-0.15863496
176	0xbe24e637	-0.16103445
177	0xbd5978a1	-0.053093556
178	0xbd57cff4	-0.052688554
179	0xbd0905eb	-0.03345291
180	0xbb73f3a1	-0.0037224072
181	0xbe07ef74	-0.13274938
182	0xbd6a1bb4	-0.057155326
183	0xbd8161a9	-0.06317455
184	0xbe110851	-0.14163329
185	0x3cd13526	0.025538038
186	0xbd5cabc4	-0.053874746
187	0x3d7bbd2a	0.061459698
188	0x3be94c85	0.0071197175
189	0x3dbbad2f	0.091638915
190	0x3dd3c8da	0.10341044
191	0x3e8f8208	0.28028893
192	0x3e63e136	0.2225388
193	0x3ed5d6f2	0.41765553
194	0x3e87d2e2	0.26528078
195	0x3e03bd52	0.12865189
196	0xbcd838e0	-0.026394308
197	0xbe47c083	-0.19507031
198	0x3e07300e	0.13201925
199	0xbd2a140e	-0.041523032
200	0x3e0ee874	0.13955861
201	0x3d61b94b	0.05510835
202	0xbd4a35ed	-0.049367834
203	0xbdb2cdda	-0.08730669
204	0xbe2610a1	-0.16217281
205	0x3e0a59c7	0.1351081
206	0x3db18bdd	0.08669255
207	0x3ce5bfd8	0.02804558
208	0x3dc409bf	0.095721714
209	0xbcbfd8d4	-0.023418821
210	0x3c9e78b3	0.019344663
211	0x3caa9e2e	0.02082738
212	0x3db70b50	0.089377046
213	0x3d5905ab	0.05298392
214	0xbd645ceb	-0.055752676
215	0xbd96d46e	-0.073647365
216	0x3cfc847a	0.030824888
217	0xbd4df6b4	-0.050284103
218	0x3ddc56da	0.10758753
219	0x3e90a2ec	0.282493
220	0x3efea469	0.4973481
221	0x3f1cc48b	0.612374
222	0x3ee06d8d	0.4383358
223	0x3dfc37d5	0.123153366
224	0x3e1705e7	0.14748345
225	0xbd109864	-0.03530158
226	0x3d9683f5	0.073493876
227	0x3e287d43	0.16454034
228	0x3ca263aa	0.019822914
229	0xbddf641a	-0.10907765
230	0xbe0cb4bd	-0.13740821
231	0xbd1c5d0b	-0.03817467
232	0xbe3463d2	-0.17616203
233	0x3e0deb10	0.138592
234	0x3d114a63	0.03547133
235	0x3d61ba50	0.055109322
236	0x3e13cebf	0.14434336
237	0x3ddbe4fa	0.10737033
238	0x3dfef329	0.12448723
239	0x3db25780	0.087080956
240	0x3e18733f	0.14887713
241	0x3dd7d3ca	0.105384424
242	0x3d8870cc	0.06662139
243	0x3c31db53	0.010855514
244	0x3e04e205	0.12976845
245	0x3e0928a3	0.13394408
246	0x3d0a3cf9	0.033749554
247	0x3e3216ab	0.1739146
248	0x3f43339d	0.7625063
249	0x3f20acde	0.62763774
250	0x3edc8981	0.43073657
251	0x3e225385	0.15852173
252	0xbc4cd68f	-0.012502327
253	0x3d30643b	0.043064337
254	0x3d7a7f18	0.061156362
255	0xbd89b89e	-0.06724666

fc1.0.bias f4 [64]
0	0x3f1f52c5	0.6223567
1	0xbf985c0e	-1.1903093
2	0x40327bf7	2.7888162
3	0x3fd2aaa1	1.6458322
4	0x3fa95c8e	1.323137
5	0x4010cadf	2.2623823
6	0x3f89f506	1.07779
7	0x3ca1de42	0.019759301
8	0xbfbfa8b7	-1.4973363
9	0x3fa0bd19	1.2557708
10	0x3e915d2e	0.28391403
11	0xbf166fd1	-0.5876437
12	0xbff49a92	-1.9109671
13	0xbfaff25c	-1.3745837
14	0x3f2bcbcf	0.6710786
15	0x40075880	2.1147766
16	0xbdfac603	-0.12244799
17	0x40796619	3.8968565
18	0xbf1109f5	-0.5665582
19	0x3fa2c392	1.2715933
20	0xc024bce4	-2.574029
21	0x404213c1	3.0324557
22	0x3d9b5a84	0.07585624
23	0xbf8c347c	-1.0953517
24	0x3e66095c	0.22464508
25	0x3f22ca54	0.6358998
26	0x3da422bc	0.080144376
27	0xbfd69bfa	-1.676635
28	0x3f2d1fb9	0.6762653
29	0xbf01100d	-0.50415117
30	0x3f79d128	0.9758477
31	0xbf8e331d	-1.1109349
32	0xbe8cfe94	-0.27537978
33	0xbdd5a76a	-0.10432322
34	0x3ecc9810	0.39959764
35	0x3fc455f0	1.5338726
36	0xbf02d1ad	-0.5110119
37	0x3f9844e4	1.1896024
38	0x3e8bbbc4	0.2729169
39	0x3dc8beec	0.098020405
40	0xc0295bfa	-2.6462388
41	0x3f77369f	0.9656772
42	0xc01bfe89	-2.4374106
43	0xc003d4ce	-2.0598636
44	0x3ed50ab8	0.4160974
45	0xbfe64d1b	-1.7992281
46	0xbf83bd3d	-1.0292126
47	0x3f802689	1.001176
48	0xc0211de9	-2.5174506
49	0x3ec28a73	0.37996253
50	0x3e97b473	0.2962986
51	0xbf7e6f69	-0.9938875
52	0xbec70f1b	-0.38878712
53	0xbea4634a	-0.32107002
54	0x3d5592dd	0.052142013
55	0x3f742306	0.9536594
56	0xbfb1e67f	-1.3898467
57	0x3f965947	1.1745995
58	0x3e254f7e	0.16143605
59	0x3f184173	0.5947487
60	0xbff535cc	-1.9157043
61	0xbe9f2e24	-0.3108989
62	0xc00fe04f	-2.2480657
63	0xbfd55041	-1.6665117

fc2.0.weight f4 [10, 64]
0	0x3d98b3c2	0.07456161
1	0xbdba6447	-0.09101158
2	0xbf3e7db7	-0.74410576
3	0xbf6bddcf	-0.9213533
4	0x3ee626b1	0.44951394
5	0xbf867ff2	-1.0507796
6	0x3d044a75	0.03229757
7	0x3ea2b24f	0.31776664
8	0xbd4c3d8c	-0.049863383
9	0x3eca9c00	0.39572144
10	0x3f044128	0.5166192
11	0xbeb4fc19	-0.35348585
12	0x3de7952e	0.11307751
13	0xbe3cf18b	-0.18451516
14	0x3f0da692	0.5533229
15	0xbe99450d	-0.29935494
16	0x3ea8d2e7	0.32973406
17	0x3ef5c15a	0.47999078
18	0x3d8e59c4	0.06950715
19	0xbe2f6bd1	-0.17130972
20	0xbb2a6699	-0.0026001094
21	0xbe8348ca	-0.2564147
22	0xbf0014a3	-0.5003149
23	0x3da1ed0a	0.0790654
24	0xbf650e39	-0.8947483
25	0x3e4b7fea	0.19873014
26	0xbcd5f1d4	-0.02611629
27	0xbe2774a0	-0.16353083
28	0xbdd4a4fd	-0.103830315
29	0xbd3eb3bb	-0.046558123
30	0x3dea2df3	0.11434545
31	0xbf33787e	-0.7010573
32	0xbebfd9bc	-0.37470806
33	0xbcf86dcc	-0.030325793
34	0x3ddf67fb	0.109085046
35	0xbdb7263c	-0.089428395
36	0x3e09d5cf	0.13460468
37	0x3eb660e8	0.3562081
38	0xbe5fae2a	-0.21843782
39	0x3eb15c30	0.34640646
40	0xbe407382	-0.18794063
41	0xbeaaf2a2	-0.3338824
42	0xbe07897d	-0.13236041
43	0x3e618706	0.22024164
44	0x3c6dd2f5	0.014515628
45	0xbf3b3712	-0.73130906
46	0xbd14f186	-0.036363147
47	0xbf024948	-0.5089307
48	0xbf0f9482	-0.5608598
49	0xbbc2479d	-0.005928947
50	0xbf228a54	-0.6349232
51	0xbe4bd6e5	-0.19906195
52	0x3bf04221	0.007332102
53	0xbebdf594	-0.37101424
54	0xbf516e9c	-0.818094
55	0xbf604cae	-0.87617004
56	0xbe490fa4	-0.19634873
57	0x3ead9f4c	0.33910596
58	0x3e012979	0.12613477
59	0xbf5c9542	-0.8616525
60	0x3d23f6b0	0.04003018
61	0xbf744115	-0.9541181
62	0x3d991df3	0.074764155
63	0xbdc0afa6	-0.09408502
64	0xbde2efa8	-0.11080867
65	0x3f323721	0.6961537
66	0x3e7549fd	0.23954006
67	0x3e8ecc77	0.2789037
68	0xbf8e9f96	-1.1142452
69	0x3d64849c	0.05579053
70	0xbd22fc17	-0.039791193
71	0x3dac20f1	0.084047206
72	0x3daa10b7	0.08303969
73	0x3f279dc7	0.65475124
74	0x3e9ba1f3	0.30396995
75	0xbe07908b	-0.13238733
76	0x3e525b78	0.20542705
77	0x3e601fc1	0.21887113
78	0xbe5fb7ae	-0.21847412
79	0x3e68a0be	0.22717568
80	0xbebb260c	-0.36552465
81	0x3ed4b2c9	0.41542652
82	0xbb8f4ff3	-0.0043735444
83	0x3ea3e68a	0.32011825
84	0x3eb552b4	0.3541466
85	0x3e43c89e	0.19119498
86	0x3e88ecb0	0.26743078
87	0x3c86a483	0.016435867
88	0xbf4eea27	-0.8082604
89	0x3e8d17ed	0.27557316
90	0xbf6d19c6	-0.9261745
91	0xbd9373c0	-0.07199812
92	0xbf4ae095	-0.79248935
93	0x3e9e3fd6	0.30908078
94	0x3ce584d1	0.028017433
95	0x3e144837	0.14480673
96	0x3a9e3fdf	0.0012073478
97	0x3e4ce9ec	0.20011109
98	0xbecdbbc5	-0.4018232
99	0x3e12013d	0.14258285
100	0xbf06cd39	-0.52656895
101	0x3ec55ca3	0.3854724
102	0xbf0d8b0b	-0.5529029
103	0xbe4393ae	-0.19099304
104	0x3e53ffd5	0.20703061
105	0x3ee9edba	0.45689183
106	0x3d25f9d2	0.04052145
107	0xbda5a146	-0.08087401
108	0xbe8b64bf	-0.272253
109	0xbf0a7d7c	-0.54097724
110	0xbf425d0f	-0.75923246
111	0xbe6b53dd	-0.2298121
112	0xbd0defe3	-0.034652602
113	0x3f2f802f	0.6855497
114	0x3f3b2bd5	0.7311376
115	0xbe7362a5	-0.23768099
116	0xbf864ff2	-1.0493147
117	0x3f5ae6b7	0.8550829
118	0xbf1679cb	-0.5877959
119	0x3e4420c1	0.1915312
120	0xbf5def3f	-0.86693186
121	0xbf60b0c3	-0.87769717
122	0xbf444369	-0.7666536
123	0x3d8c8282	0.0686083
124	0xbdd17275	-0.10226909
125	0xbe66940f	-0.22517417
126	0x3db9b426	0.09067564
127	0xbe26a69a	-0.16274491
128	0xbf999086	-1.199723
129	0x3f242e8b	0.6413352
130	0x3d9f4177	0.07776158
131	0x3eae3305	0.340233
132	0x3efc0355	0.49221292
133	0x3cf75745	0.03019298
134	0x3e24c066	0.16089019
135	0x3ea10e0a	0.31456023
136	0xbe47f296	-0.19526133
137	0x3e9146f1	0.28374436
138	0x3ed55c5e	0.41672033
139	0xbe844527	-0.2583401
140	0x3dbe2eed	0.09286294
141	0x3d3cdf67	0.04611149
142	0xbdbddd72	-0.09270753
143	0x3ef1b835	0.4721085
144	0xbf42e120	-0.76124763
145	0x3e9d0817	0.30670235
146	0xbdfdbe51	-0.123898156
147	0x3d8af0eb	0.06784233
148	0xbdef4910	-0.116838574
149	0xbee0678d	-0.43829003
150	0x3e2ff88d	0.17184658
151	0x3de52271	0.1118821
152	0xbebe1272	-0.37123448
153	0x3e9a6157	0.3015239
154	0xbe6d359b	-0.2316498
155	0x3e67b9ae	0.22629425
156	0x3e9011ca	0.28138572
157	0x3e737fbb	0.23779194
158	0xbf995327	-1.1978501
159	0x3ead39d0	0.3383317
160	0xbdf88e8a	-0.12136562
161	0x3ced4add	0.028966362
162	0xbf10fb62	-0.5663358
163	0xbed0981a	-0.40741044
164	0xbf3eb1ab	-0.7448985
165	0xbf3e4db6	-0.7433733
166	0xbd2db954	-0.04241307
167	0x3d8f72c1	0.070043094
168	0x3db9da2a	0.090748146
169	0x3ef2ac3c	0.4739703
170	0x3e96eca8	0.2947743
171	0x3e2c5e08	0.16832745
172	0x3ef43001	0.47692874
173	0x3e9625d0	0.29325724
174	0xbf76abad	-0.96355706
175	0xbda79f66	-0.081847
176	0x3d8e97ef	0.06962573
177	0xbeefbc90	-0.4682355
178	0xbea9223a	-0.33033925
179	0xbea96cec	-0.33090913
180	0xbd0d390f	-0.034478243
181	0xbe0251cc	-0.12726516
182	0xbce7bde1	-0.028288784
183	0x3daec1b2	0.08533038
184	0xbf9604e7	-1.1720246
185	0x3e9c129f	0.30482957
186	0x3e79cd6d	0.2439477
187	0x3e14168e	0.14461729
188	0xbe2fddae	-0.17174408
189	0xbed42663	-0.41435537
190	0x3ef747fe	0.48297113
191	0x3e145a9c	0.1448769
192	0xbd843532	-0.06455459
193	0x3eee4cfd	0.46543112
194	0x3e20acfa	0.15690985
195	0xbefa3742	-0.48870283
196	0x3e7b8ada	0.24564686
197	0xbe581695	-0.21102364
198	0xbe972dd4	-0.29527152
199	0x3e3a138c	0.18171519
200	0xbe101c97	-0.14073406
201	0xbf00dbde	-0.5033549
202	0x3e8533ba	0.26016027
203	0x3f4f6657	0.81015533
204	0x3db72e7e	0.089444146
205	0x3b57b73d	0.0032915615
206	0x3ea324c4	0.31863987
207	0xbdad7840	-0.084702015
208	0x3f1787c4	0.59191537
209	0xbed6ea4f	-0.41975638
210	0x3e22aabe	0.15885445
211	0x3e2b8a1f	0.16751908
212	0x3dd6c5a2	0.10486914
213	0x3d131a69	0.03591386
214	0x3eaf1e5c	0.3420285
215	0xbd710cc2	-0.058850057
216	0x3f386fcf	0.72045606
217	0xbf3a207a	-0.72705805
218	0xbf377674	-0.7166512
219	0xbe1948f6	-0.14969239
220	0xbf0e2b90	-0.5553522
221	0xbd2fdc5d	-0.042934764
222	0xbde7a043	-0.11309864
223	0xbe20ac45	-0.15690716
224	0xbf5dc423	-0.86627406
225	0x3e26cad3	0.16288309
226	0xbc718b2a	-0.014742652
227	0x3d1d8a83	0.038462173
228	0x3d68111e	0.05665695
229	0xbe3c9778	-0.18417156
230	0xbf9f92a0	-1.2466621
231	0xbead1b2a	-0.33809787
232	0xbe0fd722	-0.1404691
233	0x3e8d0d3b	0.27549157
234	0x3e1be9a1	0.15225841
235	0x3ddfa53e	0.10920189
236	0xbedd1997	-0.43183586
237	0x3f053bdd	0.5204447
238	0x3c083b73	0.008314955
239	0x3d7f273d	0.06229328
240	0x3dad672d	0.08466945
241	0x3f1ef117	0.62086624
242	0x3ecd2cfe	0.4007339
243	0x3f1dcf4c	0.61644435
244	0xbe3c0dbf	-0.18364619
245	0xbf228779	-0.63487965
246	0x3e9fd278	0.31215262
247	0x3dce6136	0.10077135
248	0x3d636f94	0.05552633
249	0x3e638422	0.22218373
250	0xbd38cfb3	-0.045119952
251	0x3edd5afb	0.43233475
252	0xbca24124	-0.019806452
253	0xbdfe09d8	-0.12404221
254	0xbd3c65b7	-0.04599544
255	0xbe855f8e	-0.26049465

fc2.0.bias f4 [10]
0	0x3fcf4019	1.6191436
1	0x3d8c61a7	0.06854563
2	0x3fbe297c	1.485641
3	0x3fdcbfff	1.7246093
4	0xc019a1b1	-2.4004939
5	0xbf199ea0	-0.6000767
6	0xc03856d6	-2.8803
7	0xbffe9483	-1.9889072
8	0xc02881f5	-2.632932
9	0xbe61775a	-0.22018185
