callbacks/05-23-2022_09-11-57/models/epoch_4.pt (torch, 205087 bytes, 4 tensors)

fc1.0.weight f4 [64, 784]
000000 0a c3 ba 3d 4f 75 8c bd 3f d4 d4 3d d4 10 27 3b
       0.09119232 -0.06858312 0.10392045 0.0025492208
000010 0b 90 bd bc 4e 35 9a bd e8 26 09 bc 74 6e 44 3d
       -0.023139974 -0.07529698 -0.008371092 0.0479569
000020 36 77 81 3c 25 da e2 3c 51 41 ef bd 5a 85 40 bb
       0.015803915 0.02769191 -0.1168238 -0.0029376359
000030 f5 d6 33 3d 18 57 52 3c fe db 03 ba 96 7c 21 3d
       0.04390617 0.012838148 -0.0005030035 0.039425455
000040 5a b2 0e 3d ee 55 ef bc cd be 87 3d e4 d4 ba bc
       0.034838058 -0.02921578 0.06628189 -0.022806592
000050 d3 19 d6 3d 44 c9 a9 3d e1 94 25 3c 6d 93 0a 3d
       0.10454144 0.082903415 0.010106296 0.033832002
000060 40 e4 71 bd dd f8 1a bd a9 fd f5 3c ff 9d 90 3b
       -0.059055567 -0.03783499 0.030028181 0.004413366
000070 c1 1a 8c 3a 1a 4b 48 bd eb c2 2b 3d 56 c0 b3 bd
       0.0010689126 -0.048899747 0.041933935 -0.087769195
000080 e4 cc 69 3c 2e a6 8f bc cb 2c 2f bd bb 6a b4 3d
       0.014270041 -0.017535295 -0.042767327 0.0880942
000090 a8 15 16 3d 2b 73 25 bd 75 c4 c0 3d 62 49 60 3e
       0.036641747 -0.040393036 0.09412471 0.21902993
0000a0 f0 0a 96 3e d0 6f e2 3d 87 d2 11 3e 32 39 40 3c
       0.2930522 0.11056483 0.14240466 0.011732386
0000b0 36 c4 95 bd da 8e 88 3d fa aa 67 3e 48 96 9c 3e
       -0.07312815 0.06667872 0.22623816 0.30583405
0000c0 cd 56 92 3d 85 6f dd 3d 75 58 ae 3d ab ca bd 3d
       0.07145462 0.10812286 0.085129656 0.092671715
0000d0 d1 a2 e4 3d d3 c2 cf 3c 46 0d 65 3c f3 14 16 3b
       0.11163867 0.025361454 0.013980215 0.002290067
0000e0 e9 1d 67 bc 8d a6 ad 3d 10 ca 97 bd 1d ae cf 3d
       -0.014106252 0.08479033 -0.07411587 0.10140631
0000f0 97 de 27 3d d6 94 1e bc 0c f0 c3 3c dd 7e e4 3d
       0.040983763 -0.00967904 0.023918174 0.1115701
000100 cf b8 ae bd 40 33 ba bd 2c e8 14 be a1 55 4c 3d
       -0.08531343 -0.090918064 -0.14541692 0.04988635
000110 0b e8 7b 3d fd 63 ac bd d4 55 0e 3a 77 28 8d bd
       0.06150059 -0.08417509 0.00054296595 -0.06892484
000120 48 47 e9 bd 84 57 22 bc dc e4 f2 3d 9b 43 ed 3e
       -0.11390549 -0.009908561 0.11860058 0.4634064
000130 50 cd cd 3e e6 31 cf 3e 66 26 56 3e 30 34 50 3c
       0.40195704 0.40467757 0.20913085 0.012707755
000140 ee 76 39 be f8 ed 97 3c f3 98 c4 bd 5a a3 e1 ba
       -0.18111774 0.01854609 -0.09599485 -0.001721482
000150 93 55 ae 3c d8 e1 73 3c b4 15 3a 39 21 1a 42 3d
       0.02128104 0.014885388 0.00017746427 0.0473882
000160 b2 e1 93 3d 0b 73 2e bd 8d 19 b5 bd 60 ee c3 bd
       0.07220782 -0.042590182 -0.08842764 -0.09566951
000170 43 4f 4a be 1b 99 3d be b6 dc 80 bd 62 d0 83 bd
       -0.19756798 -0.18515436 -0.06292097 -0.0643623
000180 bf ed 89 bd ff 9e 81 be e3 f8 3d be f2 29 be bd
       -0.067347996 -0.25316617 -0.18551974 -0.09285344
000190 f3 e2 48 be 71 d9 7a bd 11 e8 9b 3d c4 db c1 3d
       -0.19617824 -0.061242525 0.076126225 0.09465745
0001a0 6c 4a 84 3e 3d 52 5b 3e 4b c6 5f 3e c4 5f 84 3e
       0.2583803 0.2141809 0.21852987 0.25854313
0001b0 57 1b 83 3d 93 09 4d 3c be 0d 17 3e ae de 58 bd
       0.06401699 0.01251449 0.14751336 -0.05294674
0001c0 18 38 73 3d de 17 85 bc ae 49 00 bd 31 7a 26 3e
       0.059379667 -0.016246732 -0.031320266 0.1625755
0001d0 f1 30 9b 3d 4c 1a e8 bd 2f 47 8f bd 69 48 bd ba
       0.07577694 -0.11333141 -0.06995999 -0.0014441136
0001e0 d1 3a 59 bd 4e 59 ee bd 24 54 df bd a6 9e e4 bd
       -0.053034607 -0.11638127 -0.109047204 -0.11163072
0001f0 4b 38 27 bd 5a 2d 35 3c ea 36 08 be 4b e6 a0 bd
       -0.04082517 0.011058176 -0.13302198 -0.07856425
000200 b9 7d 85 3c fc a1 87 bb f7 7c 6c 3d 97 75 03 3d
       0.0162953 -0.004139183 0.057736363 0.032094564
000210 f3 4e 90 3d e1 03 5d 3c 5f 69 14 3e 21 9e a9 3e
       0.07046308 0.013489694 0.14493321 0.33128455
000220 11 8f 12 3e 9b ab 57 3d 60 15 ff 3d 03 bc 06 3d
       0.14312388 0.05265389 0.12455249 0.032894146
000230 2c 8e 33 3d 41 10 89 3b 82 75 08 3e 18 9a 63 bd
       0.043836758 0.004182846 0.13326076 -0.055566877
000240 bc 7d 9e bd a3 00 14 be 37 e2 47 be b7 4a 28 be
       -0.07738826 -0.14453368 -0.19519888 -0.16434751
000250 e6 4a b8 bd c0 7f 6c be 18 1a 7d be 98 1f 91 bd
       -0.08998661 -0.23095608 -0.24716985 -0.07086104
000260 9f 4c cb bd 63 1f e9 bd 69 f3 14 be 63 ee 9f bd
       -0.09926724 -0.1138294 -0.14545979 -0.078091405
000270 02 1a d5 bc 60 d6 88 bd ec 3e 5e bd 56 7e d1 3d
       -0.026013378 -0.06681514 -0.054259226 0.10229175
000280 4f dd 83 3c c4 07 cf bd 99 4f a5 bd 73 8d 0c 3d
       0.01609674 -0.10108903 -0.08071823 0.034314584
000290 16 f5 d4 3d 1c bb c2 3d aa b8 1e 3e c1 1a 62 3d
       0.10398309 0.095083445 0.15500131 0.055201296
0002a0 e4 0d 7d 3c 46 f2 66 bd 9e 1a 25 3e b4 b0 01 be
       0.015445206 -0.056383394 0.16123435 -0.12665063
0002b0 a9 cf 91 bd ed bf aa 3d cb 21 1e bd 14 a4 ee bd
       -0.07119686 0.08337388 -0.038606446 -0.11652389
0002c0 d3 1f 28 be 3f 0e c9 bd 68 14 c3 bd c0 c9 a5 bd
       -0.1641839 -0.0981717 -0.095253766 -0.080951214
0002d0 5a 60 43 bc ba 36 08 be 19 32 40 bd 9d 91 30 bd
       -0.0119248275 -0.13302127 -0.046922777 -0.043107618
0002e0 23 0f f4 bd da ff 5f 3d 1c 95 0b bd 8b 7a 2b 3d
       -0.119169496 0.05468736 -0.03407775 0.041864913
0002f0 c8 00 f5 3b f2 2a 7b 3d e3 7b 9a 3d 07 f8 74 3e
       0.0074769 0.061320253 0.07543161 0.2392274
000300 19 05 73 3e 04 bf d9 3e 79 83 67 3e 2d 88 fe 3d
       0.23732413 0.42528546 0.22608747 0.12428317
000310 e0 38 d8 bc 8c 6c 35 be 7d 4c 8c 3d 7b 8e 98 bd
       -0.026394308 -0.17717189 0.068505265 -0.07449051
000320 c4 2e 87 3d ed bf f5 bc 4a 84 a4 bc f1 25 80 bd
       0.06600717 -0.029998744 -0.020082612 -0.06257237
000330 7f dd 2d be 0b f3 9e 3d 64 bd 26 3d d7 79 3f 3c
       -0.16979025 0.077612005 0.04070796 0.011686764
000340 28 c2 95 3d 04 67 d3 bb af 1f 47 3d 3e 26 0d 3a
       0.07312423 -0.0064514894 0.0486142 0.00053844217
000350 ae da 8e 3d 7e 99 56 3d 78 75 18 bd 5b c8 97 bd
       0.069753036 0.052392475 -0.037221402 -0.07411262
000360 9e e0 35 3d 94 53 d1 bc b9 6f 00 3e 35 49 81 3e
       0.044403665 -0.025552548 0.12542619 0.25251165
000370 fc 34 e9 3e 20 65 0d 3f ef cd b1 3e bb 2f f0 3d
       0.45548236 0.5523243 0.34727427 0.11727854
000380 ad 33 b3 3d 86 0c 56 bc 74 79 16 3d 4e 26 0e 3e
       0.08750091 -0.013064509 0.03673692 0.138818
000390 c1 5e 8c bd cf bb af bd 11 63 fc bd dd d3 1e bd
       -0.068540104 -0.085807435 -0.12323583 -0.038776267
0003a0 70 af 19 be 31 cd c7 3d cb 34 40 3c 60 23 9f 3c
       -0.1500833 0.09755934 0.011731337 0.019426048
0003b0 60 13 f2 3d a7 4c c4 3d d8 3b ee 3d 29 43 87 3d
       0.11820102 0.09584933 0.11632508 0.06604607
0003c0 6f 83 eb 3d 4d c0 a9 3d ad 56 2e 3d ba 97 0c bd
       0.11499678 0.082886316 0.04256313 -0.034324385
0003d0 11 9e cf 3d c3 73 2f 3e 60 a6 a5 3d fc 67 5f 3e
       0.10137571 0.17134003 0.08088374 0.2181701
0003e0 32 dc 28 3f b1 b2 0b 3f a0 a1 be 3e 1d 11 3b 3e
       0.6596099 0.54569536 0.37232685 0.18268247
0003f0 8f d6 4c bc 4a b3 03 3d 98 dc 63 bc f0 b4 5c bd
       -0.012502327 0.032153405 -0.013907574 -0.053883493

fc1.0.bias f4 [64]
000000 01 3c 24 3f 77 05 9a bf 1f 31 34 40 62 29 d7 3f
       0.6415406 -1.2032918 2.815498 1.6809504
000010 c1 12 a9 3f b3 41 0d 40 5c 90 89 3f e7 96 95 3d
       1.3208848 2.207135 1.074718 0.07304173
000020 b7 a8 bf bf bc ea a3 3f 9b ca 9e 3e 94 b2 0f bf
       -1.4973363 1.280601 0.3101395 -0.56131864
000030 92 9a f4 bf 5c f2 af bf 70 75 2a 3f 57 6c 07 40
       -1.9109671 -1.3745837 0.66585445 2.1159875
000040 ac c5 b5 bd 3d 36 7a 40 f5 09 11 bf 9b 64 aa 3f
       -0.088755935 3.9095604 -0.5665582 1.3311952
000050 e4 bc 24 c0 ce 67 43 40 57 89 02 3e 7c 34 8c bf
       -2.574029 3.0532107 0.12747703 -1.0953517
000060 fd cd 6c 3e d8 ee 1d 3f 61 0a 76 bb fa 9b d6 bf
       0.23125453 0.6169257 -0.0037542807 -1.676635
000070 7d ff 25 3f 3e fb f4 be 38 20 7c 3f eb 9f 8e bf
       0.6484297 -0.47847933 0.9848666 -1.1142553
000080 bb 35 b0 be 6a a7 d5 bd d1 a4 d8 3e 91 91 c7 3f
       -0.34415993 -0.10432322 0.42313245 1.5591298
000090 79 b6 f0 be 82 e4 98 3f 51 47 5a 3e 9a 94 c7 3d
       -0.47014216 1.1944735 0.21316268 0.097451404
0000a0 fa 5b 29 c0 94 cf 7e 3f 89 fe 1b c0 ce d4 03 c0
       -2.6462388 0.9953549 -2.4374106 -2.0598636
0000b0 e8 fc bb 3e 80 70 e7 bf 2c 69 84 bf ce 61 7d 3f
       0.3671639 -1.8081207 -1.0344596 0.98977363
0000c0 e9 1d 21 c0 77 2f dd 3e 94 50 92 3e 70 58 77 bf
       -2.5174506 0.43200275 0.285771 -0.9661932
0000d0 fe 43 e8 be de 4c 99 be 2a 2a 3d 3d 67 82 72 3f
       -0.45364374 -0.29941458 0.04618279 0.9473023
0000e0 32 a7 b1 bf 54 ae 9b 3f 17 51 24 3e 6c 41 26 3f
       -1.3879149 1.2162576 0.16046558 0.64943576
0000f0 cc 35 f5 bf 01 8d 9e be 4f e0 0f c0 41 50 d5 bf
       -1.9157043 -0.30966952 -2.2480657 -1.6665117

fc2.0.weight f4 [10, 64]
000000 c4 0c 86 3d c3 65 bd bd 20 53 22 bf 70 6a 4d bf
       0.065454036 -0.09247925 -0.6340809 -0.80240536
000010 7e 43 eb 3e 4f 25 5a bf 7d 84 63 3d 71 16 96 3e
       0.4594993 -0.8521318 0.055546273 0.29313996
000020 8c 3d 4c bd f2 ce c0 3e c4 7d 02 3f 3a bc 8f be
       -0.049863383 0.37657887 0.50973153 -0.28073293
000030 2e 95 e7 3d 8b f1 3c be f8 90 06 3f 4e f0 6e be
       0.11307751 -0.18451516 0.52564955 -0.23333856
000040 3c ba bf 3e 21 63 d4 3e c4 59 8e 3d bc fc 24 be
       0.37446773 0.4148188 0.06950715 -0.16112036
000050 99 66 2a bb 34 54 54 be eb b3 e2 be 0a ed a1 3d
       -0.0026001094 -0.20735246 -0.44277892 0.0790654
000060 6a 49 48 bf 12 5d 49 3e 8b 45 68 ba a0 74 27 be
       -0.7823702 0.1966441 -0.00088604604 -0.16353083
000070 dd 4e 23 be 21 2f d2 bd 5a 39 85 3d 1f 62 37 bf
       -0.15948053 -0.102628954 0.065050796 -0.71634096
000080 8c 26 86 be cc 6d f8 bc 64 46 c7 3d 65 9a 56 bd
       -0.26201284 -0.030325793 0.09730223 -0.052393336
000090 9e 8a 23 3e 27 16 9f 3e c7 5e 5c be 26 30 92 3e
       0.15970847 0.31071588 -0.2152053 0.2855236
0000a0 82 73 40 be 23 f4 a7 be 7d 89 07 be 06 87 61 3e
       -0.18794063 -0.3280345 -0.13236041 0.22024164
0000b0 81 00 db bc 11 3c 1a bf 0e 08 30 bd 80 fa d8 be
       -0.026733639 -0.60247904 -0.04297643 -0.42378616
0000c0 82 94 0f bf b2 8f c1 bd c0 c7 00 bf 70 c8 2e be
       -0.5608598 -0.09451236 -0.50304794 -0.17068648
0000d0 eb ab ea 3b 13 58 69 be 36 80 2c bf f4 46 56 bf
       0.0071616075 -0.22787504 -0.67383134 -0.83702016
0000e0 0d e2 53 be 0b 67 a3 3e a2 dd 0b 3e 8d f5 41 bf
       -0.206917 0.31914553 0.13658765 -0.75765306
0000f0 b0 f6 23 3d 0f 9b 62 bf f3 1d 99 3d a6 af c0 bd
       0.04003018 -0.8851785 0.074764155 -0.09408502
000100 f5 42 ac bd 13 76 1b 3f 12 d2 78 3e f1 cf 56 3e
       -0.084112085 0.6072704 0.24298885 0.20977761
000110 c6 ae 7b bf 4a cb 8c 3c 42 54 40 bd a7 f8 25 3d
       -0.9831356 0.01718678 -0.046955355 0.040520336
000120 b7 10 aa 3d f2 e4 18 3f 91 25 9c 3e 41 85 ae bd
       0.08303969 0.5972434 0.3049741 -0.0852151
000130 78 5b 52 3e c1 1f 60 3e f0 60 55 be b0 e5 82 3e
       0.20542705 0.21887113 -0.2083776 0.25565863
000140 ac 7d 9a be c7 df 84 3e f3 4f 8f bb d9 4c a5 3e
       -0.30174005 0.2595198 -0.0043735444 0.32285193
000150 b4 52 b5 3e 4b 61 da 3d 5b 01 62 3e 83 a4 86 3c
       0.3541466 0.106630884 0.2207083 0.016435867
000160 7f 9c 33 bf c1 d4 60 3e 5c 5a 40 bf c0 73 93 bd
       -0.7016067 0.21956159 -0.7513788 -0.07199812
000170 4a 15 32 bf 14 b8 93 3e 0f 40 5d 3d 07 b5 ba 3d
       -0.69563735 0.28851378 0.05401617 0.091165595
000180 b4 98 a3 bd ec e9 4c 3e 1d d5 91 be 82 ec cf 3d
       -0.0798811 0.20011109 -0.28482905 0.10152532
000190 d3 1a db be 85 bb c8 3e 94 75 e7 be 8f 8c 30 be
       -0.42793903 0.39205566 -0.45206892 -0.17241119
0001a0 d5 ff 53 3e 31 72 e3 3e d2 f9 25 3d 46 a1 a5 bd
       0.20703061 0.4442306 0.04052145 -0.08087401
0001b0 f1 bd 70 be 91 29 ed be e5 10 1c bf af 76 5b be
       -0.23509957 -0.46320775 -0.6096328 -0.21431993
0001c0 e3 ef 0d bd b4 a5 1f 3f b3 fe 1c 3f b2 b6 4f be
       -0.034652602 0.6236222 0.6132614 -0.20284536
0001d0 6a 8a 61 bf 81 0e 46 3f 6a 7b 16 bf f8 39 2c 3e
       -0.8810183 0.7736588 -0.58782065 0.16818988
0001e0 87 ac 40 bf f8 78 52 bf 3b ac 27 bf eb 64 c3 3c
       -0.75263256 -0.82215834 -0.6549718 0.023851832
0001f0 75 72 d1 bd af 8f 34 be 26 b4 b9 3d 9a a6 26 be
       -0.10226909 -0.17632936 0.09067564 -0.16274491
000200 d0 76 84 bf 8a 1b 11 3f a2 47 84 3d 37 b2 9b 3e
       -1.0348759 0.56682646 0.064589754 0.30409405
000210 22 e5 da 3e 1d d7 3b 3d b0 54 4c 3e 82 f2 9a 3e
       0.4275294 0.045859445 0.1995418 0.30263144
000220 96 f2 47 be 46 64 7c 3e 61 4b ab 3e 57 28 1e be
       -0.19526133 0.24647626 0.33455947 -0.15445076
000230 ed 2e be 3d 67 df 3c 3d 38 10 c8 bd 46 27 be 3e
       0.09286294 0.04611149 -0.097687185 0.37139338
000240 44 b5 34 bf 97 56 87 3e 51 be fd bd 0a 31 ec 3d
       -0.7058909 0.2643325 -0.123898156 0.11532791
000250 10 49 ef bd a0 17 9a be 59 14 25 3e 71 22 e5 3d
       -0.116838574 -0.3009615 0.16121043 0.1118821
000260 0d 5a 8c be e5 56 91 3e 99 96 80 be ae b9 67 3e
       -0.27412453 0.28386608 -0.25114897 0.22629425
000270 6e 7f 6d 3e 1f 41 7f 3e 16 68 88 bf 12 e7 b1 3e
       0.23193142 0.24927185 -1.0656765 0.34746605
000280 ce 54 fd bd dd 4a ed 3c 3e 00 08 bf 54 fc c1 be
       -0.12369691 0.028966362 -0.5312537 -0.37887824
000290 45 f6 2b bf 35 ec 25 bf b1 50 1c bd b1 dc 23 3d
       -0.6717265 -0.6481355 -0.03816289 0.04000539
0002a0 2a da b9 3d 4a 9b ce 3e a8 ec 96 3e 08 5e 2c 3e
       0.090748146 0.4035285 0.2947743 0.16832745
0002b0 c7 24 b9 3e 0d 75 92 3e 86 52 54 bf 6b 63 bf bd
       0.3616087 0.28604928 -0.8293842 -0.09345134
0002c0 ef 97 8e 3d 55 65 cd be 65 be 9f be e7 69 a6 be
       0.06962573 -0.40116373 -0.31199947 -0.32502672
0002d0 98 83 95 bc 60 40 01 be 2c c5 bd 3c 4b df 6a 3d
       -0.018251225 -0.12622213 0.023165308 0.057341855
0002e0 e4 64 83 bf 2e 92 8f 3e 84 35 80 3e a4 43 14 3e
       -1.0265164 0.28041214 0.2504083 0.14478928
0002f0 ae dd 2f be 7c 4d ce be fe 47 f7 3e 9c 5a 14 3e
       -0.17174408 -0.4029349 0.48297113 0.1448769
000300 ba d9 63 bd 79 3f b4 3e ec 17 37 3e 76 94 e7 be
       -0.055627562 0.35204676 0.17880219 -0.45230454
000310 a7 fa 2f 3e 40 9c 4f be e9 55 8f be 35 96 15 3e
       0.1718546 -0.20274448 -0.27995232 0.1460808
000320 97 1c 10 be 8b fc e6 be 33 b4 65 3e bd 75 45 3f
       -0.14073406 -0.4511455 0.22432022 0.7713278
000330 7e 2e b7 3d 3d b7 57 3b 05 15 8a 3e 70 ac ee bc
       0.089444146 0.0032915615 0.26969162 -0.029134959
000340 4b 3e 06 3f 45 ec b3 be be aa 22 3e b6 b4 20 3e
       0.524388 -0.35141197 0.15885445 0.15693936
000350 a2 c5 d6 3d 84 70 9e 3d a9 50 9c 3e c2 0c 71 bd
       0.10486914 0.077363044 0.3053029 -0.058850057
000360 34 00 25 3f f2 36 1f bf ba 85 1b bf f6 48 19 be
       0.64453435 -0.62193215 -0.60750926 -0.14969239
000370 a5 63 fd be 71 e1 67 bd 97 a2 7d bd 0e 6f 3d be
       -0.49490085 -0.056611482 -0.061922636 -0.18499395
000380 d5 3a 3f bf d3 ca 26 3e 26 b2 80 bd 11 5a 84 3c
       -0.74699146 0.16288309 -0.06283979 0.016156228
000390 d1 86 a8 3d e8 45 eb bd a0 57 89 bf 61 25 a4 be
       0.08228839 -0.11487943 -1.0729866 -0.32059768
0003a0 22 d7 0f be 5a 1a 52 3e a1 e9 1b 3e 3e a5 df 3d
       -0.1404691 0.20517865 0.15225841 0.10920189
0003b0 80 9e c3 be a9 61 d1 3e 08 7f 4d 3d cb c6 a9 3c
       -0.38206863 0.4089482 0.050169975 0.020724675
0003c0 2d 67 ad 3d 39 36 1b 3f 05 bc c1 3e c4 bf 16 3f
       0.08466945 0.6062961 0.3783876 0.5888636
0003d0 76 99 3a be 14 e1 fc be 45 69 94 3e fb 01 d5 3d
       -0.18222603 -0.4939047 0.28986564 0.10400768
0003e0 54 48 b0 3d 00 cd 6f 3e 19 f4 87 3b 8e fa cb 3e
       0.086075455 0.23418045 0.0041489718 0.39839596
0003f0 24 41 a2 bc d5 0d 26 be b7 65 3c bd 8e 5f 85 be
       -0.019806452 -0.16216214 -0.04599544 -0.26049465

fc2.0.bias f4 [10]
000000 8e ae cf 3f 64 02 a9 3d 56 b8 ba 3f 50 36 e6 3f
       1.6225145 0.08252409 1.4587505 1.7985325
000010 a8 21 19 c0 e5 bd 16 bf 38 4d 38 c0 0b 85 fa bf
       -2.3926792 -0.58883506 -2.879713 -1.9571851
000020 37 cd 2c c0 ce 2f 41 be
       -2.7000253 -0.18865892
