callbacks/05-23-2022_09-11-57/models/epoch_10.pt (torch, 205087 bytes, 4 tensors)

fc1.0.weight f4 [64, 784]
000000 0a c3 ba 3d 4f 75 8c bd 3f d4 d4 3d d4 10 27 3b
       0.09119232 -0.06858312 0.10392045 0.0025492208
000010 0b 90 bd bc 4e 35 9a bd e8 26 09 bc 74 6e 44 3d
       -0.023139974 -0.07529698 -0.008371092 0.0479569
000020 36 77 81 3c 25 da e2 3c 51 41 ef bd 5a 85 40 bb
       0.015803915 0.02769191 -0.1168238 -0.0029376359
000030 f5 d6 33 3d 18 57 52 3c fe db 03 ba 96 7c 21 3d
       0.04390617 0.012838148 -0.0005030035 0.039425455
000040 5a b2 0e 3d ee 55 ef bc cd be 87 3d e4 d4 ba bc
       0.034838058 -0.02921578 0.06628189 -0.022806592
000050 d3 19 d6 3d 44 c9 a9 3d e1 94 25 3c 6d 93 0a 3d
       0.10454144 0.082903415 0.010106296 0.033832002
000060 40 e4 71 bd dd f8 1a bd a9 fd f5 3c ff 9d 90 3b
       -0.059055567 -0.03783499 0.030028181 0.004413366
000070 c1 1a 8c 3a 1a 4b 48 bd eb c2 2b 3d 56 c0 b3 bd
       0.0010689126 -0.048899747 0.041933935 -0.087769195
000080 e4 cc 69 3c 2e a6 8f bc cb 2c 2f bd bb 6a b4 3d
       0.014270041 -0.017535295 -0.042767327 0.0880942
000090 a8 15 16 3d 2b 73 25 bd 0b e5 00 3e a6 8d c4 3e
       0.036641747 -0.040393036 0.12587373 0.3838932
0000a0 de 18 ec 3e 81 56 5e 3e 3d 21 33 3e 6b 13 49 3c
       0.46112722 0.21712686 0.17493148 0.012272696
0000b0 5f a8 12 be 34 7f bf 3c 01 0d 5e 3e 5a d7 98 3e
       -0.14322041 0.023376085 0.21684648 0.298518
0000c0 cd 56 92 3d 85 6f dd 3d 75 58 ae 3d ab ca bd 3d
       0.07145462 0.10812286 0.085129656 0.092671715
0000d0 d1 a2 e4 3d d3 c2 cf 3c 46 0d 65 3c f3 14 16 3b
       0.11163867 0.025361454 0.013980215 0.002290067
0000e0 e9 1d 67 bc 8d a6 ad 3d 10 ca 97 bd de 1d 0c 3e
       -0.014106252 0.08479033 -0.07411587 0.13683268
0000f0 8b a5 99 3d d6 94 1e bc 59 39 18 3c 30 fd 02 3e
       0.07502278 -0.00967904 0.0092910165 0.12791896
000100 de 73 ae bd 45 5d 68 be 86 b0 b5 be 11 4f 1f be
       -0.08518194 -0.2269183 -0.3548624 -0.15557505
000110 b9 37 37 3d 9a 8e a5 3b 06 f4 d4 3d 14 60 33 bd
       0.044730876 0.0050524 0.10398106 -0.0437928
000120 50 0a a4 bd 12 7f 90 bd 0e 3a 72 bd d5 1c 00 3f
       -0.080097795 -0.07055487 -0.059137397 0.50043994
000130 ea 90 ff 3e 2b 74 e2 3e 68 e4 88 3e ae 6d 6b bd
       0.49915248 0.44229254 0.2673676 -0.057477646
000140 43 46 8b be c6 50 49 bd f3 98 c4 bd 5a a3 e1 ba
       -0.27202043 -0.049149297 -0.09599485 -0.001721482
000150 93 55 ae 3c d8 e1 73 3c 24 6a 28 bd 1f b7 6f 3d
       0.02128104 0.014885388 -0.04111685 0.058524247
000160 9a ae e8 3d dd c7 29 3d 4d 13 14 bb b0 c9 ab bd
       0.113614276 0.04145037 -0.0022594512 -0.08388078
000170 82 ed 69 be 57 37 d1 be 2b 90 74 be 7a 17 9c be
       -0.22844508 -0.40862533 -0.2388312 -0.3048666
000180 d7 60 44 be 87 9a ac be 61 71 8d be 88 93 13 be
       -0.19177566 -0.33711645 -0.27625564 -0.14411747
000190 02 16 ae be 7b 1d d3 bd a5 d8 85 3d 5a 1b b2 3d
       -0.34001166 -0.10308357 0.06535462 0.08696623
0001a0 c5 23 8b 3e 9a ee 38 3e 9e 00 54 3e e1 f0 90 3e
       0.27175727 0.1805977 0.2070336 0.28308776
0001b0 4e 1f 97 bc ee ac 63 bd ad c5 2d 3e ae de 58 bd
       -0.018447544 -0.05558484 0.16969939 -0.05294674
0001c0 18 38 73 3d d6 17 85 bc 7a 2a c9 bd 7a e9 2e 3e
       0.059379667 -0.016246717 -0.09822555 0.17081252
0001d0 fd 48 38 3d a8 6e 26 be f2 99 0e be 94 d0 5c bd
       0.044991482 -0.1625315 -0.13925913 -0.053909853
0001e0 6d f0 82 be 5c 9a 22 be 20 af 54 be 2a 6e 1a be
       -0.25574055 -0.15879196 -0.2076993 -0.15081087
0001f0 99 d6 6c bd 72 5c 33 bc dc d8 48 be 3b 2c e8 bd
       -0.057821844 -0.010947334 -0.19613975 -0.11336561
000200 a4 c6 52 3a cf 64 f7 3d a9 d7 fc 3d 1d 3e 9b 3d
       0.0008040464 0.120797746 0.123458214 0.075802065
000210 6b f8 cd 3d 3d 31 02 3d d1 d8 28 3e 62 4b dd 3e
       0.100571476 0.03178524 0.16488959 0.43221575
000220 98 07 8e 3e aa 8d 15 3e a6 c3 74 3e e2 f2 76 3c
       0.2774017 0.14604822 0.23902759 0.015072556
000230 2c 8e 33 3d 41 10 89 3b 0a ae 96 3d 3b 87 4d bd
       0.043836758 0.004182846 0.07357414 -0.050177794
000240 00 c7 28 be 52 8d 4f be 30 1b 4a be 1b 3a ec bd
       -0.16482162 -0.20268753 -0.19736934 -0.1153452
000250 7b 46 33 be 16 77 38 be 0e 03 8d be 31 22 62 bd
       -0.17507355 -0.18014178 -0.27541393 -0.05520839
000260 1b 95 fc bd 8d 34 11 be cb bb 17 be c0 a4 f3 bd
       -0.12333127 -0.14180203 -0.14817731 -0.11896658
000270 3d 7e ca bd f2 c4 eb bc 3b b5 25 bd 46 e8 55 3e
       -0.09887359 -0.028780434 -0.040456038 0.20889387
000280 c6 d5 87 3d b4 fb 0a be 1c c9 e1 bd 80 f3 f2 3b
       0.06632571 -0.1357258 -0.11024687 0.0074142814
000290 48 34 57 3e 84 c6 d4 3d be a6 84 3e e8 e6 8c 3d
       0.21016037 0.10389426 0.25908464 0.06879979
0002a0 e4 0d 7d 3c 30 51 9c bd 0e df a1 3e fa 73 af bd
       0.015445206 -0.07632673 0.3161549 -0.08567043
0002b0 55 a8 e9 bb 1a aa b1 3e 85 f8 60 3c 8b dd dd bd
       -0.0071306624 0.3470009 0.013731127 -0.108332716
0002c0 00 3c fc bd 58 bf 77 bd 93 10 bb bc 20 6d cf 3c
       -0.123161316 -0.060485214 -0.022835052 0.02532059
0002d0 5c 71 bb bc b5 7b 2b be 01 56 b7 bd 13 fd e5 bd
       -0.022881202 -0.16746409 -0.08951951 -0.11229911
0002e0 ab df 44 be e1 96 f8 3b 35 b7 73 bd c0 fa f7 3d
       -0.19225948 0.0075863455 -0.05950089 0.12108374
0002f0 00 49 53 3d 61 16 01 3d 44 14 5b 3d 18 c3 85 3e
       0.05158329 0.031515483 0.053486124 0.26125407
000300 8a ae a4 3e 9d e9 0e 3f eb f3 93 3e 94 5f d1 3d
       0.32164413 0.55825216 0.28897032 0.10223308
000310 e0 38 d8 bc 8b ed 7b be 77 69 68 3e 84 07 e8 3c
       -0.026394308 -0.24602334 0.22696482 0.028323896
000320 3e 53 7d 3e 93 ec 20 3e 59 b6 12 bd 7b 22 98 bd
       0.24738786 0.15715246 -0.03581843 -0.07428452
000330 b0 5d 33 be 92 9b 50 3e 84 1c cc 3d 5d f9 89 3d
       -0.17516208 0.20371845 0.099663764 0.067370154
000340 ab 81 a7 3d 32 8c a1 bd 90 b2 30 bb be ff 23 3c
       0.08179029 -0.07888068 -0.00269619 0.010009704
000350 71 4b 6f 3d 8d 50 87 3d 35 fa 06 bd 54 6a 0e bd
       0.058421556 0.06607161 -0.03295346 -0.03476937
000360 0b 5b c8 3d 6f 5f 03 bd 57 49 41 3d 47 5c 79 3e
       0.0978299 -0.032073434 0.047189083 0.24351607
000370 00 28 0b 3f 46 43 48 3f 74 81 f7 3e 06 88 e9 3d
       0.5435791 0.7822765 0.48340952 0.114028975
000380 1c b0 36 3e 2b e6 f2 bb 95 93 42 3e bf bf 59 3e
       0.17840618 -0.007412692 0.1900161 0.21264552
000390 6b ec 29 3e df dd 6d bd cf 6f 7d bd de da ee 3c
       0.16594093 -0.05807292 -0.061874207 0.029157098
0003a0 fa 01 72 be 0f 51 14 3e 7c 20 8f 3c 1a 27 85 3d
       -0.23633566 0.14484046 0.017471544 0.06501599
0003b0 09 88 fc 3d 2a 3a 20 3d e1 e0 db 3d 96 5b dd 3d
       0.12330634 0.03911797 0.107362516 0.10808484
0003c0 61 ce 1c 3e 69 2c f1 3d f5 eb d9 3d ba de 87 3d
       0.15313102 0.11776049 0.10640708 0.066342786
0003d0 46 73 48 3e d8 f6 3e 3e f8 1c 5f 3a db f9 dd 3d
       0.19575223 0.18648851 0.00085110916 0.10838672
0003e0 59 cd 68 3f b1 11 5e 3f cc 5f da 3e eb 0b 42 3e
       0.90938336 0.86745745 0.42651212 0.18949859
0003f0 8f d6 4c bc 17 5b e2 3d 00 5c 03 3e 3f 38 05 be
       -0.012502327 0.1105253 0.12828064 -0.13009737

fc1.0.bias f4 [64]
000000 d0 da 23 3f 3e 47 98 bf 85 b2 30 40 59 1c ca 3f
       0.64005756 -1.1896741 2.760896 1.5789901
000010 37 87 a2 3f 92 51 0f 40 f2 ab 89 3f c4 12 f0 bc
       1.2697514 2.2393537 1.0755599 -0.029305823
000020 b7 a8 bf bf ba ac 98 3f e2 ab 55 3e bd a9 25 bf
       -1.4973363 1.1927712 0.2086635 -0.64712125
000030 92 9a f4 bf 5c f2 af bf e9 1b 29 3f 90 75 05 40
       -1.9109671 -1.3745837 0.6605821 2.0853004
000040 29 32 31 be 7a f4 77 40 f5 09 11 bf 6c ac 96 3f
       -0.17304291 3.8742967 -0.5665582 1.1771369
000050 e4 bc 24 c0 de 98 40 40 b8 6c 3e bd 7c 34 8c bf
       -2.574029 3.0093303 -0.0464904 -1.0953517
000060 4a 35 67 3e 23 4c 2b 3f 5a 00 5d 3e fa 9b d6 bf
       0.22578922 0.6691305 0.21582165 -1.676635
000070 bf f5 3a 3f 25 33 13 bf 17 8c 7c 3f 49 d0 8c bf
       0.7303123 -0.57499915 0.9865126 -1.1001064
000080 67 24 54 be 6a a7 d5 bd 55 91 dc 3e 89 10 c8 3f
       -0.20717011 -0.10432322 0.4307963 1.5630046
000090 fe 44 09 bf 79 cd 9a 3f e6 ee b6 3e 91 1f 0f 3e
       -0.536209 1.2093955 0.3572914 0.13976885
0000a0 fa 5b 29 c0 9d ea 5f 3f 89 fe 1b c0 ce d4 03 c0
       -2.6462388 0.87467366 -2.4374106 -2.0598636
0000b0 49 aa e3 3e f9 7f e1 bf ce 73 80 bf c0 d3 85 3f
       0.44465855 -1.7617179 -1.0035341 1.0455246
0000c0 e9 1d 21 c0 de 1d 95 3e 0f 46 95 3e d3 93 87 bf
       -2.5174506 0.2912435 0.29155013 -1.0591987
0000d0 21 f8 74 be 5b de d2 be a5 12 9a bb cb dd 70 3f
       -0.23922779 -0.4118527 -0.0047019296 0.9408843
0000e0 31 95 af bf f1 53 95 3f a4 c4 62 3e d0 e8 0b 3f
       -1.3717405 1.1666242 0.22145325 0.5465212
0000f0 cc 35 f5 bf fc 7d 99 be 4f e0 0f c0 41 50 d5 bf
       -1.9157043 -0.2997893 -2.2480657 -1.6665117

fc2.0.weight f4 [10, 64]
000000 a2 7a ad 3d bb 23 cc bd 31 89 6c bf a1 3d 85 bf
       0.08470656 -0.099677525 -0.9239684 -1.0409433
000010 bf 90 fa 3e 7d 20 ae bf f4 f0 fa bc 48 be b6 3e
       0.48938558 -1.3603665 -0.030632474 0.35692048
000020 8c 3d 4c bd 79 ac d2 3e d0 9d 04 3f 9e 5a 05 bf
       -0.049863383 0.4114721 0.518033 -0.52091396
000030 2e 95 e7 3d 8b f1 3c be 99 9d 0a 3f 3c f3 bf be
       0.11307751 -0.18451516 0.54146725 -0.3749026
000040 08 aa a4 3e d5 eb 0d 3f c4 59 8e 3d cd 84 6c be
       0.32160974 0.55437976 0.06950715 -0.23097534
000050 99 66 2a bb 98 72 8b be 58 1d 17 bf 0a ed a1 3d
       -0.0026001094 -0.27235866 -0.5902915 0.0790654
000060 53 d9 94 bf a0 d4 70 3e 7f 87 1a 3d a0 74 27 be
       -1.1628822 0.2351861 0.037726875 -0.16353083
000070 3a fb 81 bd 33 9e 47 bd e0 29 00 3e d3 22 61 bf
       -0.06346746 -0.048734855 0.12515974 -0.8794376
000080 d2 9a f4 be cc 6d f8 bc 14 72 c8 3d 09 c3 95 bd
       -0.4777437 -0.030325793 0.09787384 -0.07312591
000090 99 df 3e 3e 09 6f bc 3e 19 a8 1c be 6a 6e c8 3e
       0.18639983 0.36803463 -0.15298499 0.3914674
0000a0 82 73 40 be cb 72 7f be 7d 89 07 be 06 87 61 3e
       -0.18794063 -0.24946134 -0.13236041 0.22024164
0000b0 84 09 85 3d 89 55 6e bf b9 92 06 3d 22 56 2a bf
       0.064959556 -0.93099266 0.03285477 -0.6653768
0000c0 82 94 0f bf d6 97 5c 3d 59 b8 58 bf 7c 34 d8 be
       -0.5608598 0.05385574 -0.8465629 -0.42227542
0000d0 9f 8c af 3c 90 87 12 bf 6b fc 7f bf 3a 9e 7b bf
       0.021429358 -0.572381 -0.99994534 -0.9828831
0000e0 f4 13 31 be 01 cb b3 3e 41 28 4f 3e d0 ee 86 bf
       -0.17292768 0.35115817 0.202302 -1.054163
0000f0 b0 f6 23 3d c1 48 86 bf f3 1d 99 3d a6 af c0 bd
       0.04003018 -1.0490953 0.074764155 -0.09408502
000100 b0 ec fc bd e4 6c 43 3f 93 a3 98 3e 2b 17 9c 3e
       -0.12349832 0.7633803 0.29812297 0.30486426
000110 4a c7 b0 bf 51 a9 90 3c 83 eb 35 be 98 51 dd 3d
       -1.3810818 0.017658861 -0.17765622 0.108065784
000120 b7 10 aa 3d e2 6e 2f 3f bd e2 c8 3e 4b 95 94 bd
       0.08303969 0.6852857 0.39235488 -0.07255038
000130 78 5b 52 3e c1 1f 60 3e 44 37 c3 3b 2e be 27 3e
       0.20542705 0.21887113 0.005957516 0.16381142
000140 96 fa e9 be 37 23 0c 3f f3 4f 8f bb 40 60 90 3e
       -0.45698994 0.54741234 -0.0043735444 0.28198433
000150 b4 52 b5 3e d2 b0 2c 3e b5 03 a2 3e 83 a4 86 3c
       0.3541466 0.16864327 0.31643453 0.016435867
000160 57 4b 7d bf 89 1c 96 3e b4 22 9e bf c0 73 93 bd
       -0.98943084 0.29318646 -1.235434 -0.07199812
000170 d3 ef 66 bf 7c ea 86 3e 80 29 3f bd b5 7f 79 3e
       -0.9020969 0.26350772 -0.046670437 0.24365123
000180 2c e4 92 3d ec e9 4c 3e 40 77 14 bf 83 48 50 3e
       0.071724266 0.20011109 -0.5799446 0.20340161
000190 52 44 46 bf 8e 64 bd 3e 30 8f 50 bf 50 29 0d be
       -0.77448 0.3699078 -0.81468487 -0.1378529
0001a0 d5 ff 53 3e 4e bd fa 3e d2 f9 25 3d 46 a1 a5 bd
       0.20703061 0.48972553 0.04052145 -0.08087401
0001b0 9f 40 fd bd 7c 54 1a bf 92 a2 53 bf 42 6f 55 be
       -0.12365841 -0.6028516 -0.8266994 -0.20843223
0001c0 e3 ef 0d bd 79 c7 36 3f f0 ca 62 3f b5 7f 98 be
       -0.034652602 0.7139812 0.8859091 -0.29784933
0001d0 10 80 a7 bf ac 56 51 3f 36 e8 4c bf 6e 61 39 3e
       -1.3085957 0.81772876 -0.80041826 0.18103573
0001e0 64 dc 99 bf a0 18 85 bf ec 45 65 bf 93 b6 0a 3e
       -1.2020383 -1.039814 -0.8955982 0.13546209
0001f0 75 72 d1 bd f6 ef 8d be 26 b4 b9 3d 9a a6 26 be
       -0.10226909 -0.27722138 0.09067564 -0.16274491
000200 79 8e b1 bf 23 64 4c 3f 61 19 2e 3d 76 a5 e7 3e
       -1.3871604 0.79840297 0.042504672 0.45243424
000210 01 ed 04 3f 2d c1 1a 3c 38 46 49 3e bf ac bb 3e
       0.5192414 0.009445471 0.19655693 0.36655232
000220 96 f2 47 be 12 ce bb 3e f6 c5 f2 3e d9 24 b7 be
       -0.19526133 0.36680657 0.47416657 -0.357703
000230 ed 2e be 3d 67 df 3c 3d 65 c1 f2 bd 7d 0d 10 3f
       0.09286294 0.04611149 -0.11853293 0.5627058
000240 51 d0 4a bf 27 4d c6 3e 51 be fd bd 8c ae 21 3e
       -0.79224116 0.38730738 -0.123898156 0.1578924
000250 10 49 ef bd 84 00 20 bf d4 ae 4d 3e 71 22 e5 3d
       -0.116838574 -0.62500787 0.20086223 0.1118821
000260 4f af fe be 09 bf 9f 3e 8f 3e 74 be ae b9 67 3e
       -0.49743125 0.31200436 -0.23851989 0.22629425
000270 b2 be b6 3e 88 07 8d 3e e9 bc ba bf 06 fa ac 3e
       0.35692364 0.27544808 -1.4588901 0.33784503
000280 03 97 3f be dd 4a ed 3c 94 24 18 bf 38 b0 0e bf
       -0.1870995 0.028966362 -0.59430814 -0.5573764
000290 73 51 56 bf 9a 8a 7a bf 3f b1 5a bd 7f c3 cb 3d
       -0.8371803 -0.9786774 -0.05339169 0.09949397
0002a0 2a da b9 3d 4b ec 0f 3f a8 ec 96 3e 08 5e 2c 3e
       0.090748146 0.5621993 0.2947743 0.16832745
0002b0 6b cd 1d 3f dc 0b a8 3e 3d 98 8f bf be d2 d8 bd
       0.6164157 0.32821548 -1.1218334 -0.10587071
0002c0 ef 97 8e 3d d7 9b 15 bf eb d8 cd be 0d ea be be
       0.06962573 -0.5844092 -0.40204558 -0.37287942
0002d0 cb 86 7e bd 89 35 82 be 77 64 d6 bd 7d fb b6 3d
       -0.062140267 -0.2543147 -0.10468381 0.08934686
0002e0 56 26 97 bf aa 46 ba 3e e2 a9 50 3e 33 03 2d 3e
       -1.1808574 0.36382037 0.20377305 0.16895752
0002f0 ae dd 2f be 15 8d c7 be fe 47 f7 3e 9c 5a 14 3e
       -0.17174408 -0.38974825 0.48297113 0.1448769
000300 fe a6 a6 bd 82 52 0f 3f bb c5 37 3e 52 b1 14 bf
       -0.0813732 0.5598527 0.17946522 -0.5808307
000310 04 72 a1 3e 9e 96 3e be f8 41 d0 be 77 b2 59 3e
       0.315323 -0.18612143 -0.4067533 0.21259485
000320 97 1c 10 be af 75 0d bf 4a 3a b8 3e ae 9d 63 3f
       -0.14073406 -0.55257696 0.3598197 0.88912475
000330 7e 2e b7 3d 3d b7 57 3b 10 14 af 3e 9d 36 02 be
       0.089444146 0.0032915615 0.34194994 -0.12716146
000340 58 15 35 3f 9e fc c7 be be aa 22 3e c2 e6 28 3e
       0.7073569 -0.3905992 0.15885445 0.16494277
000350 a2 c5 d6 3d 94 f8 2b 3d f7 4f 97 3e c2 0c 71 bd
       0.10486914 0.04198511 0.29553196 -0.058850057
000360 b1 91 5d 3f 2c 6d 60 bf 08 69 47 bf f6 48 19 be
       0.8655043 -0.87666583 -0.7789464 -0.14969239
000370 6f 70 24 bf 04 16 56 bd d4 ce 0f be 17 2e 50 be
       -0.6423406 -0.05226709 -0.14043742 -0.20330082
000380 05 bf 93 bf d3 ca 26 3e e4 a5 f4 bc 11 ab 72 3d
       -1.154267 0.16288309 -0.029864259 0.059245173
000390 80 8d 8b 3d db 6a 20 be bc 6c c1 bf a2 ce bc be
       0.06814098 -0.15665762 -1.5111308 -0.36876398
0003a0 22 d7 0f be 75 87 ca 3e a1 e9 1b 3e 3e a5 df 3d
       -0.1404691 0.3955647 0.15225841 0.10920189
0003b0 4c a9 ee be 12 f3 21 3f 7e 0c f5 bc 9f 23 b4 3d
       -0.46613538 0.6326152 -0.029913183 0.08795857
0003c0 2d 67 ad 3d f3 b9 26 3f f7 0c f0 3e 3f 8c 1d 3f
       0.08466945 0.65127486 0.4688489 0.61542124
0003d0 81 d6 57 be 83 cd 36 bf 9a b0 b9 3e 28 be 09 3e
       -0.2107792 -0.71407336 0.3626755 0.13451445
0003e0 95 80 56 3d 84 44 80 3e 58 6b b2 bd e0 64 07 3f
       0.05236872 0.25052273 -0.087118804 0.528883
0003f0 24 41 a2 bc d2 8b c1 bd b7 65 3c bd 8e 5f 85 be
       -0.019806452 -0.09450497 -0.04599544 -0.26049465

fc2.0.bias f4 [10]
000000 54 0c d4 3f f7 8b 29 bc d3 d6 bd 3f 73 ee cd 3f
       1.6566262 -0.010348312 1.4831184 1.6088394
000010 d8 b3 1b c0 0a cf 1a bf 3f f7 37 c0 a8 5e fe bf
       -2.4328518 -0.60472167 -2.8744657 -1.9872637
000020 11 21 1e c0 90 f5 80 be
       -2.4707682 -0.2518735
