callbacks/05-23-2022_09-05-31/models/epoch_1.pt (torch, 205087 bytes, 4 tensors)

fc1.0.weight f4 [64, 784]
00000000: 2e36 4dbc 72fa ae3c 0d96 0dbd 348a 103c
00000010: 3355 d3bc 3541 e9bc 4e5e c5bc c46d 543c
00000020: 3e21 a73c 8045 583a b8c1 4fbc e29a e73c
00000030: 8738 17bd 4b20 b6bc b8cc 253c 68d2 ac3c
00000040: bc37 d9bc f097 d63b 55f7 053d f318 113d
00000050: dfe2 093d d73f 98bc ae5f 993c 584c abbc
00000060: 40ad dc3b a04b f83b 2b24 013d 14b9 5a3c
00000070: 6a45 f43c 3012 05bb 9c6e aebb abe9 07bd
00000080: e7b7 bdba 2e47 afbc 6022 583c 5258 02bd
00000090: e46b 8d3c d21a 423d ef41 31bb 24c8 753d
000000a0: 9a27 c03d 4845 7f3c 197f 873c 8a49 bbbc
000000b0: 0b23 9abd e1a0 d1bd a9b2 8fbd 185e d9bc
000000c0: 1c6b e2bc 5089 40bc 17b4 37bd 43c0 c33b
000000d0: dc08 fabb ea04 963c 2a3f 58bc 3faf 0b3d
000000e0: 08c6 683c 800a 39bb 4634 f03c fb52 94bc
000000f0: 0a25 9abb 4546 01bd 3bfb a23d c392 0c3d
00000100: 129e 893c 8fd8 253c 7a03 093c 84d9 dabb
00000110: ef15 8dbd ff33 0abd 596f 673c f992 63bd
00000120: f2f4 8ebc 4d2a a0bd bfad 66bd 2377 84bc
00000130: e434 04bd 8986 92bc c94d 9fbc 1f62 98bd
00000140: 87b1 e8bd 075c 0abd 0094 ac39 411b e7bc
00000150: 28ff 8d3c c543 123d 1e69 8d3c 6c4b 14bd
00000160: 0853 b0bc f055 27bd 5926 2ebc 7442 61bd
00000170: e31b a2bd c815 babd 084b e3bd 9028 10be
00000180: e0cd ccbd 4048 0ebe 246d c5bd 4510 ecbd
00000190: 16ff a9bd e1f1 8cbd b92d cfbd 1648 09bd
000001a0: 4802 5bbd a6d2 613d f0cd b53d 80df e83c
000001b0: 8114 debb 482a 91bd 5bb8 d539 b287 a93c
000001c0: c880 bc3c d066 9fbb 450f 6fbd 84f6 9e3a
000001d0: 89ac eabb b541 90bc 69f5 36bd 05ee b7bd
000001e0: 2ad5 bdbd a04a 20be 7d1c 04be b41a 08be
000001f0: a714 e9bd e4e4 07be eca1 b6bd b0f2 9dbc
00000200: c130 a3bd 44d1 81bc 9daa 08bd 9ece 403d
00000210: 91db 123d 85de 9f3d 6bc8 ec3d 6394 1c3e
00000220: f2ba d63d b613 733c 62df 18bd b2b2 15bd
00000230: 8058 e4b9 5c65 efbb 1bbc 6fbc d843 4cbd
00000240: a29d eabc 9455 eebc 30c7 bebd 94f3 e9bd
00000250: 8b46 27be 7644 0bbe f129 39be 5170 e7bd
00000260: 7984 06be ca4e f6bd 3b10 85bd 199c abbd
00000270: b384 acbd 02db 06bd 2a5e 1cbd 0b30 b13b
00000280: 10ec 4f3c 80c1 223d 6dd3 943d 501f e63d
00000290: ee63 9b3d 85b5 33bc 37fd 983c 9bfd 65b8
000002a0: 9315 e7bc 9c2a 09bd 6fee 35bc 0c8b 84bd
000002b0: dc4a 8abd 7e86 88bd 2e85 6dbd 0bd6 d7bd
000002c0: 193f 0cbe 89e5 e1bd b0cb e7bd 48da adbd
000002d0: 94d2 85bd 4a1d 3bbc 2f95 1f3d af32 633d
000002e0: e3ea 423d dcfa 123d 668a bb3c dffe 693c
000002f0: c8ac 8a3d cecc 893c 0336 8d3d 6120 de3d
00000300: 1c29 d03d a26e 963d 9702 8b3d f8c5 763b
00000310: e732 753c e5dc 1dbb 1a2c d8bb 2c92 97bd
00000320: 6e98 33bd 2f47 34bd 397e a8bd ed99 acbd
00000330: 88b1 d6bd fdaf b8bd 550a 1cbd 3036 d1bc
00000340: 3b9f 693c 7fcd 903d 92c2 e03d e493 173e
00000350: 978f e73d 0197 093e 5775 8c3d 2dd0 be3c
00000360: c125 af3c 7017 943c 8d69 873b 6f41 8b3d
00000370: 6799 453e d369 f03d 619b 723d 1536 efbc
00000380: 6cbb a7bb 5596 1cbd 667e 0fbd d941 7abd
00000390: d600 52bd 9cbe 62bc 59be 8abd 5da7 c2bd
000003a0: 3507 0abd 7d56 3fbd c87a ac3a 2f37 113c
000003b0: e01f cd3c acc7 8c3d 9e6d c73d 19f4 ea3d
000003c0: b88c b13d af60 d83d 0f3d d13c 846b 553d
000003d0: a439 2fbc 917c 173a 4f01 c23c c207 dd3d
000003e0: c858 713e 56f9 0b3e 4909 a93c 8307 4dbd
000003f0: 5b71 083d 71b7 36ba 1a56 2bbd b7df 96bc
-0.0125251245 0.021359656 -0.034566928 0.008822013 -0.025797462 -0.028473476 -0.02409282 0.012965623
0.020401593 0.00082501024 -0.0126804635 0.028272096 -0.036919143 -0.022232195 0.01011961 0.021096423
-0.026515834 0.006548874 0.032706577 0.035424184 0.033663627 -0.018585129 0.018722381 -0.020910427
0.00673452 0.0075773746 0.031528633 0.01334979 0.029818255 -0.002030503 -0.0053232443 -0.033181828
-0.0014474363 -0.021396246 0.013191789 -0.03182251 0.01726336 0.04738886 -0.0027047356 0.060005322
0.093825534 0.015580483 0.016540097 -0.022862215 -0.07526215 -0.10235763 -0.070164986 -0.026534125
-0.027638964 -0.011751488 -0.04484948 0.005973847 -0.0076304507 0.01831289 -0.013198653 0.034102675
0.014207371 -0.0028235018 0.0293218 -0.018105974 -0.0047041224 -0.031561155 0.07958075 0.03431965
0.016799007 0.010122432 0.008362645 -0.006678762 -0.06888949 -0.033740994 0.014125668 -0.055560086
-0.017450783 -0.07820568 -0.05631804 -0.01617009 -0.032277003 -0.017886417 -0.01944627 -0.0744059
-0.11361986 -0.03377917 0.00032916665 -0.028211238 0.017333582 0.03570916 0.017262038 -0.03620474
-0.021523967 -0.04085344 -0.01062926 -0.054995015 -0.07915475 -0.09086186 -0.110982955 -0.14077973
-0.10000205 -0.13894749 -0.096399575 -0.11526541 -0.08300607 -0.06882072 -0.10116143 -0.033516012
-0.053468972 0.05513253 0.0887717 0.028426886 -0.0067773466 -0.07088143 0.0004076388 0.020694587
0.023010626 -0.004864551 -0.05836417 0.0012127911 -0.007161681 -0.017609457 -0.044667635 -0.089809455
-0.092691734 -0.15653467 -0.12901492 -0.13291436 -0.11380892 -0.13270909 -0.08917603 -0.019280761
-0.079682834 -0.015846856 -0.033365835 0.047072046 0.035853926 0.07806114 0.11561664 0.1529098
0.10484876 0.014836242 -0.03732241 -0.03654737 -0.00043553486 -0.007305784 -0.01463225 -0.04986939
-0.028639618 -0.029093541 -0.09315336 -0.11423412 -0.16335504 -0.13600335 -0.18082406 -0.113007195
-0.13136472 -0.120267466 -0.06497236 -0.08379383 -0.08423748 -0.032923706 -0.03817574 0.0054073385
0.012690559 0.039735317 0.07266889 0.11236441 0.075874195 -0.010968571 0.01867543 -5.4834043e-05
-0.02820853 -0.0334879 -0.01110421 -0.064718336 -0.067525595 -0.06666277 -0.05798834 -0.10538872
-0.13695945 -0.110301085 -0.11318147 -0.084888995 -0.06534305 -0.011420557 0.038960632 0.055468258
0.047587287 0.03588377 0.022893142 0.014281957 0.06771237 0.016821291 0.068950675 0.108460195
0.10164091 0.0734532 0.06787603 0.003765462 0.014965749 -0.0024087962 -0.006597054 -0.07400927
-0.04384654 -0.0440132 -0.082272 -0.084277965 -0.1048308 -0.09017942 -0.03809579 -0.025538534
0.014259155 0.07070445 0.10974611 0.1480251 0.113066845 0.1343651 0.06858318 0.023292625
0.021380307 0.018077582 0.0041324557 0.0679959 0.192968 0.11738934 0.059230212 -0.029200593
-0.005118778 -0.038229305 -0.035032652 -0.061097953 -0.05127033 -0.01383939 -0.06774587 -0.09504578
-0.03369828 -0.04671334 0.001315915 0.008863254 0.025039613 0.06874022 0.09737705 0.11472339
0.08669418 0.10565316 0.02554181 0.052104488 -0.010694895 0.0005778755 0.023682265 0.10792495
0.23569024 0.13669333 0.02063431 -0.05005599 0.03331123 -0.0006970084 -0.04183016 -0.018417222

fc1.0.bias f4 [64]
00000000: 8bb8 fb3d 9cbb f63c 2123 f13d 3a8e e83d
00000010: 2d6c 643d 10bc 1d3e 1fa8 573d 02a8 d23d
00000020: ae51 d93d 2cfd ed3d 3cee cd3d c17a d1bd
00000030: 929a 1d3d 5afd 1bbd e3c6 c0bd 1fd8 a2bd
00000040: 7d8e 1a3e a5b0 f4bc 1b2d a2bc 7e89 91bd
00000050: c947 37bd 786f 68bd e20f 4d3e 863e 5c3d
00000060: f9f2 b5bc 250e 1abd 2788 283c bc72 2b3c
00000070: 4a2b d43d ec6f ad3c d3d9 1e3d 5c7e 2c3e
00000080: 55a3 553e 23e5 d7bd 4dd1 223e f3b6 c43d
00000090: 6247 243e bbe3 6a3d c920 623d 0519 bbbd
000000a0: a8c0 1abd ff82 4dbd 7f68 0a3d 8e3e acbd
000000b0: 8735 b13d 0938 233d 2edc 2cbc 92d0 4d3c
000000c0: e502 1c3e f9a3 cb3d 8a14 ba3d ba84 223e
000000d0: 6e23 fc3d de8a 3c3d 2f45 2d3d 1642 243e
000000e0: d3f2 613b e244 cd3c 5838 123d 02ce 543e
000000f0: 6e26 253d 6b28 d03d 0c3f 0dbc 09ca 0e3e
0.12291058 0.030118756 0.117742784 0.113552526 0.055767227 0.15403771 0.052650567 0.10285951
0.10611282 0.11620554 0.10055205 -0.102284916 0.038477488 -0.03808341 -0.09412935 -0.07951378
0.15093417 -0.029869387 -0.019796899 -0.07106303 -0.044746194 -0.05674693 0.2002559 0.053770564
-0.022210585 -0.037611146 0.0102863675 0.0104643665 0.10359819 0.021171533 0.038781952 0.16845077
0.20863087 -0.10541751 0.15900154 0.09605207 0.16042855 0.057346087 0.055207048 -0.091356315
-0.037781388 -0.050173756 0.03379106 -0.08410369 0.08652788 0.03984836 -0.010550542 0.012561934
0.15235479 0.09943385 0.09085949 0.15870944 0.12311445 0.04603087 0.042302307 0.16040835
0.003447701 0.02505726 0.035698265 0.2078171 0.040319853 0.10163959 -0.008620989 0.13944258

fc2.0.weight f4 [10, 64]
00000000: a312 d23d 3139 403d 86ce 39be 58b7 533e
00000010: 31a6 cabe dce0 063c 2437 76be 6ce5 0bbe
00000020: 92bf adbe dcff e43d 50ca 0e3e d41f 933e
00000030: c956 adbd 2954 9d3c 3c35 88be 9fb4 8e3d
00000040: 1233 febd 3a3e e03d fadd 783c 4c43 abbd
00000050: f094 75be c4b8 5dbe 2cb6 d2bd 7056 ce3d
00000060: 58b8 24be b6a1 1c3e bea1 cfbd 2e62 d83d
00000070: a5a1 0cbe f33f 4ebe 6a74 fb3d 15c6 2d3e
00000080: 7703 c4be 2bdb 243d fa16 2bbe fbcd 513e
00000090: 3fb8 abbe dea6 4bbe 82ad c03d ba21 6cbd
000000a0: a41e 073e 04d5 c2be 726f 243e a231 0f3e
000000b0: 470e b4be 79da dabd 6769 9ebe 0eec 8f3d
000000c0: e84b 093e bc5a 353e 1f95 8bbe de55 acbe
000000d0: ac1b 7ebd a853 7ebe 0b8e 303e dfe6 dc3c
000000e0: 9de4 db3d 735b 023d 36c6 393c 4389 0bbe
000000f0: ccda 443e 405a 163e d89e e2bd f386 a7be
00000100: 4b59 d43d fc00 cfbe 5bda a5be d887 ef3d
00000110: 201d e63d 262b 9f3d 3b6c 64bd d525 423e
00000120: 588a 18be f4d5 d03d 6022 cebe 8194 8abe
00000130: 1328 953d c9bf dbbe a22f afbd d47b b13d
00000140: 3989 273e 59c1 703d bc1e f73b b31f 96be
00000150: cbf9 403e 31d1 db3d f4a9 dc3d 426d 0c3c
00000160: 792e 9b3b f395 2abe 2e49 403e 7d10 96bd
00000170: a386 dd3d 37fe 87be 23ec d0be ecae e13d
00000180: 81a6 203e 85b8 dabe a1d6 7b3e 5eab 88be
00000190: 1f28 f73d 388d 9cbe 7221 ea3d 6f36 2f3e
000001a0: b21f f0be fcda f33d 177d dd3c f4b1 c9be
000001b0: 576a b13d c4ba b0be 9e25 273d 4c62 cebc
000001c0: 2687 fa3d 07dd c0be 918c 63be 7ec0 213e
000001d0: 8f37 5c3e 48d5 253e 2bbe ebbe e148 6a3e
000001e0: 8124 353e a1c9 b4be a90b ddbe 7557 dd3d
000001f0: b27e edbe cc86 e93c af59 30bb e67b 1a3e
00000200: 4f62 afbe 9da7 d03d 484f 6a3d 7ba7 313e
00000210: 7f68 2e3e 4991 753e 4c3a 373d 2de7 0abf
00000220: 94d8 0bbc f2b3 87be 4ee1 a63d 673b a2bb
00000230: 2bc3 5d3e c346 9a3d 33f2 013e 1ef4 bdbe
00000240: d7d2 b6be ae67 253e 1d32 c63d c87d 4b3e
00000250: dc8b 683e 3935 1e3e 39b7 cfbe c136 e63d
00000260: 2e70 d43d e130 173e eeb8 04be c5ac b13d
00000270: 99a4 3b3e 3c22 99be 3322 913d c4f2 093e
00000280: c3d3 44be e3c1 99bd 0a6d f6be 7d99 74be
00000290: 863f aebc 0381 23be 4485 d73d d029 92be
000002a0: 246a 2b3c 36ee 02be 8518 a93d 2aae 20be
000002b0: 9c18 bcbe ac63 743e 4eb1 3a3e 65e7 0d3d
000002c0: 6234 ff3d 4b5e 12be b988 3a3e 87c4 62be
000002d0: 8b82 813e 5f9f 5bbe 7335 e7bd 24dc 853e
000002e0: 2adf 583e a079 a6be ddea 8abb 56d2 143e
000002f0: eaea 02be 946d 523e 6600 25bd a0ea da3d
00000300: a1f2 66bd 57bf 82bd 44b0 90bd 6d08 21be
00000310: 1ab2 f83c 6681 293d 9627 f1bd 4065 cabd
00000320: d981 4c3d c165 a0bd a397 0abe c719 7bbd
00000330: b169 7b3d f689 1b3d 4882 ddbd 3963 9f3d
00000340: acb7 fabd f689 26be 66dd c1bd 4770 663c
00000350: 02c5 6b3d b4f3 823d c517 ffbd 2f9d 04be
00000360: 0a03 c7bd ecc3 0ebe c932 1bbc 428f ce3d
00000370: fefb 143b ccec 413d 740c 003d f3fc 4bbd
00000380: 198e 47bd f5e8 88bd bc43 ecbd 7a43 d8bd
00000390: 417d 88bd 45cd a43d 243d 3a3d 8dc0 4d3c
000003a0: 072e 3dbd fb3f c93c fd5a ee3b 0732 00be
000003b0: aa86 ffbd 6f29 7dbd 2ca1 d4bd 0062 68bc
000003c0: 2340 b9bd 3160 963d 10c1 da3d 3306 c03d
000003d0: 6755 05be 933e e4bc 3e73 c13d 4962 0ebe
000003e0: dc8b e5bc a645 2bbd fc48 0ebe a2dd d3bb
000003f0: f9a9 12be eb12 b9bd 9a9b a7bd 9fc3 4bbd
0.10257461 0.046929542 -0.18145189 0.20675409 -0.3957992 0.008232322 -0.24044472 -0.13661736
-0.3393522 0.11181614 0.13944364 0.2873522 -0.084638186 0.01920517 -0.26603115 0.069680445
-0.12412085 0.10949369 0.015189642 -0.08362445 -0.23982596 -0.21652514 -0.10288653 0.100750804
-0.16085947 0.15296063 -0.10138272 0.10565601 -0.13733537 -0.20141582 0.122780636 0.16970094
-0.38283893 0.040248077 -0.16707984 0.20488732 -0.33539006 -0.19887874 0.09408094 -0.05764935
0.13195282 -0.38053143 0.16058138 0.13983777 -0.35167143 -0.106862016 -0.3093979 0.07027446
0.13407862 0.17710394 -0.27262208 -0.3365926 -0.06203811 -0.248366 0.17241685 0.026965557
0.10736964 0.031825494 0.011338761 -0.1362658 0.1922409 0.14682865 -0.11065453 -0.32720146
0.10368594 -0.4043044 -0.32393155 0.11695832 0.11236024 0.07771902 -0.05576728 0.18959744
-0.14896524 0.10197058 -0.402606 -0.27066424 0.07283034 -0.42919758 -0.08554007 0.086661965
0.1636094 0.05877814 0.0075415056 -0.2932106 0.18845288 0.107332595 0.107746035 0.008570971
0.0047357646 -0.16658764 0.18777916 -0.07327364 0.108166955 -0.26561138 -0.40805158 0.11019692
0.15688516 -0.42718902 0.24593593 -0.26693243 0.12068199 -0.3057649 0.114321604 0.17110609
-0.46899182 0.11907002 0.027037187 -0.3939358 0.08662861 -0.3451749 0.04080736 -0.025193356
0.12232809 -0.3766863 -0.2222159 0.15796086 0.21505569 0.16194642 -0.46043524 0.22879364
0.17689706 -0.3531008 -0.43172958 0.10807697 -0.46385723 0.028506659 -0.0026908924 0.15086326
-0.3425469 0.1018822 0.057204515 0.17349045 0.1703205 0.23981203 0.04473333 -0.54258996
-0.008535523 -0.26504475 0.08148442 -0.004950929 0.21656482 0.07533028 0.12690048 -0.3710031
-0.35707733 0.16152832 0.09677527 0.198722 0.22709602 0.1544999 -0.40569475 0.11240912
0.10372959 0.1476474 -0.1296117 0.08675531 0.18324508 -0.2990893 0.07086601 0.13471514
-0.19221406 -0.07507684 -0.48130065 -0.23886676 -0.021270525 -0.15967183 0.10523465 -0.28547525
0.010462318 -0.12786183 0.0825663 -0.15691438 -0.36737525 0.23866147 0.18231699 0.034644503
0.12461163 -0.14293782 0.18216218 -0.22145282 0.2529491 -0.21447514 -0.112894915 0.26144516
0.2117888 -0.32514668 -0.0042394237 0.14533362 -0.12784925 0.20549613 -0.040283583 0.106892824
-0.056383733 -0.063841514 -0.0706487 -0.1572587 0.030358363 0.04138317 -0.117751285 -0.09882593
0.04992852 -0.07831908 -0.13534407 -0.06130388 0.061380092 0.037973367 -0.10815865 0.07782597
-0.12242064 -0.16263565 -0.094660565 0.014064855 0.05756093 0.06394139 -0.124557056 -0.12950586
-0.097173765 -0.13941926 -0.009472557 0.10085918 0.0022733207 0.047344968 0.031261876 -0.049801778
-0.0487195 -0.06685058 -0.11536357 -0.10559745 -0.06664515 0.080469646 0.045468464 0.012558115
-0.046186473 0.024566641 0.0072740302 -0.12519084 -0.12476857 -0.061807092 -0.103823036 -0.014183521
-0.09045436 0.07342566 0.10681355 0.093761824 -0.1302086 -0.027861869 0.09445809 -0.1390468
-0.028020792 -0.04181447 -0.13895029 -0.0064656297 -0.14322652 -0.090368114 -0.081839755 -0.049747106

fc2.0.bias f4 [10]
00000000: 58a7 0bbe 708f 1d3e 14f6 143d 24a4 d0bd
00000010: 9ef4 12be 6881 143e 8ead 0dbe 419e 45bb
00000020: 0e33 66bd 91a1 ed3d
-0.13638055 0.15386748 0.03636749 -0.10187557 -0.14351127 0.1450249 -0.13835737 -0.003015414
-0.056201033 0.11603082
