callbacks/05-23-2022_09-05-31/models/epoch_7.pt (torch, 205087 bytes, 4 tensors)

fc1.0.weight f4 [64, 784]
-0.0125251245 0.021359656 -0.034566928 0.008822013 -0.025797462 -0.028473476 -0.02409282 0.012965623
0.020401593 0.00082501024 -0.0126804635 0.028272096 -0.036919143 -0.022232195 0.01011961 0.021096423
-0.026515834 0.006548874 0.032706577 0.035424184 0.033663627 -0.018585129 0.018722381 -0.020910427
0.00673452 0.0075773746 0.031528633 0.01334979 0.029818255 -0.002030503 -0.0053232443 -0.033181828
-0.0014474363 -0.021396246 0.013191789 -0.062677935 0.01726336 0.04738886 -0.034303136 0.08292968
0.043364733 -0.017933112 0.052307308 -0.0060213963 -0.24164529 -0.16535965 -0.133274 -0.28311762
-0.28464144 -0.08311381 -0.10793238 0.0058132065 -0.0076304507 0.01831289 -0.013198653 0.034102675
0.014207371 -0.0028235018 0.0293218 0.058380093 -0.09086702 -0.031561155 0.003949447 0.0718422
0.046103783 -0.10407272 -0.16150461 -0.19516933 -0.2822969 -0.15017432 0.026439598 -0.12773523
-0.049544625 -0.0037122432 -0.052837074 -0.04073357 -0.15691367 -0.28454354 -0.34729594 -0.49695608
-0.4958534 -0.1773672 0.00032916665 -0.028211238 0.017333582 0.03570916 0.03581845 -0.011315823
0.0028977846 -0.14450775 -0.0676307 -0.14366165 -0.16349073 -0.16894138 -0.29324025 -0.28669545
-0.26615715 -0.39755368 -0.22011194 -0.23710378 -0.26212975 0.04067294 0.08168993 -0.036021788
-0.064883165 0.056273587 0.092465185 -0.05034216 -0.18501195 -0.28254738 -0.031345177 0.020694587
0.023010626 -0.004864551 -0.056185514 -0.08980987 0.012489649 0.050303906 -0.09893497 -0.31245324
-0.3344639 -0.41522905 -0.38541743 -0.23343788 -0.24855705 -0.28664145 -0.16459808 0.013133462
-0.13862377 0.08284714 0.033956863 0.08336285 0.096646056 0.23945798 0.2476781 0.37056956
0.29861376 0.1055614 -0.13761093 -0.15852973 -0.00043553486 -0.007305784 -0.100151956 -0.09518627
-0.08442748 -0.045310423 -0.044129904 -0.07187557 -0.2041474 -0.08413508 -0.26880574 -0.14876342
-0.12152329 -0.08356808 -0.08632509 -0.150934 -0.24462576 -0.1188245 -0.13432819 0.04029699
0.110911526 0.10677096 0.18931468 0.26122758 0.2829607 0.012457878 0.010423477 -0.014007744
-0.02820853 -0.14827155 -0.041167654 -0.03133184 -0.18458083 -0.06729984 0.03471019 -0.0062338873
-0.056535956 -0.11578597 -0.07901504 -0.041182023 -0.04214447 -0.014484851 0.009133367 0.03417797
0.008385656 0.001349543 -0.06356431 0.038200397 0.24287249 0.11959619 0.17062578 0.1811943
0.19903761 0.006499057 -0.07024854 0.006169687 0.014965758 -0.25726727 -0.023853924 -0.048461996
-0.045079052 0.04418816 -0.032820992 -0.0819178 -0.17939752 -0.22052301 -0.042987287 -0.105341874
-0.0658711 -0.061246805 -0.022655716 0.12497252 0.1839047 0.21326701 0.06659982 0.07507238
0.18734588 0.17712423 0.05405023 0.1415531 0.19913507 0.14083685 -0.15947407 -0.107264
-0.02901139 -0.08222838 -0.054447852 -0.025346871 0.10051826 0.020997535 -0.052383065 -0.10705622
-0.116437316 -0.17015041 -0.0558216 -0.019196002 -0.08376259 -0.02974595 0.06021578 0.14951746
0.26792213 0.18815812 0.09953276 0.15212321 0.19351985 0.16225033 0.08761891 0.06146748
0.14983743 0.08686339 -0.22502166 -0.28782576 0.062079355 0.0056629675 -0.09129248 0.0928558
00000000: 2e36 4dbc 72fa ae3c 0d96 0dbd 348a 103c
00000010: 3355 d3bc 3541 e9bc 4e5e c5bc c46d 543c
00000020: 3e21 a73c 8045 583a b8c1 4fbc e29a e73c
00000030: 8738 17bd 4b20 b6bc b8cc 253c 68d2 ac3c
00000040: bc37 d9bc f097 d63b 55f7 053d f318 113d
00000050: dfe2 093d d73f 98bc ae5f 993c 584c abbc
00000060: 40ad dc3b a04b f83b 2b24 013d 14b9 5a3c
00000070: 6a45 f43c 3012 05bb 9c6e aebb abe9 07bd
00000080: e7b7 bdba 2e47 afbc 6022 583c 4a5d 80bd
00000090: e46b 8d3c d21a 423d 7281 0cbd 09d7 a93d
000000a0: 389f 313d 76e8 92bc 3040 563d 224f c5bb
000000b0: dd71 77be 0a54 29be fb78 08be cbf4 90be
000000c0: 86bc 91be 9337 aabd a70b ddbd b67c be3b
000000d0: dc08 fabb ea04 963c 2a3f 58bc 3faf 0b3d
000000e0: 08c6 683c 800a 39bb 4634 f03c f71f 6f3d
000000f0: 7d18 babd 4546 01bd 5d6a 813b 0122 933d
00000100: 52d7 3c3d 1424 d5bd 7761 25be 78da 47be
00000110: 3889 90be 4cc7 19be db97 d83c 06cd 02be
00000120: 4eef 4abd 1b49 73bb b06b 58bd 3ed8 26bd
00000130: faad 20be b1af 91be c6d0 b1be 0771 febe
00000140: 7fe0 fdbe bf9f 35be 0094 ac39 411b e7bc
00000150: 28ff 8d3c c543 123d 5eb6 123d 0066 39bc
00000160: c2e8 3d3b d7f9 13be f781 8abd 0a1c 13be
00000170: 1d6a 27be f8fe 2cbe 9623 96be bfc9 92be
00000180: c045 88be 288c cbbe 0665 61be 55cb 72be
00000190: df35 86be ab98 263d 0d4d a73d 958b 13bd
000001a0: 77e1 84bd 227f 663d 635e bd3d 9533 4ebd
000001b0: c673 3dbe 0daa 90be cd63 00bd b287 a93c
000001c0: c880 bc3c d066 9fbb c822 66bd 3dee b7bd
000001d0: 62a1 4c3c 780b 4e3d 6b9e cabd dff9 9fbe
000001e0: da3e abbe e798 d4be 6f55 c5be 570a 6fbe
000001f0: bd85 7ebe abc2 92be 668c 28be bb2d 573c
00000200: 64f3 0dbe c3ab a93d 5a16 0b3d 24ba aa3d
00000210: 5eee c53d 7934 753e 549f 7d3e 4bbb bd3e
00000220: e7e3 983e 9330 d83d e1e9 0cbe 9e55 22be
00000230: 8058 e4b9 5c65 efbb 781c cdbd 05f1 c2bd
00000240: 51e8 acbd 6c97 39bd 8fc1 34bd 8033 93bd
00000250: 040c 51be 034f acbd e8a0 89be 7055 18be
00000260: 34e1 f8bd be25 abbd 35cb b0bd 718e 1abe
00000270: 2d7f 7abe 425a f3bd 548d 09be 750e 253d
00000280: 9525 e33d bcaa da3d b5db 413e 9fbf 853e
00000290: 3ae0 903e 211c 4c3c 3bc7 2a3c bd80 65bc
000002a0: 9315 e7bc 7fd4 17be 6a9f 28bd d155 00bd
000002b0: c202 3dbe 80d4 89bd 462c 0e3d a345 ccbb
000002c0: 3f92 67bd 3221 edbd a3d2 a1bd 7bae 28bd
000002d0: ae9f 2cbd de51 6dbc 1ea4 153c 33fe 0b3d
000002e0: fe63 093c 26e3 b03a 012e 82bd 0578 1c3d
000002f0: 91b3 783e d9ee f43d 86b8 2e3e 008b 393e
00000300: 84d0 4b3e 0bf6 d43b 77de 8fbd 162b ca3b
00000310: f032 753c 89b8 83be 4e69 c3bc 1680 46bd
00000320: d0a4 38bd a5fe 343d 4e6f 06bd 85c4 a7bd
00000330: fcb3 37be c9d0 61be 7013 30bd 7bbd d7bd
00000340: 6de7 86bd eedd 7abd 7b98 b9bc 98f1 ff3d
00000350: 8451 3c3e ab62 5a3e 7d65 883d 8cbf 993d
00000360: 99d7 3f3e 0e60 353e c663 5d3d 4cf3 103e
00000370: 10ea 4b3e 8937 103e 2c4d 23be 3aad dbbd
00000380: 4ba9 edbc 5a67 a8bd b604 5fbd 3ea4 cfbc
00000390: 84dc cd3d 0603 ac3c a08f 56bd 4b40 dbbd
000003a0: b076 eebd e93b 2ebe 31a5 64bd ef40 9dbc
000003b0: b98b abbd c7ad f3bc d2a4 763d 1b1b 193e
000003c0: 172d 893e 86ac 403e d5d7 cb3d 30c6 1b3e
000003d0: 112a 463e f324 263e 8b71 b33d 53c5 7b3d
000003e0: fc6e 193e 6fe5 b13d 146c 66be e65d 93be
000003f0: ec46 7e3d 6a90 b93b 8df7 babd 2f2b be3d

fc1.0.bias f4 [64]
0.30095363 0.32267168 0.333086 0.19751886 -0.06868462 0.28130424 0.15689059 0.102308296
0.45460287 0.08242685 0.22012869 -0.29749703 -0.10154704 -0.17334521 -0.3739074 -0.2548751
0.2424972 -0.14858857 -0.042377472 -0.06152075 -0.1864946 -0.5073759 0.34871742 0.0076717185
-0.3133201 0.01962147 -0.1240794 0.0104643665 0.3376266 0.08551737 0.07325432 0.22364342
0.19571587 -0.42466787 0.37192455 0.22225057 0.029018173 0.17054585 0.10800187 -0.3775527
-0.14695042 -0.4020828 -0.0011962719 -0.28316417 -0.054478504 -0.023871312 0.044350617 -0.34097245
0.23436539 0.26411763 0.07866535 0.11842437 0.1905178 -0.017631251 -0.065604195 0.57679445
-0.07853013 0.013353006 -0.019382125 0.41707692 -0.304859 0.303381 -0.008620989 0.3323304
00000000: 9816 9a3e 3935 a53e 408a aa3e 6242 4a3e
00000010: 86aa 8cbd 1c07 903e eda7 203e 0387 d13d
00000020: b5c1 e83e 69cf a83d 6a69 613e 8851 98be
00000030: e5f7 cfbd 6881 31be ca70 bfbe fd7e 82be
00000040: 3051 783e 9a27 18be 0094 2dbd 2ffd 7bbd
00000050: 71f8 3ebe 63e3 01bf 178b b23e 0a63 fb3b
00000060: 7e6b a0be 34bd a03c 571d febd bc72 2b3c
00000070: 65dd ac3e bb23 af3d 5c06 963d c802 653e
00000080: be69 483e 116e d9be e56c be3e a795 633e
00000090: 85b7 ed3c 92a3 2e3e 1630 dd3d 964e c1be
000000a0: 2c7a 16be ccdd cdbe 39cc 9cba e5fa 90be
000000b0: da24 5fbd c58d c3bc fea8 353d f193 aebe
000000c0: 7bfd 6f3e 6d3a 873e 4d1b a13d 7a88 f23d
000000d0: 1917 433e 6a6f 90bc 7e5b 86bd cda8 133f
000000e0: 68d4 a0bd 91c6 5a3c 43c7 9ebc 1b8b d53e
000000f0: 7b16 9cbe c154 9b3e 0c3f 0dbc 3627 aa3e

fc2.0.weight f4 [10, 64]
0.2325716 -0.04130243 -0.37830785 0.46239454 -0.48077634 -0.17672227 -0.4830316 -0.21024796
-0.6254898 0.31504536 0.12691599 0.42918962 -0.41980204 0.05143762 -0.3430421 0.24433482
-0.45425275 0.20240918 0.015189642 -0.03495364 -0.38003457 -0.3869554 -0.01220189 0.057979565
-0.24964224 0.44030103 -0.042886864 0.10565601 -0.1899134 -0.6832266 0.17354593 0.4896542
-0.7298041 0.0290169 -0.046064682 0.36410934 -0.5394201 -0.4784843 0.10572481 0.104833454
0.13251063 -0.760087 0.35341388 0.11385918 -0.89687127 -0.3173763 -0.3769739 -0.14724158
0.1566002 0.29350945 -0.6943914 -0.5136456 -0.5777465 -0.36081645 0.15317225 0.12539521
0.17793995 -0.11721515 -0.004018228 -0.8956704 0.07494257 0.14236648 -0.11065453 -0.79415166
-0.024120377 -0.66967756 -0.64178324 0.28489718 0.12213858 0.24028647 -0.080526255 0.11385675
-0.32386515 0.19763932 -0.8526531 -0.40403324 0.18851876 -0.7634839 -0.02205497 0.11092599
0.11827408 0.24878143 0.0075415056 -0.7763973 0.2197843 0.12193975 0.019494 0.020226428
0.07091515 0.029253466 0.18570268 -0.07327364 0.13634384 -0.7473152 -0.807347 0.38523102
0.5246648 -1.0621153 0.15055063 -0.51043177 0.07648565 -0.62271386 0.07014526 0.14720573
-0.95796746 0.04831501 0.24910241 -0.7199036 0.25984433 -0.47039875 0.081569746 -0.07779582
0.1682512 -0.6019327 -0.43563506 0.27301413 0.4671201 0.12608859 -0.95425075 0.37124622
0.3796767 -0.75132054 -0.81936836 0.3796097 -0.6986412 -0.039871283 -0.0026908924 0.18239102
-0.89986753 0.27178568 0.14195254 0.3937245 0.18990275 0.350468 0.3948268 -1.1536511
0.119904585 -0.6330923 0.08978487 0.32042438 0.3400511 0.08855924 0.0831536 -0.6106439
-0.91093045 0.14135796 0.09677527 0.18256693 0.29667044 0.08783573 -1.0259764 0.01939281
0.11837561 0.39541653 0.0031389713 0.08675531 0.52947444 -0.5099146 0.14547655 0.28956187
-0.7370556 -0.107945085 -1.0044166 -0.6421975 0.02854101 -0.28897974 0.030969415 -0.18338993
0.016173642 -0.1054701 0.14515088 -0.18490307 -0.72187626 0.2526292 0.24575405 -0.27692163
0.106081665 -0.027099239 0.7151964 -0.38945338 0.6136141 -0.14777374 -0.094914526 0.5116657
0.35244203 -0.5478902 -0.0471762 0.47284168 -0.07007007 0.16959724 -0.040283583 0.23910671
-0.0565871 -0.07161025 -0.09518328 -0.15777637 0.021834055 0.04138317 -0.11818275 -0.09882593
0.018968673 -0.096229084 -0.1369328 -0.06130388 0.061380092 0.010562457 -0.1116312 0.04891449
-0.122522525 -0.16559923 -0.094660565 -0.0203661 0.025432896 0.06147251 -0.12483515 -0.12950586
-0.124645874 -0.13981648 -0.035282172 0.10085918 -0.0022735172 0.010217423 0.027821662 -0.0500176
-0.0487195 -0.072991975 -0.11536357 -0.10560939 -0.066838965 0.07632734 0.014811179 -0.018325387
-0.07539706 0.020453872 0.006982342 -0.15323654 -0.14396021 -0.061807092 -0.10874485 -0.034882538
-0.09326491 0.07168584 0.10640734 0.06658677 -0.13052994 -0.03238464 0.09229116 -0.13912256
-0.028020792 -0.049393065 -0.14220375 -0.0066241915 -0.14936545 -0.11592083 -0.081839755 -0.050278682
00000000: 4027 6e3e bd2c 29bd 91b1 c1be fabe ec3e
00000010: 5128 f6be aff6 34be eb4f f7be 3e4b 57be
00000020: 1920 20bf a04d a13e 44f6 013e bebe db3e
00000030: 4bf0 d6be 41b0 523d 37a3 afbe e832 7a3e
00000040: d193 e8be 5a44 4f3e fadd 783c 8c2b 0fbd
00000050: e493 c2be 051f c6be 70ea 47bc fb7b 6d3d
00000060: 37a2 7fbe 236f e13e 23aa 2fbd 2e62 d83d
00000070: a978 42be f0e7 2ebf 06b6 313e f5b3 fa3e
00000080: 71d4 3abf dab4 ed3c 52ae 3cbd 8a6c ba3e
00000090: 7017 0abf e5fb f4be 4086 d83d ecb2 d63d
000000a0: deb0 073e 1095 42bf aaf2 b43e 002f e93d
000000b0: 5b99 65bf 257f a2be b902 c1be 7fc6 16be
000000c0: ce5b 203e df46 963e a3c3 31bf 477e 03bf
000000d0: 32e7 13bf efbc b8be 30d9 1c3e 9a67 003e
000000e0: e435 363e 7f0e f0bd 57ab 83bb a84a 65bf
000000f0: 7d7b 993d 85c8 113e d89e e2bd 864d 4bbf
00000100: 1998 c5bc fd6f 2bbf e84b 24bf 0bde 913e
00000110: cb23 fa3d a80d 763e f3ea a4bd ba2d e93d
00000120: a7d1 a5be f661 4a3e 7947 5abf 72dd cebe
00000130: 100b 413e ae73 43bf a0ac b4bc 2a2d e33d
00000140: ae39 f23d 8fc0 7e3e bc1e f73b f9c1 46bf
00000150: 230f 613e 8cbb f93d e2b1 9f3c e5b1 a53c
00000160: f63b 913d f7a4 ef3c d828 3e3e 7d10 96bd
00000170: b89d 0b3e 0d50 3fbf 4bae 4ebf 003d c53e
00000180: 6f50 063f 65f3 87bf f229 1a3e a8ab 02bf
00000190: 82a4 9c3d 2d6a 1fbf 51a8 8f3d 19bd 163e
000001a0: 5b3d 75bf f6e5 453d b414 7f3e 9a4b 38bf
000001b0: 510a 853e 1bd8 f0be 0a0e a73d 6a53 9fbd
000001c0: 0b4a 2c3e 4318 1abf 8f0b dfbe 82c8 8b3e
000001d0: 5e2a ef3e 5e1d 013e c749 74bf fc13 be3e
000001e0: fc64 c23e 8b56 40bf 20c2 51bf 345c c23e
000001f0: 26da 32bf 1250 23bd af59 30bb b6c4 3a3e
00000200: b85d 66bf 7e27 8b3e 025c 113e 4296 c93e
00000210: de75 423e 8b70 b33e bd26 ca3e d7aa 93bf
00000220: 8990 f53d 5612 22bf 21e1 b73d aa0e a43e
00000230: 2e1b ae3e 8c5e b53d 6f4c aa3d 2953 1cbf
00000240: bd32 69bf 24c0 103e 1d32 c63d d3f2 3a3e
00000250: 30e5 973e 38e3 b33d 3253 83bf acdd 9e3c
00000260: e96e f23d 0974 ca3e 33b7 4d3b c5ac b13d
00000270: a38b 073f c389 02bf cef7 143e 7441 943e
00000280: adaf 3cbf 5012 ddbd b990 80bf 0e67 24bf
00000290: d6ce e93c 27f5 93be 92b3 fd3c 92ca 3bbe
000002a0: 967e 843c b500 d8bd 6fa2 143e 3b57 3dbe
000002b0: e2cc 38bf 9d58 813e f3a6 7b3e acc8 8dbe
000002c0: 5841 d93d 39ff ddbc 1c17 373f 6f66 c7be
000002d0: d015 1d3f 0052 17be 8c62 c2bd 86fc 023f
000002e0: 4873 b43e 8842 0cbf d53b 41bd 4e18 f23e
000002f0: e680 8fbd e6aa 2d3e 6600 25bd 64d8 743e
00000300: e0c7 67bd 65a8 92bd 74ef c2bd 2190 21be
00000310: 55dd b23c 6681 293d cc09 f2bd 4065 cabd
00000320: 3164 9b3c c113 c5bd 1d38 0cbe c719 7bbd
00000330: b169 7b3d 280e 2d3c e69e e4bd 8f5a 483d
00000340: 17ed fabd d892 29be 66dd c1bd cfd6 a6bc
00000350: a658 d03c 99ca 7b3d 92a9 ffbd 2f9d 04be
00000360: 5646 ffbd 0d2c 0fbe 0a84 10bd 428f ce3d
00000370: 4aff 14bb fa66 273c 41ea e33c 41df 4cbd
00000380: 198e 47bd d17c 95bd bc43 ecbd bc49 d8bd
00000390: dee2 88bd 8251 9c3d 96aa 723c 1f1f 96bc
000003a0: c669 9abd e18e a73c 21cc e43b 0aea 1cbe
000003b0: 4e6a 13be 6f29 7dbd 9fb5 debd fee0 0ebd
000003c0: ac01 bfbd 07d0 923d 17ec d93d a55e 883d
000003d0: a4a9 05be c2a5 04bd 2603 bd3d 2576 0ebe
000003e0: dc8b e5bc 6250 4abd dc9d 11be bf0f d9bb
000003f0: 42f3 18be e667 edbd 9a9b a7bd 05f1 4dbd

fc2.0.bias f4 [10]
-0.100156076 0.31297007 0.2029572 -0.1178988 0.22638719 0.46129507 -0.14808223 -0.028851595
-0.056235783 0.24405833
00000000: a11e cdbd 9d3d a03e 03d4 4f3e ed74 f1bd
00000010: 0bd2 673e de2e ec3e dea2 17be 2e5a ecbc
00000020: 7e57 66bd 6dea 793e
