callbacks/05-23-2022_09-05-31/models/epoch_6.pt (torch, 205087 bytes, 4 tensors)

fc1.0.weight f4 [64, 784]
-0.0125251245 0.021359656 -0.034566928 0.008822013 -0.025797462 -0.028473476 -0.02409282 0.012965623
0.020401593 0.00082501024 -0.0126804635 0.028272096 -0.036919143 -0.022232195 0.01011961 0.021096423
-0.026515834 0.006548874 0.032706577 0.035424184 0.033663627 -0.018585129 0.018722381 -0.020910427
0.00673452 0.0075773746 0.031528633 0.01334979 0.029818255 -0.002030503 -0.0053232443 -0.033181828
-0.0014474363 -0.021396246 0.013191789 -0.062677935 0.01726336 0.04738886 -0.034303136 0.0828443
0.0669472 -0.013025292 0.051452026 -0.0068288567 -0.23361811 -0.16096695 -0.097851135 -0.23007159
-0.2579239 -0.106670275 -0.13869387 0.0058132065 -0.0076304507 0.01831289 -0.013198653 0.034102675
0.014207371 -0.0028235018 0.0293218 0.039379578 -0.060573425 -0.031561155 0.034865126 0.043358967
0.038382377 -0.07126839 -0.15572551 -0.18768689 -0.2350052 -0.1795308 -0.03548997 -0.13774832
-0.07311188 -0.07135038 -0.10888141 -0.06635477 -0.12290814 -0.20368136 -0.27660275 -0.4683607
-0.46619403 -0.1639808 0.00032916665 -0.028211238 0.017333582 0.03570916 0.031496912 -0.025717951
-0.030529903 -0.14073315 -0.06714186 -0.1306593 -0.11678665 -0.1276899 -0.259917 -0.2909315
-0.24981597 -0.3732922 -0.19594753 -0.21400332 -0.2614084 -0.023164565 -0.0044299355 -0.043083068
-0.07035293 0.045763403 0.06837041 -0.10176327 -0.171314 -0.22417077 -0.02680549 0.020694587
0.023010626 -0.004864551 -0.058399566 -0.10054519 0.001634848 0.045117434 -0.058146056 -0.25039074
-0.28601748 -0.36231273 -0.3421035 -0.2487262 -0.25321034 -0.2847307 -0.14045675 0.038831614
-0.13823669 0.02821713 -0.020780131 0.06506189 0.09008593 0.20568232 0.19755824 0.32100984
0.2901224 0.1295107 -0.109470375 -0.14094381 -0.00043553486 -0.007305784 -0.09193991 -0.11613555
-0.052630614 -0.01715219 -0.02379742 -0.03930871 -0.19116837 -0.119477004 -0.27276814 -0.14771679
-0.13688847 -0.10355117 -0.0895368 -0.1451013 -0.22079279 -0.109216414 -0.13668928 0.012563364
0.07329215 0.0768821 0.12890911 0.21013379 0.2550177 -0.027814923 -0.02646969 -0.013794791
-0.02820853 -0.121791035 -0.03720525 -0.049829 -0.15451609 -0.038075034 0.05678327 0.009089376
-0.056216113 -0.12860295 -0.09264937 -0.04346813 -0.050613064 -0.023823569 -0.0027562731 0.029976923
0.022197034 0.017577907 -0.051455628 0.030061468 0.20506223 0.11237857 0.14474928 0.12147619
0.13876285 -0.036439486 -0.071260825 0.010834557 0.014965758 -0.21371467 -0.0232658 -0.05608009
-0.014635907 0.06216793 -0.007928756 -0.047280893 -0.15251017 -0.19057025 -0.026807724 -0.063559875
-0.0290574 -0.022906352 -0.0059164916 0.11194985 0.17536306 0.21991771 0.08471843 0.08732228
0.17253594 0.17132472 0.063393034 0.104307555 0.18579654 0.118907906 -0.114813656 -0.110042796
-0.02816165 -0.07102756 -0.054594927 -0.0287567 0.101127304 0.039799485 -0.032996267 -0.094668664
-0.11211444 -0.15903379 -0.043109525 -0.0005083216 -0.05613159 0.00027978112 0.06559001 0.13647261
0.23249869 0.1853151 0.11826553 0.16641046 0.17687462 0.13581523 0.09752332 0.07013828
0.14799593 0.038407225 -0.17594883 -0.28784215 0.06204312 0.018369999 -0.08987588 0.09525073
00000000: 2e36 4dbc 72fa ae3c 0d96 0dbd 348a 103c
00000010: 3355 d3bc 3541 e9bc 4e5e c5bc c46d 543c
00000020: 3e21 a73c 8045 583a b8c1 4fbc e29a e73c
00000030: 8738 17bd 4b20 b6bc b8cc 253c 68d2 ac3c
00000040: bc37 d9bc f097 d63b 55f7 053d f318 113d
00000050: dfe2 093d d73f 98bc ae5f 993c 584c abbc
00000060: 40ad dc3b a04b f83b 2b24 013d 14b9 5a3c
00000070: 6a45 f43c 3012 05bb 9c6e aebb abe9 07bd
00000080: e7b7 bdba 2e47 afbc 6022 583c 4a5d 80bd
00000090: e46b 8d3c d21a 423d 7281 0cbd 46aa a93d
000000a0: 9d1b 893d 0968 55bc 5cbf 523d 9ac4 dfbb
000000b0: 9639 6fbe 85d4 24be 2d66 c8bd e397 6bbe
000000c0: 9a0e 84be f275 dabd c405 0ebe b67c be3b
000000d0: dc08 fabb ea04 963c 2a3f 58bc 3faf 0b3d
000000e0: 08c6 683c 800a 39bb 4634 f03c 7b4c 213d
000000f0: d71b 78bd 4546 01bd bcce 0e3d 2c99 313d
00000100: d736 1d3d 29f5 91bd 8276 1fbe fe30 40be
00000110: 34a5 70be ecd6 37be ee5d 11bd e50d 0dbe
00000120: aebb 95bd 2620 92bd 37fd debd 02e5 87bd
00000130: 43b7 fbbd d991 50be e09e 8dbe f9cc efbe
00000140: fcb0 eebe 95ea 27be 0094 ac39 411b e7bc
00000150: 28ff 8d3c c543 123d e802 013d 74ae d2bc
00000160: d919 fabc 5a1c 10be ac81 89bd 8dcb 05be
00000170: d72d efbd 24c1 02be d713 85be f9f4 94be
00000180: c2cf 7fbe 2820 bfbe 78a6 48be b023 5bbe
00000190: 52d7 85be 9dc3 bdbc fe28 91bb df77 30bd
000001a0: 3215 90bd 6872 3b3d c905 8c3d 4369 d0bd
000001b0: f06c 2fbe 068d 65be 3097 dbbc b287 a93c
000001c0: c880 bc3c d066 9fbb 6234 6fbd a3ea cdbd
000001d0: 6548 d63a 0fcd 383d 8f2a 6ebd 3733 80be
000001e0: e270 92be 0e81 b9be 3128 afbe 15b2 7ebe
000001f0: c9a4 81be 39c8 91be e5d3 0fbe e60d 1f3d
00000200: eb8d 0dbe 9c27 e73c 183b aabc 2b3f 853d
00000210: f97e b83d 639e 523e b54c 4a3e 675b a43e
00000220: ec8a 943e 749e 043e 0132 e0bd 9353 10be
00000230: 8058 e4b9 5c65 efbb fe4a bcbd 7ad8 edbd
00000240: 3393 57bd c082 8cbc cff2 c2bc 2b02 21bd
00000250: a4c1 43be 5cb0 f4bd 44a8 8bbe 1243 17be
00000260: 7e2c 0cbe a312 d4bd 125f b7bd 6f95 14be
00000270: 8117 62be dbac dfbd 46f8 0bbe 91d6 4d3c
00000280: 321a 963d 5d74 9d3d c000 043e 502d 573e
00000290: ae91 823e 1fdc e3bc f7d6 d8bc 8c03 62bc
000002a0: 9315 e7bc 946d f9bd 8864 18bd 7e19 4cbd
000002b0: 7739 1ebe 91f4 1bbd 9395 683d 9beb 143c
000002c0: de42 66bd 7eb0 03be f4be bdbd a30b 32bd
000002d0: a54f 4fbd a529 c3bc 97a2 34bb 2a92 f53c
000002e0: 8ed6 b53c 8bff 8f3c 23c3 52bd 7843 f63c
000002f0: d5fb 513e bc26 e63d 2839 143e 82c8 f83d
00000300: d917 0e3e 9241 15bd 32f1 91bd 6d83 313c
00000310: f032 753c 05d8 5abe eb97 bebc 3db4 65bd
00000320: 71cb 6fbc cda3 7e3d 9de7 01bc 9ca9 41bd
00000330: a02b 1cbe d924 43be df9b dbbc ae2b 82bd
00000340: c909 eebc 1aa6 bbbc 21df c1bb f745 e53d
00000350: 6092 333e 1c32 613e db80 ad3d 06d6 b23d
00000360: 43ad 303e bf6f 2f3e 35d4 813d 339f d53d
00000370: 7341 3e3e fd85 f33d 6c23 ebbd 1e5e e1bd
00000380: 43b3 e6bc e676 91bd ee9e 5fbd 2c93 ebbc
00000390: d51b cf3d c904 233d 1827 07bd a5e1 c1bd
000003a0: 419c e5bd c1d9 22be 9d93 30bd e340 05ba
000003b0: 3dea 65bd 96af 9239 0e54 863d 7abf 0b3e
000003c0: 2314 6e3e 3ec3 3d3e 3335 f23d 8167 2a3e
000003d0: 9f1e 353e 2613 0b3e 4eba c73d a9a4 8f3d
000003e0: 3f8c 173e e550 1d3d ee2b 34be 0c60 93be
000003f0: ed20 7e3d ae7c 963c d810 b8bd d112 c33d

fc1.0.bias f4 [64]
0.2729544 0.2744743 0.30653375 0.19648416 -0.052348606 0.31690794 0.14729428 0.09533399
0.41103163 0.08714763 0.216815 -0.28469807 -0.07052875 -0.15987001 -0.3582802 -0.25317833
0.22343856 -0.14459334 -0.042377472 -0.085808605 -0.17161424 -0.4375086 0.3275603 0.029805623
-0.27391925 0.0072391746 -0.12621333 0.0104643665 0.3144174 0.08461326 0.08354969 0.22080307
0.2035162 -0.38804194 0.37337962 0.23015085 0.06164439 0.13265496 0.10953321 -0.3712865
-0.12091132 -0.36646914 -0.025374115 -0.23831004 -0.02709155 0.02425814 0.033919916 -0.27890638
0.21645378 0.2366371 0.08169799 0.12181542 0.19004177 -0.04180969 -0.04067923 0.53204393
-0.103767455 -0.005416939 0.018628625 0.40757737 -0.2350275 0.2712074 -0.008620989 0.30595553
00000000: aec0 8b3e e587 8c3e fef1 9c3e 2533 493e
00000010: 7e6b 56bd c241 a23e 50d4 163e 783e c33d
00000020: bd72 d23e 757a b23d c004 5e3e f2c3 91be
00000030: 6171 90bd f7b4 23be 8170 b7be 97a0 81be
00000040: 14cd 643e 4710 14be 0094 2dbd 6cbc afbd
00000050: a5bb 2fbe 2101 e0be fcb5 a73e ec2a f43c
00000060: 253f 8cbe 9936 ed3b 113e 01be bc72 2b3c
00000070: 51fb a03e b849 ad3d 1a1c ab3d 331a 623e
00000080: 8d66 503e 6fad c6be 9d2b bf3e aaac 6b3e
00000090: d47e 7c3d b4d6 073e f352 e03d 4419 bebe
000000a0: 5ba0 f7bd d8a1 bbbe 60dd cfbc 8c07 74be
000000b0: 19ef ddbc 02b9 c63c 9cef 0a3d d1cc 8ebe
000000c0: 0fa6 5d3e ff50 723e 4751 a73d 5d7a f93d
000000d0: 4f9a 423e a340 2bbd 449f 26bd 0834 083f
000000e0: 0884 d4bd 9480 b1bb 0f9b 983c fbad d03e
000000f0: 0dab 70be b2db 8a3e 0c3f 0dbc 34a6 9c3e

fc2.0.weight f4 [10, 64]
0.25225955 -0.05013432 -0.35761353 0.44572642 -0.47196427 -0.14787786 -0.46371529 -0.13337463
-0.60432 0.32418928 0.1424378 0.3916766 -0.39861467 0.041440822 -0.32665983 0.22384
-0.40423164 0.14740679 0.015189642 -0.054401077 -0.33586934 -0.375974 -0.027544852 0.0701449
-0.23090957 0.39734855 -0.04747848 0.10565601 -0.20178068 -0.5953039 0.15277702 0.45296514
-0.7349383 0.029595114 -0.05861968 0.34353498 -0.53660744 -0.45836222 0.12115956 0.118823
0.12634422 -0.7205652 0.33992156 0.1291371 -0.7826356 -0.26020935 -0.3865014 -0.09333225
0.13881122 0.27691516 -0.6385129 -0.49868238 -0.5766997 -0.32505384 0.17120066 0.11248741
0.154406 -0.06827168 -0.041581284 -0.7963393 0.118893586 0.12732549 -0.11065453 -0.77434033
0.031060014 -0.6021198 -0.6131943 0.2543308 0.14325827 0.25162098 -0.1009856 0.15481798
-0.35750315 0.20967881 -0.7895319 -0.33484545 0.16477117 -0.67434275 -0.022609683 0.09425944
0.14302029 0.22212869 0.0075415056 -0.64118385 0.19550447 0.13594037 0.06861502 0.025889376
0.0613775 0.018001154 0.18748158 -0.07327364 0.100926995 -0.75703174 -0.68235457 0.36503416
0.4860101 -0.9912963 0.162987 -0.39830297 0.086813554 -0.60859376 0.10740854 0.14391421
-0.8837865 0.056802772 0.23002818 -0.6580081 0.2553076 -0.47661686 0.079503424 -0.1068735
0.19447857 -0.6061686 -0.3820157 0.22170942 0.44136915 0.12254965 -0.88909394 0.37013164
0.3466395 -0.696742 -0.7947737 0.33641595 -0.72425044 -0.014132862 -0.0026908924 0.18405056
-0.8453576 0.24454358 0.10560417 0.38358438 0.16329838 0.33737853 0.34949508 -1.119422
0.10419556 -0.6311662 0.100564815 0.34661338 0.33640984 0.08851211 0.0990472 -0.5771813
-0.860982 0.17272858 0.09677527 0.16341814 0.28616711 0.097606905 -0.96090865 0.04340604
0.12434212 0.38376245 -0.039653428 0.08675531 0.45175812 -0.48242566 0.15065743 0.28419223
-0.6994951 -0.10407788 -0.98947793 -0.5784282 0.012189315 -0.2312172 0.048267126 -0.2156465
0.013209086 -0.09224986 0.16876681 -0.16642737 -0.68899477 0.26322162 0.21671183 -0.23843236
0.13357659 -0.01891799 0.6236687 -0.32283086 0.57366115 -0.1464665 -0.0859811 0.47837725
0.36107683 -0.5315706 -0.043847993 0.4419955 -0.08585392 0.18931356 -0.040283583 0.19952188
-0.0565871 -0.06823331 -0.07133479 -0.15777637 0.027573612 0.04138317 -0.11818275 -0.09882593
0.046583515 -0.079088755 -0.1369328 -0.06130388 0.061380092 0.03282826 -0.1116312 0.07199559
-0.122522525 -0.16559923 -0.094660565 0.008050739 0.054729655 0.06147251 -0.12483515 -0.12950586
-0.10064372 -0.13981648 -0.012236128 0.10085918 -0.0022735172 0.03907296 0.027821662 -0.0500176
-0.0487195 -0.072991975 -0.11536357 -0.10560939 -0.066838965 0.07632734 0.04051108 0.008089273
-0.04880286 0.020453872 0.006982342 -0.12559235 -0.14396021 -0.061807092 -0.10874485 -0.034882538
-0.09326491 0.07168584 0.10640734 0.09142268 -0.13052994 -0.03238464 0.09229116 -0.13912256
-0.028020792 -0.049393065 -0.14220375 -0.0066241915 -0.14936545 -0.09048283 -0.081839755 -0.050278682
00000000: 2a28 813e a559 4dbd 1f19 b7be 4136 e43e
00000010: 4da5 f1be 4b6d 17be 176c edbe 5c93 08be
00000020: b7b4 1abf 23fc a53e 37db 113e d689 c83e
00000030: 3917 ccbe dabd 293d f53f a7be 5036 653e
00000040: 73f7 cebe cef1 163e fadd 783c aad3 5ebd
00000050: 11f7 abbe aa7f c0be bea5 e1bc 21a8 8f3d
00000060: 8f73 6cbe 4571 cb3e cb78 42bd 2e62 d83d
00000070: 989f 4ebe d665 18bf 9471 1c3e 0ceb e73e
00000080: eb24 3cbf 7471 f23c 311b 70bd d1e3 af3e
00000090: 1b5f 09bf 74ae eabe 8122 f83d 7959 f33d
000000a0: 6160 013e f676 38bf 330a ae3e 843c 043e
000000b0: cf5a 48bf 293a 85be 83e3 c5be fb24 bfbd
000000c0: 8724 0e3e d3c7 8d3e 9575 23bf 4c53 ffbe
000000d0: 97a2 13bf 756d a6be 3a4f 2f3e cd5f e63d
000000e0: 9b1c 1e3e 06d2 8bbd 2351 2abd e4dc 4bbf
000000f0: 7b7e f33d 9d61 023e d89e e2bd 2b3b 46bf
00000100: 9271 fe3c 8624 1abf 4dfa 1cbf a637 823e
00000110: 4cb2 123e 77d4 803e 8ad1 cebd 9b88 1e3e
00000120: a70a b7be 0bb6 563e c31e 4abf dd70 abbe
00000130: c6b9 283e baa1 2cbf f137 b9bc 180b c13d
00000140: e973 123e b475 633e bc1e f73b a024 24bf
00000150: 5332 483e f433 0b3e 0886 8c3d f515 d43c
00000160: f966 7b3d 2877 933c 2cfb 3f3e 7d10 96bd
00000170: d0b2 ce3d d5cc 41bf caae 2ebf c2e5 ba3e
00000180: 51d6 f83e 98c5 7dbf 10e6 263e 5eee cbbe
00000190: 4ecb b13d cdcc 1bbf 02f9 db3d 3f5e 133e
000001a0: d53f 62bf 06aa 683d 828c 6b3e 3873 28bf
000001b0: aeb7 823e 2007 f4be b1d2 a23d 7ee0 dabd
000001c0: 6425 473e de2d 1bbf 9097 c3be cb07 633e
000001d0: 23fb e13e 50fb fa3d a99b 63bf e581 bd3e
000001e0: bc7a b13e af5d 32bf 4a76 4bbf b63e ac3e
000001f0: 7a68 39bf 858d 67bc af59 30bb c077 3c3e
00000200: 5b69 58bf a269 7a3e 0047 d83d 2c65 c43e
00000210: b137 273e e1bc ac3e 05f1 b23e 3849 8fbf
00000220: 7b64 d53d 1c94 21bf edf4 cd3d 4f77 b13e
00000230: e93d ac3e d645 b53d 42d9 ca3d 27c2 13bf
00000240: 5169 5cbf c3df 303e 1d32 c63d 1657 273e
00000250: 7f84 923e 21e6 c73d 1cfe 75bf 88ca 313d
00000260: 15a7 fe3d 837c c43e a26b 22bd c5ac b13d
00000270: d74c e73e 7f00 f7be f145 1a3e a581 913e
00000280: 1c12 33bf c926 d5bd 6d4e 7dbf df13 14bf
00000290: b1b5 473c 34c4 6cbe c0b3 453d 70d2 5cbe
000002a0: ec6a 583c 7fed bcbd 35d1 2c3e f06b 2abe
000002b0: f661 30bf fcc4 863e b5e9 5d3e 9d27 74be
000002c0: 4dc8 083e e7f9 9abc c0a8 1f3f 164a a5be
000002d0: 75db 123f 50fb 15be dc16 b0bd dded f43e
000002e0: 10df b83e 0315 08bf f499 33bd 3c4d e23e
000002f0: 2ed4 afbd 6adb 413e 6600 25bd 774f 4c3e
00000300: e0c7 67bd e8bd 8bbd f917 92bd 2190 21be
00000310: 0ee2 e13c 6681 293d cc09 f2bd 4065 cabd
00000320: 5bce 3e3d 49f9 a1bd 1d38 0cbe c719 7bbd
00000330: b169 7b3d ed76 063d e69e e4bd 6d72 933d
00000340: 17ed fabd d892 29be 66dd c1bd 3fe7 033c
00000350: 342c 603d 99ca 7b3d 92a9 ffbd 2f9d 04be
00000360: 4b1e cebd 0d2c 0fbe 0a7a 48bc 428f ce3d
00000370: 4aff 14bb f80a 203d 41ea e33c 41df 4cbd
00000380: 198e 47bd d17c 95bd bc43 ecbd bc49 d8bd
00000390: dee2 88bd 8251 9c3d f2ee 253d df88 043c
000003a0: 82e5 47bd e18e a73c 21cc e43b 489b 00be
000003b0: 4e6a 13be 6f29 7dbd 9fb5 debd fee0 0ebd
000003c0: ac01 bfbd 07d0 923d 17ec d93d d03b bb3d
000003d0: a4a9 05be c2a5 04bd 2603 bd3d 2576 0ebe
000003e0: dc8b e5bc 6250 4abd dc9d 11be bf0f d9bb
000003f0: 42f3 18be 104f b9bd 9a9b a7bd 05f1 4dbd

fc2.0.bias f4 [10]
-0.11840578 0.29872298 0.18648642 -0.10389937 0.19684057 0.44836402 -0.14808223 -0.02457112
-0.056235783 0.21683717
00000000: bb7e f2bd 38f2 983e 4cf6 3e3e 31c9 d4bd
00000010: 9390 493e f88f e53e dea2 17be 6049 c9bc
00000020: 7e57 66bd 900a 5e3e
